save_parameters/BernNet_model_0324_1034.pt (torch, 599324 bytes, 5 tensors)

lin1.weight f4 [64, 2325]
-0.0001507065 0.0770822 -0.10286685 0.0650439 -0.00017266918 0.0017187501 0.024219504 0.006799701
-0.068590544 0.030710664 -0.010403117 0.016980112 0.010505076 0.048079196 0.008080395 0.02628204
0.041809347 0.14044893 0.005696981 0.16389677 -0.007822615 0.0059036557 -0.0950649 -0.016653853
-0.05232817 0.05731825 -0.008953976 0.04646347 0.056658898 -0.0047812024 -0.010269801 -0.11917001
0.086636476 -0.07760835 -0.00036141326 -0.13015248 0.007829221 0.053887967 0.04506235 0.011743454
0.031590585 -0.024208207 -0.16310686 0.070940934 -0.006112096 -0.103806205 -0.0010353458 0.07607617
0.028217543 -0.0913693 -0.022547452 -0.034516137 0.036316797 -0.011290483 -0.0092129465 0.07987052
-0.087150514 0.0016319125 0.015134573 -0.004519983 0.04913908 -0.0073959604 -0.011273535 -0.002397577
-0.005017872 -0.08811734 0.082364425 -0.00884865 -0.09724934 -0.005059533 -0.03189862 0.000588273
0.00046837024 -0.018472148 0.10077516 -0.09071965 0.0030984888 -0.013447947 -0.010279041 0.010823863
-0.025906991 0.08763556 -0.0017502788 0.07645282 -0.04038602 -0.008899161 0.075329304 0.0022053202
0.026821923 0.00032417223 -0.01871861 0.10156149 0.06805275 0.0026807261 -0.09248922 0.01072406
0.04576887 0.023467084 -0.07441898 0.047444943 0.040632855 0.059281304 0.0051387157 -0.021173082
-0.0074992017 0.030681137 -0.11687317 -0.011726173 0.004427436 -0.01865979 -0.0031778808 0.02176369
-0.0004709391 0.086866945 -0.0039347927 0.088054195 -0.013285291 0.0006044097 0.00384375 0.008692715
-0.07454295 0.0515113 0.1907801 -0.011888971 0.036234595 -0.007216894 0.034561172 -0.0019703917
-0.021044325 0.104614094 -0.0022864402 0.00064126437 0.008813754 0.064029686 0.027071645 0.034676116
0.04062335 0.012279972 -0.0012555738 -0.08980076 0.069930136 -0.04472321 0.03811788 0.09657219
0.05413177 -0.056016408 -0.034428 -0.0037177915 0.015956476 0.00034822783 -0.005529553 0.1104869
0.06787776 0.11244421 0.07735488 0.06675673 -0.0030390904 0.0693448 0.0005107434 -0.11405779
-0.0021244558 0.03585098 -0.0002551636 -0.08643991 -0.08484128 0.10347459 -0.0842743 -0.106491655
0.027819902 -0.0208805 -0.09137153 0.06444758 -2.3108732e-05 0.03425024 0.08596859 0.07622561
-0.061689213 -0.08342693 -0.12922587 0.064542696 -0.108882084 0.12273832 0.042817175 0.0006917321
-0.0015556132 -0.0053253532 0.0625366 0.07525174 -0.012655376 -0.08821417 0.08684707 -0.11064753
0.09752282 -0.094122045 -0.0005441705 -0.0037744553 -0.0064818445 0.0020999466 0.009472715 -0.093186624
-0.05315591 -0.08409744 0.14572798 0.00018340017 -0.02292945 0.075502716 -0.004543934 0.13568173
-0.0038851618 -0.05937968 0.0471723 -0.0059935544 0.008077427 0.09258807 0.0529724 0.012811503
-0.0023511972 0.0023811606 -0.0562688 -0.001541643 0.0005561479 0.026156755 -0.002134711 0.07232899
0.09203195 -0.027317535 0.013668755 -0.10668553 -0.0010547554 -0.006227558 -0.008231462 0.047940344
0.0019040387 0.0784231 0.011843863 -0.064014815 -0.0029373432 -0.11043212 -0.1316249 -0.15665834
0.009030636 0.020561036 0.006286637 0.1308603 0.041158266 0.008817602 -0.079587325 0.028653197
-0.026197491 0.07998423 -0.075888835 -0.02228868 -0.0015255318 -0.09412827 -0.00032515958 0.029085279
00000000: f806 1eb9 46dd 9d3d dbab d2bd bc35 853d
00000010: 880e 35b9 af47 e13a fb67 c63c 07d0 de3b
00000020: 3379 8cbd ee94 fb3c d671 2abc e019 8b3c
00000030: 7b1d 2c3c b1ee 443d a263 043c 6f4d d73c
00000040: 4740 2b3d d8d1 0f3e bead ba3b 8ed4 273e
00000050: 6d2a 00bc 7473 c13b 63b1 c2bd a96d 88bc
00000060: 1056 56bd 8bc6 6a3d b3b3 12bc 7b50 3e3d
00000070: 2913 683d a2ab 9cbb ab42 28bc 680f f4bd
00000080: 776e b13d 20f1 9ebd 117c bdb9 b146 05be
00000090: 2246 003c a1b9 5c3d 4c93 383d 9e67 403c
000000a0: 2165 013d 4a50 c6bc 7c05 27be 7b49 913d
000000b0: fa47 c8bb 5998 d4bd 71b4 87ba d3cd 9b3d
000000c0: 7a28 e73c d41f bbbd 6fb5 b8bc cb60 0dbd
000000d0: ecc0 143d b8fb 38bc e6f1 16bc 2893 a33d
000000e0: f87b b2bd e6e5 d53a 00f7 773c 5e1c 94bb
000000f0: 0f46 493d d059 f2bb a2b4 38bc ab20 1dbb
00000100: f66c a4bb dd76 b4bd aeae a83d eef9 10bc
00000110: a92a c7bd 70ca a5bb 21a8 02bd 5536 1a3a
00000120: 978f f539 e752 97bc 3563 ce3d 39cb b9bd
00000130: 0410 4b3b c754 5cbc 6c69 28bc 9256 313c
00000140: e63a d4bc 467a b33d 9c69 e5ba 4c93 9c3d
00000150: d06b 25bd c9cd 11bc 4046 9a3d 2287 103b
00000160: a6b9 db3c a9f5 a939 c557 99bc 78ff cf3d
00000170: 3d5f 8b3d 1faf 2f3b fd6a bdbd f8b3 2f3c
00000180: 2378 3b3d 0b3e c03c fa68 98bd a155 423d
00000190: a36e 263d f4d0 723d ac62 a83b 2c73 adbc
000001a0: ddbb f5bb 0257 fb3c 335b efbd 221f 40bc
000001b0: 0614 913b 6adc 98bc fe43 50bb c449 b23c
000001c0: 60e8 f6b9 4ce7 b13d 6fef 80bb c255 b43d
000001d0: 8daa 59bc 4071 1e3a 6de7 7b3b e46b 0e3c
000001e0: f9a9 98bd 83fd 523d dc5b 433e f5c9 42bc
000001f0: ba6a 143d b27b ecbb 0490 0d3d b021 01bb
00000200: 2665 acbc ea3f d63d 1ad8 15bb 861a 283a
00000210: 9067 103c ff21 833d 5bc5 dd3c 8b08 0e3d
00000220: ab64 263d f031 493c 1192 a4ba 76e9 b7bd
00000230: 8837 8f3d af2f 37bd 7e21 1c3d a4c7 c53d
00000240: 46b9 5d3d 7671 65bd 6004 0dbd 31a6 73bb
00000250: 28b7 823c 5992 b639 4131 b5bb f546 e23d
00000260: 7f03 8b3d 2649 e63d 3c6c 9e3d c1b7 883d
00000270: 7a2b 47bb a604 8e3d 69e3 053a 2197 e9bd
00000280: 743a 0bbb 7ad8 123d 7bc7 85b9 6807 b1bd
00000290: 44c1 adbd 7cea d33d 0198 acbd 4c18 dabd
000002a0: 90e6 e33c 950d abbc ff20 bbbd 18fd 833d
000002b0: a0d9 c1b7 fb49 0c3d 4d10 b03d 2c1c 9c3d
000002c0: d4ad 7cbd bddb aabd c953 04be f62e 843d
000002d0: 92fd debd 3a5e fb3d 1061 2f3d 5b55 353a
000002e0: b8e5 cbba 4d80 aebb 3013 803d 961d 9a3d
000002f0: 7f58 4fbc a1a9 b4bd e0dc b13d 2c9b e2bd
00000300: 0bba c73d 0fc3 c0bd aaa6 0eba da5c 77bb
00000310: a765 d4bb 429f 093b 7233 1b3c a1d8 bebd
00000320: 03ba 59bd 473b acbd b739 153e 1c4f 4039
00000330: 8bd6 bbbc 2ba1 9a3d 48e5 94bb 27f0 0a3e
00000340: 339e 7ebb 1b38 73bd be37 413d 9465 c4bb
00000350: 2f57 043c d09e bd3d 96f9 583d 57e7 513c
00000360: 8b16 1abb 3f0d 1c3b 1d7a 66bd f510 caba
00000370: 74ca 113a b146 d63c 82e6 0bbb 3921 943d
00000380: 3f7b bc3d 06c9 dfbc eaf2 5f3c f17d dabd
00000390: b83f 8aba 8b10 ccbb 41dd 06bc 185d 443d
000003a0: f090 f93a 4a9c a03d c30c 423c 331a 83bd
000003b0: 7180 40bb 3c2a e2bd aec8 06be 0b6b 20be
000003c0: 3cf5 133c 9e6f a83c 2200 ce3b 3e00 063e
000003d0: 9295 283d b477 103c aefe a2bd 1cba ea3c
000003e0: 1f9c d6bc c6ce a33d 9b6b 9bbd c096 b6bc
000003f0: 5af4 c7ba 53c6 c0bd 2e7a aab9 4044 ee3c

lin1.bias f4 [64]
0.08965642 0.06928164 0.07166154 0.0951735 0.11684668 0.09761421 0.06597163 0.094993554
-0.022162983 0.10915994 -0.02440406 0.055645045 0.100387074 0.068370745 0.11049483 0.039209165
-0.019755805 0.08826837 0.05132499 0.05717294 0.08269733 0.074198015 0.06853307 -0.0034544433
0.082605734 0.053111788 0.087647825 0.12778184 0.09757982 0.0832741 0.070258126 0.10963788
0.042639364 -0.024908416 0.07487138 0.049543634 0.06639287 0.042792104 0.058970872 0.11017872
0.08286047 0.056753457 -0.01729783 0.11087756 0.06353261 0.05933074 0.08323961 -0.0032286318
0.08474895 -0.016048798 0.0690615 0.06633466 0.09593933 0.088367775 0.07013057 -0.02338162
0.09297417 0.09443584 0.050059732 -0.016062245 0.05324154 0.07802477 0.12077708 -0.004993152
00000000: c99d b73d 88e3 8d3d 49c3 923d 53ea c23d
00000010: 504d ef3d f5e9 c73d 221c 873d fb8b c23d
00000020: 258f b5bc 3f8f df3d 06eb c7bc 0fec 633d
00000030: bd97 cd3d f605 8c3d 1d4b e23d ca99 203d
00000040: edd6 a1bc 0cc6 b43d 273a 523d 2c2e 6a3d
00000050: 385d a93d 21f5 973d 115b 8c3d f163 62bb
00000060: 322d a93d bf8b 593d b480 b33d 3ed9 023e
00000070: eed7 c73d 9d8b aa3d 7ee3 8f3d d389 e03d
00000080: 9da6 2e3d bc0c ccbc 2b56 993d 44ee 4a3d
00000090: fcf8 873d c646 2f3d 718b 713d 61a5 e13d
000000a0: c0b2 a93d 5076 683d 2eb4 8dbc c613 e33d
000000b0: 631d 823d ca04 733d 8779 aa3d 7497 53bb
000000c0: dc90 ad3d c578 83bc 1e70 8d3d 77da 873d
000000d0: d77b c43d 2afa b43d 9ea0 8f3d d08a bfbc
000000e0: 3e69 be3d 9467 c13d 6f0b 4d3d f894 83bc
000000f0: cd13 5a3d 73cb 9f3d f959 f73d 989d a3bb

lin2.weight f4 [5, 64]
0.21968082 -0.15706065 -0.107151 -0.13975123 0.25037426 0.28373393 -0.14892188 -0.030207006
-1.3263572e-05 0.026322057 -5.754908e-07 -0.3141114 0.3136332 -0.3285782 0.28817987 -0.17993206
2.2018517e-05 -0.026680151 -0.10122848 -0.33633786 0.23445946 0.20679127 -0.27574116 5.5678925e-06
-0.05298461 -0.2686113 0.13482831 0.33783016 0.30433983 0.20109515 -0.25077468 0.00477865
-0.31564787 -0.010638167 0.16589499 -0.2774061 0.27426097 -0.38528436 -0.3652714 0.3108512
0.21985224 -0.2768999 -3.133941e-05 0.1009969 -0.29925472 -0.042267732 0.21966448 -9.291813e-06
0.22951843 5.9112162e-06 -0.3347537 -0.15635036 0.26019764 0.14984034 0.2999905 0.0005857897
0.26499796 0.2097933 -0.2282251 1.331131e-05 -0.28598136 -0.13447909 0.13827376 5.4334605e-06
0.34461617 0.29680914 0.1513141 -0.25964525 -0.013654846 -0.31561467 0.33863187 -0.42175245
2.5807449e-05 -0.43835178 -0.009854835 -0.39963284 0.25604603 -0.055144597 -0.35100412 0.34465116
-0.0018003813 -0.44380632 -0.21185885 -0.3373387 0.26548025 -0.41557494 0.13836454 2.5144845e-05
-0.3370108 -0.40811196 0.26048142 -0.27475613 0.1237559 -0.31372634 0.26846838 0.21984103
-0.38649282 -0.01070314 0.27947694 -0.015387232 -0.29134384 0.22230004 0.22830608 -0.26967207
-0.2842077 -0.43251207 -0.00012175963 -0.3980899 0.21067138 0.23686284 0.36347055 -9.831783e-08
-0.3943511 3.0791172e-05 0.16747347 0.27454594 -0.35381627 0.14883311 -0.2316341 2.1776057e-05
0.111483276 0.22690916 0.32493922 4.2389897e-06 -0.35934827 0.3219672 0.33155423 -2.2097007e-05
-0.42682973 -0.40315595 0.15915203 -0.45109245 -0.41857752 -0.40722924 -0.1790917 0.14634563
-7.1602067e-06 -0.056374397 4.092788e-05 0.29390648 -0.032226358 -0.24094293 -0.4447652 0.2491869
-9.998818e-06 0.28273836 0.40947464 0.3112355 0.33951157 0.24900205 0.25199473 -5.5126147e-06
0.31789467 0.3208319 0.28160644 -0.38151193 -0.38582945 0.2720707 -0.37098283 -0.43246198
0.28949583 9.255805e-06 0.2545673 0.3036636 0.26491484 0.31927228 0.13533668 -0.08007113
0.38506132 0.31507972 7.1285253e-06 -0.39109862 0.16396922 -0.42884886 -0.38576683 6.0160883e-06
0.20474832 -1.9660996e-05 -0.4105526 0.3298529 -0.44339952 -0.33466837 0.39085174 -0.0019822696
0.28748423 -0.3831004 0.25569868 -3.2909353e-05 0.3040642 -0.2874178 -0.36893183 -0.00011142659
0.25387096 0.3362932 -0.46753165 0.34886792 0.15185314 0.1282319 -0.28935373 0.2548192
-6.0911066e-06 0.10668561 7.74309e-07 0.3561277 -0.35825956 0.32547233 0.26340413 -0.12241198
3.266684e-05 0.2687802 -0.39667875 -0.39932498 -0.4827577 0.058800433 0.25362894 -8.0389674e-07
-0.4845268 0.30768058 -0.37506127 -0.2561401 0.30524915 0.19668971 -0.27536863 -0.20474888
0.26344278 7.982155e-06 -0.3868356 -0.37682402 -0.42524654 -0.46397007 0.21787013 -0.36326176
-0.45349622 0.36623448 0.0031420852 0.2533534 0.29462984 -0.035726096 -0.38584495 1.3639357e-05
0.046496153 1.3132257e-06 -0.19540621 -0.3430952 -0.42175952 0.2120656 -0.45481434 2.3403796e-05
-0.4138305 0.2032254 -0.4542471 2.8093056e-05 -0.42409757 -0.3684125 0.19810398 5.505725e-07
00000000: 02f4 603e 82d4 20be fc71 dbbd f21a 0fbe
00000010: 0e31 803e 9345 913e fa7e 18be af74 f7bc
00000020: 9c86 5eb7 5ba1 d73c 6d7b 1ab5 36d3 a0be
00000030: 8894 a03e 673b a8be 508c 933e 1c40 38be
00000040: 68b4 b837 5590 dabc e150 cfbd 7a34 acbe
00000050: 2416 703e 17c1 533e f22d 8dbe d5d3 ba36
00000060: 6406 59bd 6c87 89be 6f10 0a3e 13f8 ac3e
00000070: 6ed2 9b3e e3eb 4d3e 8a65 80be 3996 9c3b
00000080: 999c a1be b54b 2ebc 60e0 293e 2c08 8ebe
00000090: ef6b 8c3e fe43 c5be da04 bbbe e327 9f3e
000000a0: f220 613e d3c5 8dbe 6f72 03b8 76d7 ce3d
000000b0: ea37 99be ee20 2dbd baef 603e 08e4 1bb7
000000c0: e106 6b3e f658 c636 d664 abbe 4f1a 20be
000000d0: a038 853e bf6f 193e 5b98 993e ae8f 193a
000000e0: d0ad 873e 0ed4 563e d7b3 69be a453 5f37
000000f0: 266c 92be e3b4 09be a397 0d3e 1251 b636
00000100: 8871 b03e 5ef7 973e 15f2 1a3e 39f0 84be
00000110: 93b8 5fbc 3f98 a1be 2861 ad3e f0ef d7be
00000120: 137d d837 a56f e0be 2d76 21bc ad9c ccbe
00000130: 7718 833e 4ddf 61bd d0b6 b3be 1e76 b03e
00000140: c6fa ebba 953a e3be 87f1 58be a8b7 acbe
00000150: 07ed 873e 3dc6 d4be 6faf 0d3e 25ee d237
00000160: ae8c acbe 0df4 d0be d25d 853e d6ac 8cbe
00000170: bc73 fd3d bda0 a0be b074 893e 021e 613e
00000180: 63e2 c5be 395c 2fbc 9a17 8f3e bb1a 7cbc
00000190: 052b 95be 9fa2 633e 12c9 693e 7512 8abe
000001a0: ac83 91be 3972 ddbe 3459 ffb8 70d2 cbbe
000001b0: 3dba 573e 2c8c 723e d018 ba3e cc22 d3b3
000001c0: 63e8 c9be c525 0138 2a7e 2b3e 4991 8c3e
000001d0: 6827 b5be b567 183e 7d31 6dbe baab b637
000001e0: 5851 e43d e05a 683e 6f5e a63e a53c 8e36
000001f0: 7ffc b7be e3d8 a43e 7ac1 a93e f65c b9b7
00000200: 6d89 dabe 756a cebe c0f8 223e 97f5 e6be
00000210: cb4f d6be 5a80 d0be d163 37be a1db 153e
00000220: b541 f0b6 d7e8 66bd faa9 2b38 e97a 963e
00000230: c9ff 03bd beb9 76be 44b8 e3be da2a 7f3e
00000240: 99c0 27b7 15c3 903e a9a6 d13e 425a 9f3e
00000250: 76d4 ad3e 65fa 7e3e 7405 813e 00f9 b8b6
00000260: 17c3 a23e 1444 a43e b82e 903e 8855 c3be
00000270: 708b c5be da4c 8b3e 76f1 bdbe a86b ddbe
00000280: cc38 943e 6149 1b37 a556 823e cc79 9b3e
00000290: eba2 873e a877 a33e b395 0a3e 55fc a3bd
000002a0: c226 c53e 2152 a13e 9131 ef36 143e c8be
000002b0: 8ce7 273e 1492 dbbe 3b83 c5be cedd c936
000002c0: 8ba9 513e abed a4b7 f333 d2be 7be2 a83e
000002d0: 4305 e3be a759 abbe b81d c83e f7e8 01bb
000002e0: 2231 933e bc25 c4be f0ea 823e 2608 0ab8
000002f0: 4eae 9b3e 6d28 93be a2e4 bcbe b2ad e9b8
00000300: 60fb 813e 9f2e ac3e 4f60 efbe d19e b23e
00000310: 647f 1b3e 394f 033e 2c26 94be aa77 823e
00000320: 3562 ccb6 fc7d da3d 1cda 4f35 5f56 b63e
00000330: cc6d b7be 4fa4 a63e e8dc 863e 22b3 fabd
00000340: c103 0938 8f9d 893e 7a19 cbbe 5374 ccbe
00000350: 042c f7be b9d8 703d a7db 813e 5dcb 57b5
00000360: e613 f8be 4f88 9d3e 0808 c0be cc24 83be
00000370: 9e49 9c3e 0769 493e 1efd 8cbe b1a9 51be
00000380: f9e1 863e 18eb 0537 510f c6be 14ef c0be
00000390: eab9 d9be 7c8d edbe 5919 5f3e 72fd b9be
000003a0: a830 e8be 1683 bb3e 71eb 4d3b 89b7 813e
000003b0: b9d9 963e 8755 12bd 788d c5be 98d4 6437
000003c0: c072 3e3d 1742 b035 9118 48be 2daa afbe
000003d0: ddf0 d7be ba27 593e 6ddd e8be 4553 c437
000003e0: 97e1 d3be 521a 503e 1393 e8be 61a9 eb37
000003f0: 5123 d9be 90a0 bcbe c5db 4a3e 0ecb 1335

lin2.bias f4 [5]
0.0034293248 -0.091802455 -0.12896702 -0.07429409 0.065517224
00000000: 86be 603b ed02 bcbd ee0f 04be 8027 98bd
00000010: e52d 863d

prop1.temp f4 [11]
0.5179027 1.282795 1.4170063 1.4162502 1.4120166 1.4100243 1.4101347 1.408831
1.3937665 1.3588198 1.2063106
00000000: 4595 043f a032 a43f 7660 b53f b047 b53f
00000010: f6bc b43f ad7b b43f 4b7f b43f 9354 b43f
00000020: f166 b23f cfed ad3f 6368 9a3f
