save_parameters/BernNet_model_0324_1027.pt (torch, 599324 bytes, 5 tensors)

lin1.weight f4 [64, 2325]
0	0xba03d32a	-0.00050287193
1	0xbc1e2500	-0.009652376
2	0x3a6a596f	0.0008939718
3	0xbd72b7cf	-0.059257325
4	0x3d8307da	0.06397982
5	0x39edbcdc	0.00045344874
6	0x3cc824b4	0.024431564
7	0xbc8e4609	-0.01736738
8	0xbc2d9720	-0.010595113
9	0x3b62ba85	0.0034596038
10	0x3c6a44cb	0.014298628
11	0x3dbf850a	0.09351547
12	0xbbea431c	-0.0071491133
13	0x3ca46451	0.020067366
14	0x3ae3c8b0	0.0017378535
15	0xbb56bea7	-0.0032767446
16	0x3c5b3b53	0.013380843
17	0x3c91a51f	0.017778931
18	0xbdd9c3ff	-0.106330864
19	0xbc0de733	-0.008661079
20	0x3ba66c73	0.005078846
21	0xbdaa542b	-0.08316835
22	0x3e0f03d2	0.13966301
23	0x3b2fdcbc	0.0026834449
24	0x3cd11201	0.02552128
25	0xbde33db7	-0.110957555
26	0x3bc133f6	0.005896087
27	0x3c63630f	0.013878598
28	0x3c19473d	0.009355363
29	0xbca344b1	-0.019930216
30	0x3b9318ce	0.004489041
31	0x3c2052cf	0.009785368
32	0xbc9530ef	-0.01821181
33	0x3cd60ef9	0.026130186
34	0xba8fae16	-0.0010961916
35	0xbc9d6ff7	-0.019218428
36	0xbdb75ec8	-0.08953625
37	0x3d7ba3e1	0.061435584
38	0x3d7cd9bd	0.06173109
39	0xbbb95e70	-0.00565701
40	0x3beb2970	0.0071765706
41	0x3cf903ff	0.030397413
42	0xbb5c0867	-0.0033574344
43	0xbda7c9ad	-0.081927635
44	0xbb558b75	-0.0032584344
45	0x3e0d760f	0.13814567
46	0xbc8aa702	-0.016925339
47	0x3ca908c3	0.02063406
48	0xbd70f54a	-0.058827676
49	0xbad5d3b6	-0.0016313705
50	0x3b190b45	0.0023352664
51	0x3cd95788	0.026530996
52	0x3c73bc24	0.014876399
53	0x3aeef61c	0.0018231305
54	0xbb83dca0	-0.0040241033
55	0xbc829eb2	-0.015944812
56	0xbd96da79	-0.07365889
57	0x3adec349	0.0016995455
58	0xbcc5f9bd	-0.024166936
59	0xbd89a420	-0.067207575
60	0xbc8a374d	-0.016872073
61	0xbbaadbbc	-0.0052141827
62	0x3b5f02e0	0.0034028813
63	0x3c42f74d	0.011899781
64	0xbb84038a	-0.004028742
65	0x3e56173a	0.20907298
66	0xbbc85e70	-0.0061147735
67	0xbcac2f66	-0.021018695
68	0x3b86d63c	0.004114894
69	0x3a8f2dad	0.0010923647
70	0xbda28c86	-0.07936959
71	0xbb5e31f0	-0.0033904277
72	0x392313c0	0.00015552249
73	0x3bf759e5	0.007548558
74	0x3cd0c686	0.025485288
75	0xbb75e4a2	-0.003752031
76	0x3bffbce3	0.0078044995
77	0xbb33a9ec	-0.0027414514
78	0x3c0a6b52	0.008448439
79	0x3c15e8ce	0.009149743
80	0x3c31aec4	0.01084489
81	0xbc93cfb9	-0.018043386
82	0xbdefb3a9	-0.11704189
83	0xbd65f912	-0.056145735
84	0x3c87ca4d	0.016575957
85	0x3db38e3b	0.08767363
86	0xbc8d99e1	-0.01728529
87	0xbb907b84	-0.0044092555
88	0xbc14d247	-0.009083337
89	0x3a76cd40	0.000941474
90	0x3a9fce24	0.0012192172
91	0x3cfb2ece	0.030661967
92	0xbd4fa446	-0.050693773
93	0x380c57c0	3.3460325e-05
94	0x3c067ff8	0.008209221
95	0xbce52a9a	-0.027974416
96	0xbc0a3673	-0.008435833
97	0x3a93a64b	0.0011264769
98	0xbd12d72e	-0.035849743
99	0xbd93d20c	-0.07217798
100	0x3bf6f199	0.007536125
101	0x3cfbf346	0.03075565
102	0x3cd2325c	0.025658779
103	0xbb8a4d6b	-0.0042206547
104	0xbb885021	-0.0041599427
105	0xbd0d15cf	-0.034444626
106	0xbbbc572d	-0.005747697
107	0x3b75cf80	0.0037507713
108	0x3b641938	0.003480507
109	0x3c8a67b1	0.016895147
110	0x3de4ac2c	0.11165652
111	0x3abf7619	0.0014607339
112	0xbada2b82	-0.0016645046
113	0x3df5c8d7	0.12001198
114	0xb96af0dc	-0.00022405706
115	0x3cb2ea8c	0.021840356
116	0xbb15237e	-0.002275675
117	0xba2965e4	-0.0006462021
118	0xbcd3b26b	-0.025841912
119	0x3bb8155f	0.005617782
120	0x3afb4990	0.0019171704
121	0x3c4d3a7e	0.012526153
122	0x3e15a60a	0.1461412
123	0x3d054cb8	0.032543868
124	0x3d107322	0.03526605
125	0xbb7f6d08	-0.00389749
126	0x3c21e63a	0.00988155
127	0x3bf8176d	0.007571152
128	0x3aebd0e8	0.0017991336
129	0x3cdc19d3	0.026867783
130	0x38ebcc28	0.000112437
131	0x3bbf8442	0.005844624
132	0xbc36da95	-0.011160512
133	0x3bbc020f	0.00573755
134	0x3c26bdc4	0.01017708
135	0x3ca50b9b	0.020147135
136	0xbb73b35e	-0.0037185769
137	0xbca57d9c	-0.020201497
138	0x3c1dadef	0.0096239885
139	0x3c7f4254	0.015579779
140	0xbdc38d1b	-0.09548398
141	0x3c3ccd26	0.011523521
142	0x3c3a00d6	0.011352738
143	0x3b960ac0	0.004578918
144	0x3bfa7341	0.007643134
145	0x3cae9301	0.021310331
146	0x3c61d676	0.013784042
147	0xbaf49a95	-0.0018661792
148	0xbd3f0259	-0.0466331
149	0xbb3f275d	-0.002916775
150	0x3a8ca5ea	0.0010730599
151	0xbad090c2	-0.0015912282
152	0xbd94f00b	-0.07272347
153	0xbdcdf327	-0.10056143
154	0xbdb3ec0e	-0.08785258
155	0xbda2d172	-0.07950105
156	0x3aabe8e3	0.001311567
157	0xbc28b276	-0.010296455
158	0x3a77d857	0.00094545394
159	0x3bb88a18	0.0056316964
160	0x3a43204e	0.00074434734
161	0xbdc0d745	-0.094160594
162	0x39f967b0	0.00047570234
163	0x3d6d9cd4	0.05801089
164	0x3cc38eea	0.023871858
165	0xbd99ec0a	-0.07515724
166	0x3bbda31d	0.005787267
167	0x3c826b2e	0.015920248
168	0xbc23a0b5	-0.009987046
169	0xbbb8de9c	-0.0056417715
170	0x3c3e9ed6	0.011634549
171	0xbb677410	-0.0035316981
172	0xbb7e8824	-0.003883847
173	0x3c95adf4	0.018271424
174	0xb8bb83c8	-8.941401e-05
175	0xbb0e1cd0	-0.0021684654
176	0x3cbff3dc	0.02343171
177	0x3d2fcb44	0.04291846
178	0xbbb3b712	-0.00548447
179	0xbcfcefec	-0.030876122
180	0x3999fef3	0.00029372386
181	0xbd4fdca2	-0.05074752
182	0xbbf54c80	-0.007485926
183	0xbabb6e41	-0.0014299826
184	0x3dd2acf4	0.102868944
185	0x3c818623	0.015811032
186	0x3b835dc4	0.0040089805
187	0x3991e968	0.00027830456
188	0x3bf857b9	0.0075788167
189	0xbd75584b	-0.059898656
190	0xbdeb44f7	-0.114877634
191	0xbc390091	-0.011291639
192	0xbaa48af2	-0.0012553616
193	0xbd73d187	-0.059525993
194	0x39515708	0.00019964215
195	0xbd04ac40	-0.032390833
196	0xbc219c26	-0.009863889
197	0xbb24cb6c	-0.0025145663
198	0xbe12a710	-0.14321542
199	0x3e05bea9	0.13061012
200	0x3cca70cf	0.024711994
201	0x3de3441a	0.11096974
202	0x3cad177c	0.021129362
203	0x3ccaaa53	0.02473942
204	0x3c2bf411	0.010495202
205	0xbdd360ad	-0.10321174
206	0xbdc233e2	-0.09482552
207	0xbb81f076	-0.0039654328
208	0x3b130620	0.002243407
209	0xbc178d5e	-0.009250013
210	0x3d402176	0.04690691
211	0x3abd51c8	0.0014443928
212	0x3c25388f	0.010084285
213	0x3c260204	0.0101323165
214	0x3bbbd0fe	0.005731701
215	0xbc6bf13e	-0.014400778
216	0x3c30920a	0.010777006
217	0xbb81d491	-0.0039621075
218	0x3da5a33e	0.080877766
219	0x3aa47159	0.0012545987
220	0xbb87f648	-0.004149232
221	0x3c13a13b	0.009010608
222	0x3ba3872c	0.004990479
223	0xbd9acc84	-0.075585395
224	0xbd2b7202	-0.041856773
225	0x3af26e5c	0.0018496024
226	0xbb14816e	-0.0022660154
227	0x3cf4ef59	0.029899286
228	0xbc21d02a	-0.00987629
229	0x3b9b7f87	0.004745427
230	0x3c0ddd9b	0.008658792
231	0x3b79d33c	0.003812029
232	0xba9f6450	-0.0012160633
233	0x3c4852fa	0.012226814
234	0xbcd3d73f	-0.025859473
235	0x3da60a1a	0.081073955
236	0xba051fb0	-0.0005078269
237	0xbd9da611	-0.0769769
238	0xbd5451d4	-0.05183585
239	0xbdcf3582	-0.10117628
240	0xbc0e4f98	-0.008685969
241	0x3bb36dc2	0.0054757306
242	0x3d66c692	0.056341715
243	0xbdefdc46	-0.11711936
244	0xbd179db1	-0.03701562
245	0xbbe6152e	-0.007021568
246	0x3b082a21	0.0020777064
247	0xbcba7ba0	-0.022764027
248	0x3a825d87	0.0009946086
249	0xbdbe64a5	-0.0929654
250	0x3d0cfdde	0.034421794
251	0xbdbc53d6	-0.09195678
252	0xbae71b6e	-0.0017632076
253	0x3c119a5c	0.0088869
254	0xbb930029	-0.004486103
255	0xbc15ef3b	-0.009151275

lin1.bias f4 [64]
0	0x3da11769	0.07865793
1	0x3da8385d	0.082138754
2	0x3d8d1b82	0.06890012
3	0x3de041f5	0.1095008
4	0xbc954064	-0.01821918
5	0x3d947f6e	0.07250868
6	0x3da87785	0.082259215
7	0x3d7aec25	0.06126036
8	0x3d6581bc	0.056031927
9	0x3dae1e1b	0.08501836
10	0xbcc6a9ea	-0.024250943
11	0x3d9eda30	0.0775646
12	0x3c5c55a9	0.013448157
13	0x3d74943e	0.059711687
14	0x3d932ed3	0.071866654
15	0x3d89a951	0.06721748
16	0x3dafb480	0.085793495
17	0xbc797e3f	-0.015227853
18	0x3d9b65d6	0.07587783
19	0x3d85830d	0.065191366
20	0x3db102f4	0.086431414
21	0x3d4ec5a8	0.05048147
22	0x3dae97f5	0.08525077
23	0x3d66473f	0.05622029
24	0x3da429ba	0.08015771
25	0x3dbdf799	0.09275741
26	0x3d6d3fd1	0.05792219
27	0xbb4ed3e1	-0.0031559395
28	0x3da685d5	0.08130995
29	0x3d9ab756	0.075545
30	0x3d359f66	0.044341467
31	0x3d7f10f5	0.06227203
32	0x3d898a46	0.06715827
33	0x3d92e4e2	0.07172562
34	0x3d9a38e5	0.07530383
35	0x3d88542c	0.066566795
36	0x3d782a30	0.060587108
37	0x3d5494cb	0.051899713
38	0x3d58ff71	0.052977983
39	0x3d2c15df	0.042013045
40	0xb79bba4d	-1.8564193e-05
41	0x3d7b8bcd	0.06141262
42	0xbbde755f	-0.006788894
43	0xbca89f9e	-0.020583924
44	0x3dbe6a67	0.092976384
45	0x3d9fb175	0.07797519
46	0xbcb07d1a	-0.021544028
47	0x3daca60c	0.084301084
48	0x3d9cf022	0.07662989
49	0x3dc02ecc	0.09383926
50	0x3d94d192	0.07266535
51	0x3db4d1f3	0.08829107
52	0x3dc4f9c5	0.09617952
53	0x3dbef2ea	0.09323676
54	0x3dbb9be8	0.09160596
55	0x3da3cb38	0.07997745
56	0x3dc36077	0.095398836
57	0x3dabe357	0.08392971
58	0x3da0f61b	0.07859441
59	0x3d00b648	0.031423837
60	0x3d931071	0.0718087
61	0xbb347131	-0.0027533288
62	0x3d9fdea8	0.0780614
63	0x3d9d31fe	0.07675551

lin2.weight f4 [5, 64]
0	0x3e88d5c0	0.26725578
1	0xbeac6dca	-0.33677512
2	0x3d8adcc1	0.06780387
3	0x3ea52a72	0.32258946
4	0xbcdc27a2	-0.026874367
5	0xbe61b936	-0.22043309
6	0x3e52471c	0.20534939
7	0xbe7d0e17	-0.24712406
8	0x3da052ed	0.07828317
9	0xbe9c2499	-0.30496672
10	0xb479e148	-2.3271889e-07
11	0xbec16128	-0.37769437
12	0xbc662ebc	-0.014049228
13	0xbecc8dfc	-0.39952075
14	0x3ec41e93	0.38304576
15	0x3e941b01	0.28926852
16	0x3e8512b5	0.25990835
17	0x381f6d28	3.8010214e-05
18	0x3e8be70c	0.27324712
19	0x3e265c56	0.16246161
20	0x3e46889f	0.19388054
21	0x3e68d58e	0.22737715
22	0x3e60fb6c	0.2197091
23	0xbd155b65	-0.036464114
24	0x3e90ae95	0.28258196
25	0xbe832d81	-0.25620654
26	0xbd91cd9b	-0.07119294
27	0x393616cd	0.00017365367
28	0x3d6a27a4	0.05716671
29	0x3e206430	0.15663218
30	0xbea5578f	-0.32293364
31	0x3e31a0a8	0.17346442
32	0x3d6f3288	0.0583978
33	0x3e7c2618	0.24623907
34	0x3e9d056e	0.30668205
35	0xbe9dfd9f	-0.3085756
36	0x3e93a569	0.28837135
37	0x3de16331	0.110052474
38	0xbe55ab47	-0.20866118
39	0xbed77bd2	-0.42086655
40	0x3672c032	3.6172682e-06
41	0xbeac405c	-0.33642852
42	0x363f5644	2.851143e-06
43	0xb8749d9c	-5.832092e-05
44	0x3e82d0ec	0.2555002
45	0x3df04634	0.1173214
46	0xbd3786f8	-0.04480645
47	0xbe997247	-0.2997
48	0xbea1d2d0	-0.3160615
49	0x3e83d63c	0.25749385
50	0xbec97a4b	-0.39351115
51	0x3def2338	0.11676639
52	0x3e4b48b8	0.19851959
53	0xbeb3fcd9	-0.35153845
54	0xbea9b454	-0.33145392
55	0xbe44a23b	-0.19202511
56	0x3ea8fe0b	0.3300632
57	0x3dc28249	0.09497506
58	0xbe8dbacf	-0.27681586
59	0xbe9d740a	-0.30752593
60	0xbe8ad78f	-0.27117583
61	0x35de5ce0	1.6567319e-06
62	0x3e6964c8	0.22792351
63	0x3e5f8c39	0.21830834
64	0xbe73e206	-0.2381669
65	0x3e9f4f66	0.31115264
66	0xbec1f7af	-0.3788428
67	0x3eb3a384	0.3508569
68	0xb8895de8	-6.5501605e-05
69	0x3e742633	0.23842697
70	0xbe88f052	-0.2674585
71	0xbeaa5c1b	-0.33273396
72	0xbe67c2e1	-0.22632934
73	0x3cfed4a1	0.031107249
74	0x36b74622	5.4619895e-06
75	0xbebebb79	-0.37252405
76	0xbc93ac1c	-0.018026404
77	0xbebe35d7	-0.37150452
78	0xbe9bd7cb	-0.30438074
79	0xbe92e625	-0.2869121
80	0xbeb4e8af	-0.35333773
81	0x35b0a550	1.3161134e-06
82	0xbd1c8671	-0.03821415
83	0xbebff4ce	-0.3749146
84	0x3ea1cac8	0.31600022
85	0xbea1cff8	-0.3160398
86	0x3e926224	0.285905
87	0xbebe500c	-0.37170446
88	0xbea15dab	-0.31516775
89	0x3e996b34	0.29964602
90	0x3d2f8091	0.04284722
91	0xbab0fb27	-0.0013502584
92	0xbecba295	-0.39772478
93	0xbead639a	-0.33865052
94	0xbeb7b8b2	-0.358831
95	0xbeea1a7f	-0.4572334
96	0xbe7d2e3c	-0.24724668
97	0xbd80c040	-0.06286669
98	0x3e2e736a	0.17036214
99	0x3d5102c8	0.051028043
100	0xbddd031e	-0.1079161
101	0xbee697e0	-0.45037746
102	0xbde2efe6	-0.11080913
103	0xbe622775	-0.22085364
104	0xb7adda3c	-2.072483e-05
105	0xbec8d796	-0.3922698
106	0x370c0642	8.346107e-06
107	0xb5fd63c5	-1.8879006e-06
108	0x3e7a30ea	0.24432722
109	0xbe214afd	-0.15751262
110	0x3954d4c8	0.00020297163
111	0x3e98ced3	0.29845294
112	0x3ea77341	0.3270512
113	0x3eab02cf	0.3340058
114	0x3e54a0d7	0.2076448
115	0x3e404e6c	0.18779916
116	0x3e74433b	0.23853771
117	0x3e950dd8	0.29112124
118	0x3ea7a3b9	0.32742098
119	0xbbb5a488	-0.0055432953
120	0xbd7811f7	-0.060564008
121	0xbec59a4c	-0.38594282
122	0x3ea989da	0.33112985
123	0xbe9de134	-0.3083588
124	0x3e753d4d	0.23949166
125	0xbb19c18a	-0.0023461306
126	0xbea35c14	-0.31906188
127	0xbebdfebb	-0.37108406
128	0xbe8777aa	-0.26458484
129	0xbed27488	-0.4110453
130	0xbe492562	-0.19643167
131	0xbeccdaaa	-0.40010577
132	0x38bc3077	8.973566e-05
133	0xbe9dbd7f	-0.30808637
134	0xbed287d9	-0.4111927
135	0xbead70c0	-0.33875084
136	0x3eb50e8b	0.35362658
137	0x3e98142b	0.29702887
138	0xbbdf8bb4	-0.006822074
139	0x3e0a149d	0.13484426
140	0x3ce2bf21	0.027679028
141	0xbeae7e5f	-0.34080788
142	0xbedba9fa	-0.4290312
143	0x3e9803be	0.29690355
144	0x3e5d4aeb	0.2161061
145	0xb6b86dd2	-5.496412e-06
146	0x3e5eef38	0.21770942
147	0x3e5599c8	0.20859444
148	0xbeabfc9e	-0.3359117
149	0x3e9f4807	0.3110964
150	0xbeea289d	-0.4573411
151	0x3e69451e	0.22780272
152	0xbe616b18	-0.2201351
153	0xbda0adde	-0.078456625
154	0x3e824431	0.2544265
155	0xba71c017	-0.0009222044
156	0x3e3d10cf	0.18463443
157	0xbeed8b23	-0.46395215
158	0x3ea8feee	0.33006996
159	0x3dd8b8ac	0.10582098
160	0x3ec2af02	0.38024145
161	0xbeac2748	-0.3362372
162	0x3e67983b	0.22616665
163	0x3e8bb327	0.2728512
164	0xbe38453c	-0.17995161
165	0x3e3fde0b	0.18737046
166	0x3ec904c8	0.3926146
167	0x3e4151a5	0.18878801
168	0x35d7521d	1.6042646e-06
169	0x3e88e8d2	0.26740128
170	0x37b13a91	2.1127316e-05
171	0xb62369c9	-2.4350468e-06
172	0x3e79895b	0.24368803
173	0x3e733046	0.23748884
174	0x38f55b18	0.00011699478
175	0x3e8735c7	0.26408216
176	0xbebc3ed8	-0.36766696
177	0xbea3edce	-0.32017368
178	0x3e35a520	0.17738771
179	0x3e75d760	0.2400794
180	0xbebe9e16	-0.37229985
181	0xbef71eda	-0.48265725
182	0xbec6cb26	-0.38826865
183	0x3deda8bb	0.116044484
184	0xbe6331b7	-0.22186933
185	0xbeb6b880	-0.35687637
186	0x3e8dd0d8	0.27698398
187	0x3e85c3a1	0.26125816
188	0x3e940a16	0.28913945
189	0x37b71c8c	2.1828593e-05
190	0xbed14e90	-0.4088025
191	0xbebf1066	-0.373172
192	0x3e7174a0	0.23579645
193	0xbea75bf9	-0.32687357
194	0x3e6060cd	0.21911927
195	0xbe84867d	-0.25883856
196	0x3713d63c	8.811763e-06
197	0x3e7dcf94	0.24786216
198	0xbe92cdd5	-0.28672662
199	0x3eb578e0	0.35443783
200	0xbed04c22	-0.40683085
201	0xbee49393	-0.4464384
202	0x37779c3e	1.4758725e-05
203	0x3eb39e36	0.35081643
204	0x3d9be9e3	0.0761297
205	0x3e9de2f2	0.30837208
206	0xbeb12f26	-0.34606284
207	0xbeb7ac1d	-0.358735
208	0x3dde2411	0.10846723
209	0x351f0ef8	5.92539e-07
210	0xbeb42ea0	-0.35191822
211	0x3e862023	0.26196393
212	0xbda1d418	-0.07901782
213	0xbecbfb2e	-0.39840072
214	0xbec42d53	-0.3831583
215	0x3e57a93a	0.21060649
216	0x3e96492f	0.2935271
217	0xbef525a8	-0.47880292
218	0xbeb92082	-0.36157614
219	0xba20feba	-0.0006141473
220	0x3e370399	0.17872466
221	0x3e8afd14	0.27146208
222	0xbec97804	-0.39349377
223	0xbedb77db	-0.4286488
224	0xbeac1873	-0.33612403
225	0x3e91c2ff	0.28469083
226	0xbe463ce7	-0.1935917
227	0x3ea8159c	0.32828987
228	0xbe8d4e82	-0.2759896
229	0x3e6abe19	0.22924079
230	0xbeb53078	-0.3538854
231	0x3e77d672	0.24202898
232	0x37b6b2f3	2.177942e-05
233	0x3e796459	0.24354686
234	0x370cdca5	8.396023e-06
235	0xb86eaa9f	-5.6902525e-05
236	0xbee4ea0b	-0.4470981
237	0x3e89ed72	0.2693897
238	0x3766f7d2	1.37667685e-05
239	0x3e814d1a	0.25254136
240	0x3eb78d4c	0.35849988
241	0xbcf12cf3	-0.029440379
242	0x3e8e2bc0	0.27767754
243	0xbed8936a	-0.42299968
244	0x3e4f4946	0.20242795
245	0x3d8fffb2	0.07031192
246	0x3ead7254	0.33876288
247	0xbea5b92d	-0.3236784
248	0x3eb6654c	0.35624158
249	0x3e939eba	0.28832036
250	0xbec82940	-0.3909397
251	0xbeba518a	-0.36390334
252	0xbee21f74	-0.44164622
253	0xb705742e	-7.954468e-06
254	0xbed0c46a	-0.40774852
255	0xbebcb53c	-0.3685702

lin2.bias f4 [5]
0	0xbd1728f4	-0.03690429
1	0x3db63e3b	0.08898588
2	0xbe09d998	-0.13461912
3	0xbd0a0559	-0.033696506
4	0x3e04cc70	0.12968612

prop1.temp f4 [11]
0	0x3f10711c	0.5642259
1	0x3f86c751	1.0529577
2	0x3fa816ce	1.313196
3	0x3faec5bc	1.3654094
4	0x3fb1cbf1	1.3890363
5	0x3fb366d5	1.4015757
6	0x3fb4236e	1.4073312
7	0x3fb478dd	1.4099385
8	0x3fb5f444	1.4215169
9	0x3fbf4786	1.4943702
10	0x3fba7848	1.4567957
