save_parameters/BernNet_model_0324_1032.pt (torch, 599324 bytes, 5 tensors)

lin1.weight f4 [64, 2325]
00000000: e2e9 8239 1430 233c 6560 1cbd 348b 983c
00000010: 56a2 943b 34e4 c238 9121 5f3b 4565 20b9
00000020: ac00 62bc 59a5 a9ba 17cb 5cbb 41a7 51bb
00000030: f7de 773b 815c a23c ccd6 d6ba 4aed a63b
00000040: bcde 983c 49a4 0b3c 0823 b8ba 5691 873c
00000050: 5bc0 06ba d441 8eba eb24 c3bc c60f deba
00000060: 508a 4538 fad4 ad3c 0508 4dbb 402d 0abb
00000070: 01b5 823b 92fa fdbb dfad ec3a 6fc3 bbbc
00000080: baf7 353c e6df 4bbc 8275 82ba e614 33bd
00000090: bf4c e9bb 9a02 52ba ef3a 493b 127d 2d3a
000000a0: 1003 4a3b d5b9 ccbc 6f35 55bd e21e b13c
000000b0: 3dd7 f6ba 41b5 8abc b74f 5abb 4174 953c
000000c0: d779 f9ba f308 b0bc 7a6f c6bb 71d0 a6ba
000000d0: c48a 0a3b 2d90 e639 95f5 8fb8 fafa 9e3b
000000e0: 51ea 8abc 8699 43ba 7681 123b aa0d f7ba
000000f0: d156 c0bb cb06 f539 2676 98ba 3c24 58bb
00000100: 8e81 adba 2fca ecbc c26f 953c 7ced a5b8
00000110: 83ac a6bc fbcc 58ba e710 b4bc a61e f63a
00000120: 1489 afb9 4e02 9939 aa26 193d f0d1 acbc
00000130: 7a21 f73a 72a4 24ba aaec 8bba dc89 baba
00000140: 1e8e 4e3a fc57 303b c063 1abb 97a3 ef3b
00000150: 2ffd 12bc 7e7c c2bb 2572 ec39 68b1 f5b8
00000160: 6784 3a3b 3050 0abb 5241 0ebb fb25 583c
00000170: bb63 2ebb f03d 9eb9 851c cbbc 6178 03ba
00000180: 0a0f e63b c582 17ba 9995 b4bc d3eb c13b
00000190: 9892 9d3c bef1 053c fc2b ea3a 66ef a13a
000001a0: de1b 92ba 0adb cdbb 38e9 c2bc 0e5c b13a
000001b0: 7677 35ba 1ca3 593a be54 69ba fefa 9fba
000001c0: 7b15 01ba 6e34 413b f6a5 413b 9b2e 6b3c
000001d0: c19b 5dba 7e3f 8539 102a 33ba a003 ac3a
000001e0: 288f 8bbc cc96 383b 9182 5e3c 5d4a aabc
000001f0: 92cf 383c dec4 97bb 3177 80bb 7a15 5dba
00000200: 4568 20bb ab93 503c cfe5 c93a c667 5c3a
00000210: f02f 663a f2a1 ec39 0e8d 893b cfc7 24bb
00000220: 54ba 0b3c c935 3e3b 22ae 4dba 61bf a3bc
00000230: d0db 5f3b fb3a dfbb 9f9f 4cbc d3f0 9b3c
00000240: 88aa b03c 713b 0439 7eeb 2d3a 3a7b b239
00000250: bd1f c23b 0fc2 11bb e892 ae38 cf31 2c3c
00000260: 42ef 47ba ebaf e23c 2108 ce3c 7a44 ed3b
00000270: 968f 9eba 82a2 f63c bbc9 813a 7416 cebc
00000280: ede0 7ab9 baf3 4c3a 6054 4937 1161 a4bc
00000290: 1609 d1bc 58c7 0e3b c348 b3bc 2de1 d1bc
000002a0: 696e 303b e0eb 0ab7 05d2 c2bc 7e57 55bb
000002b0: 2d8d 883a 0b29 843b 1e60 db3c ff0d f43c
000002c0: 8cf7 413a 5394 acbc 7c40 debc 50f5 963b
000002d0: c4ab 13bd 7d10 1d3d 6e7b 953b f601 b4ba
000002e0: 2c9c a439 5951 0a3a a7d7 b73c fa40 003d
000002f0: 6a14 993a f011 c2bc 47df 043c 2c1e 02bd
00000300: 04a9 9e3c 32c6 ffbc 00cd a037 4dad 043b
00000310: 350d e738 9ca6 d0ba 09e7 49bb d0ef cfbc
00000320: 31dd b0bc 1c15 cdbc 5491 cb3c 7aaa eb39
00000330: 1420 c23a cb17 863c d064 d139 66ed 483c
00000340: 5a4d 4a3b d4d2 c0bc d3bd c43c 6f09 0fba
00000350: be4c 87ba 05c9 e0bb 5a34 03ba 58ab c8ba
00000360: 9074 e2b9 f6a1 4e3a 9b95 2ebc e0b4 10ba
00000370: c24f b938 ac63 e83a a56a 953a 2703 7c3c
00000380: dc50 993c 94e5 93ba 9a25 2fbb 6ab1 fbbc
00000390: 6bc6 da3a 5667 51ba b8d8 5fba a830 f13b
000003a0: 688a 80b9 605f 373a 167c a4ba 55d0 78ba
000003b0: 7eff ac38 90d7 50bc 2673 eebc 9624 22bd
000003c0: 1ae4 a63a aa3f 283b 6751 d8ba 74ab 063d
000003d0: 3c71 34bc 7c21 a6b7 53da bebc de87 97b8
000003e0: 284f 36bb 41d6 c13c e493 7abb a652 ca3a
000003f0: 6022 5037 fcf4 d6bc 502d 323a 9b04 183c
0.00024969789 0.009960193 -0.038177866 0.018621065 0.0045359535 9.293147e-05 0.0034047107 -0.00015296515
-0.0137941055 -0.0012942954 -0.0033690387 -0.003199056 0.0037822106 0.0198195 -0.0016390919 0.005094205
0.018660896 0.008523055 -0.0014048526 0.016548794 -0.00051403575 -0.0010853359 -0.023821315 -0.0016941957
4.7097274e-05 0.02121972 -0.0031285298 -0.00210841 0.0039888625 -0.0077508176 0.0018057189 -0.022920338
0.011106426 -0.012443518 -0.0009953233 -0.043721102 -0.0071197446 -0.0008011252 0.0030705293 0.0006618063
0.003082458 -0.024990955 -0.05205291 0.021621171 -0.0018832457 -0.016932132 -0.0033311674 0.01824391
-0.0019033503 -0.021488642 -0.0060557695 -0.0012726915 0.002113984 0.00043976438 -6.8645146e-05 0.004851696
-0.016957434 -0.00074615364 0.0022354997 -0.0018848677 -0.0058697243 0.00046735103 -0.0011631891 -0.0032980582
-0.0013237463 -0.028905002 0.018241767 -7.912048e-05 -0.020345932 -0.00082702906 -0.021980716 0.0018777444
-0.00033480732 0.0002918415 0.03739039 -0.0210962 0.0018854581 -0.0006280608 -0.001067539 -0.0014231759
0.00078794535 0.0026907912 -0.002355799 0.0073132026 -0.0089714965 -0.005935251 0.00045098472 -0.00011715555
0.0028460266 -0.0021104924 -0.0021706414 0.013192649 -0.0026609737 -0.00030182255 -0.024793873 -0.0005015191
0.0070208358 -0.0005779679 -0.02204399 0.005918005 0.01923494 0.008175312 0.0017865892 0.0012354671
-0.0011147221 -0.006282215 -0.023792848 0.0013531463 -0.0006922403 0.0008302198 -0.0008900872 -0.0012205539
-0.00049241603 0.0029480713 0.0029548383 0.014354373 -0.000845369 0.00025415042 -0.0006834576 0.0013123639
-0.017036036 0.0028166054 0.013580934 -0.020787412 0.011279957 -0.0046316227 -0.0039204587 -0.0008433681
-0.0024476212 0.012730519 0.0015403571 0.00084077974 0.0008780947 0.00045134086 0.004197723 -0.002514351
0.008528311 0.0029023758 -0.0007846077 -0.019988718 0.0034158118 -0.006812451 -0.0124892285 0.019035732
0.02156569 0.00012610645 0.00066345173 0.00034042617 0.0059241937 -0.0022240912 8.32433e-05 0.010509922
-0.00076269 0.027671775 0.02515036 0.007240829 -0.0012097235 0.030106787 0.0009902039 -0.02515719
-0.0002392565 0.00078183005 1.2000179e-05 -0.020065816 -0.025517028 0.0021786299 -0.021885281 -0.025620067
0.0026921278 -8.28036e-06 -0.023781786 -0.003255337 0.001041805 0.004033213 0.02677923 0.02979183
0.0007399253 -0.02106682 -0.027130358 0.0046068802 -0.03605248 0.038345803 0.004561833 -0.0013733495
0.00031396875 0.0005276404 0.022441698 0.031311966 0.0011679057 -0.023690194 0.008109874 -0.031767055
0.019367702 -0.031222437 1.9168947e-05 0.0020244897 0.00011017398 -0.0015918794 -0.0030807874 -0.025382906
-0.021589847 -0.02503448 0.024849571 0.00044949708 0.0014810585 0.016368767 0.00039938698 0.012263631
0.003086886 -0.02353803 0.024016296 -0.0005456423 -0.0010322554 -0.006859901 -0.00050050544 -0.0015309853
-0.00043192925 0.00078824104 -0.010655786 -0.00055201165 8.8363435e-05 0.00177299 0.001139958 0.015381611
0.018715315 -0.001128363 -0.0026725293 -0.030724246 0.0016691213 -0.00079881155 -0.00085390685 0.0073605366
-0.00024517183 0.0006995108 -0.0012549188 -0.0009491493 8.249188e-05 -0.012746707 -0.029107641 -0.039585672
0.0012732774 0.0025672712 -0.0016503752 0.032878354 -0.011013325 -1.9804334e-05 -0.023297464 -7.225548e-05
-0.0027818177 0.023661735 -0.0038235122 0.0015436008 1.240577e-05 -0.026239865 0.0006796913 0.009278442

lin1.bias f4 [64]
00000000: feca f93c 5fb8 fc3c 10e0 893c 31cc f33c
00000010: 9579 0e3d 5314 ae3b dc33 1c3d 4ce8 eb3c
00000020: 862a cdbc 4a4f d23c 33bc 0fbd 9c7e fb3c
00000030: c598 1e3d 99f8 1a3d b621 5c3c 5914 203d
00000040: 25ef c5bc 8b22 183d 9d79 903c 5e3c b53c
00000050: 0941 f23c 468d a63c 2b6a 1f3d 7df5 cabc
00000060: 2f57 b43c 4f20 703c 282a 063b c608 813c
00000070: d127 043d 91bb 243d da53 193d 9d5b b13c
00000080: 1efb 973c 5b0e e1bc b973 b33c 65eb f73c
00000090: 809d e738 c444 c03c 7763 3b3d 53e4 d83c
000000a0: 769c b03c db58 ba3c f20b f5bc 4b87 d93c
000000b0: 7b3c 593d 3eb8 b53c 3e51 043d 7b2c a4bc
000000c0: 6699 fc3c f1d1 d4bc a058 303c 06a6 ef3c
000000d0: b27b bb3c 82f9 ccba 7da0 c53c 5ef5 04bd
000000e0: 3f3e fd3c e875 bc3c 6bf5 e13c ede2 bcbc
000000f0: 9402 3bbb 9687 8d3b f8ab 273d ed81 a3bc
0.030492302 0.030849634 0.016830474 0.029760452 0.03478392 0.0053124814 0.038135394 0.028797291
-0.02504469 0.025672574 -0.03509159 0.03070002 0.03871991 0.037834737 0.013435772 0.039081905
-0.024161885 0.037142318 0.017636115 0.022123512 0.029572027 0.020331036 0.03891961 -0.024775261
0.022014229 0.0146561405 0.0020471904 0.015751254 0.032264534 0.04021794 0.037433483 0.02165013
0.01855236 -0.027472666 0.021905767 0.030263612 0.00011044275 0.02347029 0.045749154 0.026476061
0.021558981 0.022747448 -0.029912923 0.02655377 0.053036194 0.02218258 0.03230404 -0.020040741
0.030834865 -0.025979014 0.010763317 0.02925397 0.022886131 -0.0015638324 0.024124378 -0.032460563
0.03091347 0.02300544 0.027582845 -0.023057425 -0.0028535472 0.0043191416 0.040935487 -0.019959414

lin2.weight f4 [5, 64]
00000000: 45cf e53d 752b 8fbd 56eb 493b 9c37 78bd
00000010: b8dc 133e addd 9e3d 11db a5bd e6a7 663d
00000020: 18d2 cbba f647 043d a8be 19b9 5c4d 08be
00000030: 9b1e f83d aa95 28be 5cfc 003e dafe 30bd
00000040: df6e 2bbc faf9 f4bb a055 babd 4e2e 23be
00000050: 0421 e63d c586 e23d 6608 9dbd 0516 343b
00000060: b18a 27bc f515 b7bd 7f10 bc3c 965d e53d
00000070: 7a98 273e 63cd a03d 6da8 00be a4e8 b4bc
00000080: 21d8 eebd cf7a b1bd 6728 883d 68dc f3bd
00000090: 34a3 843d ae6d 31be a825 23be 8548 133e
000000a0: c56b eb3c 644b b5bd a0db 393c e374 1a3d
000000b0: 0b41 d2bd e967 8ebd a56f 353d adae cb3b
000000c0: d508 fb3d af41 983c a756 d7bd e7d4 2cbd
000000d0: 7940 ba3d 8475 963d aaa1 e13d c524 2139
000000e0: 2b61 013e d00d eb3d 64b9 f0bd 233e 45bc
000000f0: c306 8abd 4348 6fbd fa1b 583d c061 323b
00000100: b9dd 403e 46c0 0f3e b2ad 203d 14a2 80bd
00000110: 08a5 503d 821c acbd 1810 2d3e 65e9 16be
00000120: 904e 1dbd bf94 32be 7258 07bd f01f 05be
00000130: a016 de3d f3bf 47bd f2a5 c3bd 9326 393e
00000140: a0eb 35bd a83f 2abe c290 3dbd afc2 94bd
00000150: ba5b fb3d 50f2 34be fdde 503d 57fd b43c
00000160: 4a43 57bd 46d4 04be 30b8 943d e2e7 51bd
00000170: d996 283d 110f b4bd 13e5 f63d 2381 713d
00000180: e1a5 d9bd b0fd 7ebd 7dee 023e 23ec 0e3d
00000190: 5567 a0bd 428d eb3d 97cf df3d 309a 6fbd
000001a0: d9bc 11bd 2a94 27be b8b7 5a3d 1489 0fbe
000001b0: 2d8d f53d 0cb5 5c3d 901a 3d3e 45d4 03b9
000001c0: d124 18be 1b71 753d 4d92 7a3c d17f b63d
000001d0: 22c7 0dbe 6ede 503c 1227 24bd f47c 8fbc
000001e0: e737 b03d 619b 7f3d db36 1d3e e850 4039
000001f0: dac9 94bd ea25 013e 1b36 243e 9d23 353c
00000200: 3cf8 11be 69aa 03be 3fad 833d 6337 32be
00000210: 6096 0abe 0d0f e1bd 6c2f 453c 6c0b e53d
00000220: ec96 943b acdb d939 3a7f 83bc 330e ea3d
00000230: 4154 693d 9a71 9abd 06de 0ebe 6022 c73d
00000240: 7956 c73b 46e2 ff3d 7ac6 263e 06f0 f83d
00000250: 695f 303e 43bb bc3d 6b86 073e a155 9f3a
00000260: 47b8 1d3e e9d8 023e bb82 933d 5a3b a5bd
00000270: 0be3 bbbd 0c1d 203e 746f e1bd f3af fcbd
00000280: 95eb c03d d23e babb 7d47 bc3d ee05 173e
00000290: 1532 493d 5188 333e 6baf 593d 0da6 f43c
000002a0: 23f1 233e 80ea e33d 5d3c 6b3c 8c45 e7bd
000002b0: ccb9 ab3d 9a54 1fbe cfc3 03be 6048 b7bb
000002c0: 9b58 a23d b4b4 f73c f63d aabd 1805 193e
000002d0: f5dd 31be a9c8 61bb ee7e 343e 7cad 80bd
000002e0: 4c72 1b3e 0da9 bebd d85c 813d f94d 103d
000002f0: 1ca9 923d 5ba9 033c af8a acbd a524 543d
00000300: 7686 c23d b137 cc3d 9a8b 0fbe 883d 023e
00000310: 6591 913d 2803 bdbc 12aa 91bc d7c4 003e
00000320: 6ec6 3bbb 52c1 993c b8c0 c8bc fd53 113e
00000330: 2e64 a0bd 278b dd3d abe6 ca3c caba 473d
00000340: 9772 af3c 1cd8 b03d 7aa7 ecbd daa7 fabd
00000350: 67e2 43be 57e2 14bc aa3a b53d 4800 8b3a
00000360: f079 3ebe 341b b33d 3172 f2bc a1e2 3bbd
00000370: cadb 0d3e f99c 803d 972f 93bd 9080 02bd
00000380: 00de 323d 3d34 babb f781 82bd 8dd6 aebd
00000390: f425 e2bd 365c 2bbe a9b7 833d 7a66 96bd
000003a0: 2d99 17be 770b 0b3e 9ddb 953d 20cd 8f3d
000003b0: 964a 083e 0dbf a4bd a8dc bcbd 271a ffbb
000003c0: 6446 fa3c 27bf d0ba 1eca 4cbd a504 85bd
000003d0: 9e5d 23be 04ad 383d f61d 32be 1be1 2b3c
000003e0: 6c66 c5bd 8803 733d fcb0 39be 4c63 dc3c
000003f0: cf42 c6bd 46d2 dabc f2d4 8f3d d80c ae39
0.11221174 -0.06990711 0.0030810437 -0.06059991 0.14439666 0.07757125 -0.08098424 0.056312464
-0.0015550284 0.03229519 -0.00014662242 -0.1331076 0.121152125 -0.16463342 0.12596267 -0.043211795
-0.010463445 -0.0074760886 -0.09098363 -0.15935633 0.11236766 0.110608615 -0.076676175 0.0027478945
-0.010225938 -0.08939735 0.022957085 0.11199491 0.16366759 0.078516744 -0.1256425 -0.022083588
-0.11662317 -0.08666002 0.06648331 -0.119072735 0.06476441 -0.17326996 -0.15932333 0.14383133
0.028737912 -0.0885227 0.011343867 0.037709128 -0.10266312 -0.06953413 0.044295926 0.0062158913
0.12257544 0.018586008 -0.105145745 -0.042195227 0.090943284 0.07346633 0.11017163 0.00015367854
0.12634723 0.11477244 -0.117541105 -0.01203874 -0.06739571 -0.058418524 0.052761056 0.0027218908
0.1883458 0.1403819 0.03922815 -0.06280914 0.050938636 -0.08403875 0.1690067 -0.1473747
-0.038405 -0.17439555 -0.033043332 -0.13000464 0.10844159 -0.04876704 -0.09553136 0.18081121
-0.044414163 -0.16625845 -0.04628063 -0.072636954 0.12273355 -0.1767056 0.05099391 0.022093458
-0.052554406 -0.12971601 0.072616935 -0.05124653 0.041159485 -0.08791936 0.12055411 0.058961045
-0.10627342 -0.062253654 0.12786289 0.034893166 -0.07832209 0.11501552 0.109282665 -0.058496654
-0.03558049 -0.16365114 0.053397864 -0.14017135 0.11989818 0.053883597 0.18467164 -0.0001257221
-0.14857794 0.05992232 0.01529367 0.08911098 -0.13845494 0.012748344 -0.040076323 -0.017515637
0.086044125 0.06240404 0.15352957 0.00018340687 -0.07265063 0.1261212 0.16036265 0.011055854
-0.1425485 -0.12857975 0.064295284 -0.17403941 -0.13533926 -0.10989199 0.012035232 0.11183819
0.004534593 0.00041553134 -0.016051877 0.114284895 0.056965116 -0.07541199 -0.13951883 0.097233534
0.0060833064 0.1249433 0.1628665 0.12155156 0.17223896 0.09215405 0.1323487 0.0012156257
0.15402327 0.12778057 0.07202669 -0.08067961 -0.091741644 0.1563608 -0.11007586 -0.12338247
0.09419934 -0.0056837583 0.09193323 0.14748356 0.049120028 0.1753247 0.053145807 0.029864335
0.16009955 0.11128712 0.014357653 -0.11292562 0.08385047 -0.15559617 -0.12867664 -0.0055933446
0.079270564 0.030237533 -0.08312599 0.1494335 -0.17369826 -0.0034451878 0.17626545 -0.062830895
0.1518032 -0.09309588 0.06316537 0.03523061 0.07161161 0.008035983 -0.08424889 0.05179276
0.09498303 0.0997156 -0.14018098 0.12718785 0.0710781 -0.023072794 -0.017781291 0.12575088
-0.002865221 0.01876894 -0.024505958 0.14192195 -0.07831608 0.10817557 0.024768194 0.04876212
0.021416945 0.086349696 -0.11555381 -0.122390464 -0.19129334 -0.009087167 0.0884908 0.0010604942
-0.18601203 0.08745423 -0.029595466 -0.045870427 0.13853374 0.0627994 -0.071868114 -0.031860888
0.043668747 -0.005682497 -0.06372445 -0.08537016 -0.11042395 -0.16734394 0.06431515 -0.073437646
-0.14804526 0.13578592 0.073172785 0.07021546 0.13309702 -0.080442525 -0.09221774 -0.0077851
0.030551143 -0.0015926108 -0.04999744 -0.064950265 -0.15953681 0.045086876 -0.17394242 0.010490681
-0.09638676 0.05932954 -0.1813392 0.026902817 -0.096807115 -0.026711594 0.07023038 0.00033197436

lin2.bias f4 [5]
00000000: cf8b b7bc bef9 72bd 1b8e 0cbd e86e cebd
00000010: 7128 90bc
-0.022405533 -0.059320204 -0.03431521 -0.100797474 -0.017597409

prop1.temp f4 [11]
00000000: e231 6d3f b66d 8a3f f3c1 873f 19a6 863f
00000010: 974c 863f 6b11 863f fdac 853f 9a69 843f
00000020: 9474 803f 1799 753f 765c 6e3f
0.9265424 1.0814731 1.0606064 1.0519439 1.0492123 1.0474066 1.0443417 1.0344727
1.0035577 0.9593672 0.93109834
