save_parameters/BernNet_model_BernNet_cora.pt (torch, 371330 bytes, 5 tensors)

lin1.weight f4 [64, 1433]
00000000: 5ffa 913c c8f4 91bc e6ed 13bd bc21 37bd
00000010: 01fa 09be fba0 3c3d 387a ba3d 08d8 afbc
00000020: 6700 c83d d30a 463c a8b9 abbb d216 ff3b
00000030: 9af9 f6bd c899 123d c84d d1bc b6f2 4bbc
00000040: b6c4 a13d 421a 7d3d 4d28 e53d 953c e03e
00000050: bd64 ed3c a479 4fbd 1515 5e3c 8ca4 003d
00000060: e5cf 45bd e27f c03d 3c31 6ebc 5fd7 c93c
00000070: 7a1e 85bd f6bb f8bc c735 93bd 387a 883c
00000080: ab92 533d ec2b ed3c b32c 0abd 6e07 acbc
00000090: ad54 243d a572 163b 0a7a ebba fbb4 213b
000000a0: 2757 1fbe 783c 00bd 2f8e d8bc 98d3 8dbb
000000b0: 539a 0bbd 2b02 b6bd 719c e33b 6f3b 65bd
000000c0: b4df 713d 11d9 64bd 026a 9ebd 48e0 b73e
000000d0: 2b47 7abe 02ba 033d 40b0 10be f2ff 8fbd
000000e0: 24d7 0dbd a927 ffbb 689d 363e 7f91 f0bc
000000f0: c34f 6ebc b67d 423e 7fd1 a43c ab13 37bd
00000100: 97ab 6dbd 9005 6abd 25f9 0c3d 1311 ccbd
00000110: 4fde 2b3c fc37 f83c 7e61 80bd 09c8 7fbd
00000120: b5e6 373d 5bcb 313d a96d e2bb fb2b 893d
00000130: d17a 9cbd a11b 193e 503b adbd 8ef0 0a3c
00000140: 8cd8 13b9 e9da 17bd 56b2 9dbd e8b8 26bd
00000150: 95f0 183b f7a9 5e3e 41e2 1e3d 74eb b8bc
00000160: 0a58 2c3e 5afe 033c 2705 6c3d ce57 eebc
00000170: c293 9f3d 57d0 e7bd 8705 753d a6d8 c93d
00000180: 0ebf 1e3c edb9 1dbc 2e40 b6bd 52a4 88bd
00000190: 2fb9 923c 6c6c 583d 8a5c 5e3d 6585 183e
000001a0: b34e 10bb c883 86bb b011 f93c e94b e73b
000001b0: 4dd3 acbd 3cd5 0e3d ab2a d93c 3af5 05bd
000001c0: c64d 54bc 3f7d 363d 7661 9d3d 7157 383d
000001d0: 4b20 1f3b 47b9 a0bc 3e3c 1b3e 996d 15bd
000001e0: cad6 1a3a 0b11 dabc 38d7 19bd 54c4 503d
000001f0: 8d94 1c3d 4648 f23d 93d7 5e3d 13c7 853c
00000200: 7426 923d 942b 053e 5259 d73d 57db 483e
00000210: ba51 f13b 77f9 c03d 70f4 ef3b c909 283e
00000220: f082 193e bc2a 65b9 6628 0cbc 5a0f 58bd
00000230: c793 873e c4b2 1e3c 2720 393d 533a 863d
00000240: 8284 d03c accc 9b3d 3bc6 343e 5677 90bd
00000250: e340 3a3d 9f62 a8bc 9f07 013c 4ad8 fa3d
00000260: 8c85 35bc 23c3 953d f3d9 bfbd 3bf9 84bc
00000270: 65a7 bfbc a6cb 2f3e b6aa b3ba 1775 96bc
00000280: e320 983d df72 513d fa23 533c 55bd 513d
00000290: eaa9 aa3c 4c06 02bd 4739 80bc a70e c4bc
000002a0: 1c79 24be ed93 8abd 64b9 36bd 6684 913d
000002b0: 9997 d93d 8bd5 0bbe 3c03 68bd 70c2 eebb
000002c0: db4a 353e 0649 a13c e504 42bd 6c0c babd
000002d0: 7a81 32b9 b9e6 ec3c 9539 1bbd 1715 633c
000002e0: 7e46 efbc cb91 fa3b a56e bbbd d8d7 00be
000002f0: 55d7 9d3c 454c d13c e1da ddbc 9453 0c3c
00000300: d528 883d 0520 733d 29fe a5ba 5b4c 55bc
00000310: 7634 06be 2750 8f3c e226 9a3c 56a4 1e3c
00000320: b0d0 f4bd c9d0 e43b 408c 50bd 1e8b 213e
00000330: e10c 08bd 4336 a5bc 1dda ddbc 48ab 55bc
00000340: 7708 e2bc 3356 b93c 4432 59bd b4a5 00be
00000350: b721 a0bc 491f 013c 7d17 b43c 4dab 9cbd
00000360: 84db f33c 95f0 f9ba d54c c2bd 0fe9 9e3c
00000370: 625c a43c 46f4 673b 56ce 8d3d 3900 b73b
00000380: c4f1 50bc 0aa4 dcbd cb1f e93c 2412 d13c
00000390: 28f1 02be 3350 c6bc abdc 62bc a02e 03bd
000003a0: 32a9 b83d 8d93 3dbd 0a9b 73be 9ed8 62bd
000003b0: c683 4cbc 2feb a7bd feb8 5a3e 6f87 18bc
000003c0: bd11 033d 2b4f 473c f6e6 08bd ca43 0ebd
000003d0: 7743 1a3d 0aae 75bd d3b8 183e e24d b1bd
000003e0: 2a86 b3b9 e6e4 27bc c20e d9bc c860 6dbd
000003f0: 0103 07bc bb76 1a3a 1079 fbbc 554c 42bd
0.017819582 -0.017816916 -0.03611555 -0.044709906 -0.13474275 0.04605196 0.091053426 -0.021465316
0.09765702 0.012087542 -0.005240638 0.007784703 -0.120593265 0.03579119 -0.025549784 -0.0124480035
0.07898848 0.06179262 0.111893274 0.4379622 0.0289787 -0.050653115 0.013554831 0.031406924
-0.048293967 0.09399392 -0.014538106 0.02463883 -0.064999536 -0.030363064 -0.071879916 0.016659841
0.051653545 0.028951608 -0.033734035 -0.020999637 0.040119816 0.0022956517 -0.0017965448 0.0024674523
-0.1556059 -0.031307667 -0.026434986 -0.0043282025 -0.034082722 -0.08887132 0.0069461395 -0.055964883
0.05905123 -0.055871073 -0.07735063 0.359133 -0.24441211 0.032159813 -0.14129734 -0.070312396
-0.034629002 -0.0077867103 0.17833483 -0.029366253 -0.014545384 0.18993267 0.020119427 -0.04469649
-0.05802497 -0.05713421 0.03441729 -0.09964194 0.010490014 0.030300133 -0.06268595 -0.062446628
0.044897754 0.043406826 -0.006910045 0.06697842 -0.07640613 0.14951946 -0.084585786 0.008480204
-0.00014099682 -0.037074003 -0.077000305 -0.040703684 0.0023336757 0.21744524 0.03878999 -0.02257321
0.16830459 0.008056248 0.0576221 -0.029094603 0.077918544 -0.113190345 0.059819724 0.098557755
0.009689106 -0.009626848 -0.0889896 -0.066719666 0.017910568 0.052837774 0.05428747 0.14894636
-0.0022019565 -0.004105065 0.030403942 0.0070586097 -0.0843874 0.034871325 0.026509603 -0.03270457
-0.012957996 0.044553038 0.07684605 0.045005266 0.0024280723 -0.019619597 0.151597 -0.036481474
0.000590664 -0.026619455 -0.037558764 0.050968483 0.038227607 0.11830191 0.054404806 0.016330278
0.071362406 0.13004905 0.105150834 0.19614922 0.007364479 0.09422582 0.0073228404 0.16409983
0.14991355 -0.00021855062 -0.008554554 -0.052749015 0.26479933 0.009686176 0.04519668 0.06554093
0.02545381 0.076073974 0.17653744 -0.070540115 0.045472037 -0.020554839 0.007875352 0.12248285
-0.011079203 0.0731261 -0.093677424 -0.016232124 -0.02339525 0.1716753 -0.0013707492 -0.01836638
0.07428148 0.05113494 0.012886995 0.05120595 0.020832974 -0.031744286 -0.015652312 -0.023932768
-0.16061825 -0.06766496 -0.044610396 0.07105331 0.10624618 -0.13655679 -0.05664371 -0.0072863623
0.17704336 0.01968814 -0.04736795 -0.090844005 -0.00017023637 0.02891861 -0.03789671 0.013860009
-0.029208418 0.0076467744 -0.09151963 -0.12582338 0.019267717 0.025549063 -0.027081909 0.008564848
0.06648413 0.059356708 -0.0012664247 -0.013018693 -0.1310595 0.017494274 0.018817369 0.009682735
-0.119538665 0.006982897 -0.050915003 0.15775725 -0.033215407 -0.020167476 -0.027081544 -0.013041325
-0.027591927 0.02262411 -0.053026453 -0.1256321 -0.019547326 0.007880994 0.021983856 -0.076498605
0.02976776 -0.0019068891 -0.09487311 0.01939824 0.020063583 0.00353934 0.06924121 0.0055847433
-0.012752954 -0.107734755 0.028457543 0.025521345 -0.12787306 -0.024208164 -0.013846557 -0.032026887
0.090166464 -0.046283294 -0.23789611 -0.055382363 -0.012482589 -0.081991546 0.21359631 -0.009309634
0.03199934 0.012164871 -0.033423387 -0.034732617 0.037661996 -0.05998043 0.14914255 -0.08657433
-0.000342415 -0.010247445 -0.026496295 -0.057953626 -0.008240462 0.0005892326 -0.030697376 -0.047436077

lin1.bias f4 [64]
00000000: c77a b33d f5d9 2f3d 6b1e 9d3d dad2 573d
00000010: dfda 663d 1544 c53d a405 9f3d e5ca 853d
00000020: 0770 953d f3ae a43d 7193 a43d 91ae 7e3d
00000030: 3976 3d3d c91f 823d 89b1 7c3d d58d e9b1
00000040: 6c3f 6f3d d451 59b0 7eee 683d 470f 9d3d
00000050: 0d1d 9f3d c57e 7c3d 38d0 7a3d e99b 403d
00000060: 3b3e c43d 694c ab3d d5d3 813d 628b 7e3d
00000070: 39ba 733d ec35 8e3d 947c 553d 0ac4 703d
00000080: 7953 743d 42fd 613d f9fa 8b3d 31ce a33d
00000090: e3ac 8e3d c036 843d 0fe2 a13d a4a8 6e3d
000000a0: 3c8d aa3d 1805 643d ac9b 833d a7bd 683d
000000b0: 5722 683d 703e 6f3d 87f4 933d 3f0c 6d3d
000000c0: 35a6 903d 8f90 893d c3b3 ae3d 558a 823d
000000d0: 429b 533d a86b a43d 02b7 a93d b3c9 223d
000000e0: cd22 9e3d e34b ab3d d005 5e3d 16ea a43d
000000f0: 1bc0 8c3d 65bc 8e3d 39d9 413d 6018 343d
0.08763652 0.04293247 0.076718174 0.052691318 0.056361075 0.09632126 0.07764748 0.0653284
0.07296758 0.080411814 0.08035935 0.0621782 0.046255324 0.06353719 0.06169275 -6.797317e-09
0.058410093 -7.9060425e-10 0.05686807 0.076689295 0.07769213 0.061644334 0.06123373 0.047023688
0.09582182 0.083641835 0.06339232 0.062144645 0.059503768 0.069438785 0.05212076 0.058780707
0.05964992 0.055173166 0.068349786 0.07998312 0.06966569 0.06455755 0.079044454 0.058266297
0.083277196 0.05566892 0.064261764 0.05682149 0.056673374 0.058409154 0.07224374 0.057873007
0.070629515 0.067170255 0.085303806 0.06374041 0.051661737 0.08028346 0.08286859 0.039743137
0.077214815 0.083640836 0.054204762 0.08052461 0.06872579 0.06969527 0.0473263 0.04396856

lin2.weight f4 [7, 64]
00000000: 8ca2 4dbf b2ed 13be 52cb 55bf 857d 313f
00000010: 4cf1 66bf 2b4c a23e 2b45 453f 1c01 81bf
00000020: 6b23 83bf 4fc0 45bf c8ee 6abf 3e6c 333f
00000030: 0ced 6abf a18e 8dbf 3c8a b43e b323 09a5
00000040: 9f4e 78bf bde5 082f 3cf6 03bf a3e8 61bf
00000050: 233b fb3e 2a86 73bf 1791 073f f59e 2e3d
00000060: 6ce4 4d3e 8e42 143f 57ff 243f ac87 8dbf
00000070: 4a93 7ebf 03f9 0ebf 207b 4d3f 9639 453f
00000080: 1f4e 28bf 9f42 1a3f 25fb 80bf 6fec 4abf
00000090: c81e 6f3f 2dfd 4b3f 23ec 80bf 3278 e73e
000000a0: 34aa 6ebf 2999 f73e ae01 c23e c08c 51bf
000000b0: c2b6 153f 19f1 7abf 3f93 4fbf c587 5a3f
000000c0: 7288 093f 4996 3e3f 287f 5c3f f8f3 813f
000000d0: 9594 433f 9518 6cbf f654 053f 1c11 72bf
000000e0: c8f1 bdbe b593 81bf f267 6abf 6543 2d3f
000000f0: a297 a13e 1ba8 b03e 4bc3 703f 83a9 61bf
00000100: 765c 6fbf 773c 4b3f b5e6 71bf 78ea 5ebf
00000110: 617d 423f 134d 80bf 0688 72bf 2218 553f
00000120: eaf7 4c3f c1a3 393f 3c7c 73bf 377b c33e
00000130: e6b6 733f 987c f43e 16c8 323f fdb4 c324
00000140: 2da6 463f 7c0e 64ae 819d 75bf b728 6ebf
00000150: ab87 b4bd 4067 82bf 6e8d b93e 04c0 063f
00000160: 84c7 82bf 64a2 7dbf ab65 4a3f be1a 683f
00000170: 2099 663f b974 75bf 9cca 7dbf 678a 383f
00000180: c71a 7ebf 1b33 ec3e 20ba 513f 2ed8 57bf
00000190: a6d3 76bf 3866 163f d2f5 5b3f 17f3 9f3e
000001a0: 1f85 75bf b45d 3e3f 657a 6b3f 68f5 733f
000001b0: 9472 a13e 8e7e 543f caa4 7ebf cc6d ab3e
000001c0: e024 6bbf bcf8 6bbf 97b6 71bf a5bc 7dbf
000001d0: 73b1 833e 637f 6dbf a86d 81bf 6c25 813f
000001e0: 91f4 88bf fb1c 61bf a2f3 53bf 1459 8abc
000001f0: ade3 af3e 1e61 f63e 4b0c 06be cdaa 4c3f
00000200: 2156 4b3f 4d19 903e fae4 6f3f 4e4f 473f
00000210: 29e5 2c3f cd5a 79bf 7a8a 7dbf 2ca6 203f
00000220: e7e2 193d c991 77bf bd90 5cbf 8b53 373f
00000230: 383e 573f 626d 1e3f f518 70bf 1ddc 13a6
00000240: 996d 0e3f 2e14 312e e99c 55bf 61ce 3dbf
00000250: 771e 83bf c8f6 6f3f ae76 253f e7f9 253f
00000260: 69bf 78bf 3c35 6dbf 619e d5bd 397b bdbe
00000270: 9ab0 343f 96e0 5f3f b9fe 4e3f aac1 68bf
00000280: 2836 563f 898b ed3e 089f 59bf 0289 57bf
00000290: 86a2 573f 72ca 68bf 48e1 71bf d030 9e3e
000002a0: 48db 553f c1e7 51bf 46af 6cbf 3c0a 69bf
000002b0: 9010 273f f232 373f 6776 66bf 80e6 2f3f
000002c0: b451 5ebf 3f9a 81bf f290 2f3f 87c9 64bf
000002d0: 507e 1c3f 4774 5c3f 4346 57bf adf9 5d3f
000002e0: a7a7 423f 2bad 3c3f 9266 97be 2a92 83bf
000002f0: 36f2 6abf fae1 5ebf c74f 3cbf 6ddb 61bf
00000300: d0a9 2a3f 8c17 70bf 713f 85bf 1ce2 69bf
00000310: c34c d2be ffaf b93e 094c 803d 7feb 513f
00000320: 2e14 213f 0d92 3b3f 62b9 2dbf c1fd 8fbf
00000330: 7c9e 81bf cb1e 86bf 9e66 89bf b8ec 5124
00000340: e46d 333e aff5 05ae c947 6fbf 53b7 463f
00000350: 858a 243f 6d2a 64bf 286c 513f 75c0 84bf
00000360: 9444 cc3c 324d 153f 7e04 04bf 7c65 73bf
00000370: 0f63 3d3f 777b 323f 2fa7 80bf e6e1 6ebf
00000380: ad59 b1be 98e2 86bf db8e 45bf 9079 5e3f
00000390: f2af 8fbf 6071 103f 28c0 8b3e 6dd3 5a3e
000003a0: 12e9 1f3f cf9e 70bf 4b23 693f 4ccf 77bf
000003b0: 3182 83bf 78fa 523f ee21 7a3f 1f15 7abf
000003c0: 1308 78bf b7f5 6a3f 5624 3a3f 5576 543f
000003d0: 6810 87bf 399c 54be cb6a 81bf 994d 71bf
000003e0: c6f6 2f3e 4716 443f 90e3 4dbf a2b2 413f
000003f0: fd5d d43e 3eeb 77bf deaf 70bf 6bc6 57bf
-0.8032615 -0.14446142 -0.8351337 0.6933215 -0.9021194 0.31698737 0.77058667 -1.0078464
-1.0245184 -0.77246565 -0.917706 0.7008704 -0.91767955 -1.1059152 0.35261714 -1.1894951e-16
-0.96994966 1.2450747e-10 -0.515476 -0.882456 0.49068555 -0.95126593 0.52955765 0.042632062
0.20106667 0.57914054 0.6445212 -1.1057029 -0.99443495 -0.5584871 0.80266 0.77040994
-0.65744203 0.60257906 -1.0076643 -0.7926702 0.93406343 0.7968319 -1.0072063 0.4520889
-0.9322846 0.4835904 0.37891906 -0.8185539 0.5848199 -0.98024136 -0.81084055 0.8536342
0.53723824 0.74448067 0.86131525 1.0152578 0.76398593 -0.9222501 0.52082765 -0.94557357
-0.37098527 -1.0123202 -0.9156486 0.6768096 0.31561 0.34503254 0.94047993 -0.8814928
-0.9350046 0.7938914 -0.94492656 -0.8707652 0.75972563 -1.0023521 -0.94738805 0.8323995
0.80065787 0.72515494 -0.9511144 0.38179943 0.95200956 0.47751307 0.69836557 8.4874376e-17
0.77597314 -5.1854063e-11 -0.95943457 -0.93030876 -0.08814939 -1.0187759 0.36240715 0.5263674
-1.0217137 -0.99075913 0.79061383 0.90665805 0.900774 -0.9588123 -0.9913728 0.72086185
-0.9925961 0.4613274 0.8192463 -0.8431424 -0.964167 0.58749723 0.8592197 0.3124015
-0.9590625 0.7436173 0.91983634 0.95296335 0.3153273 0.8300561 -0.994702 0.33482206
-0.9185314 -0.92176414 -0.94419235 -0.99115974 0.2572132 -0.927725 -1.011159 1.0089545
-1.0699636 -0.87934846 -0.8279363 -0.016888179 0.3435339 0.4812097 -0.13090627 0.7994812
0.794283 0.28144303 0.93708766 0.77855384 0.6753717 -0.97404176 -0.99039423 0.6275356
0.037569907 -0.96706825 -0.86158353 0.7161185 0.84079313 0.61885655 -0.9378808 -5.129918e-16
0.5563598 4.0263064e-11 -0.8344255 -0.74143034 -1.0243672 0.93735933 0.64634216 0.64834446
-0.9716707 -0.92659354 -0.10430599 -0.37008074 0.7058197 0.87452066 0.80857426 -0.9092051
0.83676386 0.4639552 -0.8500829 -0.8419343 0.84232366 -0.9093391 -0.94484377 0.30896616
0.8353772 -0.81994253 -0.92454946 -0.9103124 0.6525965 0.7156211 -0.9002442 0.6871109
-0.8684342 -1.0125197 0.68580544 -0.89370006 0.6113024 0.86114925 -0.84091586 0.867091
0.7603707 0.73701733 -0.29570442 -1.0278981 -0.91775835 -0.8706356 -0.7355923 -0.8822544
0.66665363 -0.9378593 -1.0409986 -0.9136064 -0.4107419 0.36267087 0.062645026 0.81999964
0.62921417 0.7326973 -0.67860997 -1.1249315 -1.012649 -1.0478147 -1.0734441 4.552016e-17
0.17522389 -3.045891e-11 -0.9346891 0.7762348 0.64273864 -0.89127237 0.8180566 -1.0371233
0.024935044 0.58320916 -0.51569355 -0.9507673 0.73979276 0.6971964 -1.005102 -0.93313444
-0.3463873 -1.0537901 -0.77171105 0.8690424 -1.1225569 0.56422997 0.2729504 0.21369715
0.6246501 -0.9399232 0.9106948 -0.96800685 -1.0274106 0.82413435 0.9770802 -0.9768848
-0.9688732 0.9178118 0.72711694 0.8299306 -1.0551882 -0.20762719 -1.0110716 -0.9425903
0.1718398 0.7659649 -0.8042536 0.756632 0.41477957 -0.96843326 -0.9401835 -0.84287137

lin2.bias f4 [7]
00000000: 66ce d2bd 68c5 b0be 1262 acbe e5a0 003e
00000010: 9db7 b0bd 2734 29be 4c91 d6bc
-0.10293274 -0.3452561 -0.33668572 0.12561376 -0.086287715 -0.16523801 -0.02619233

prop1.temp f4 [11]
00000000: 5676 1640 e994 f03f 1706 263d 38f0 f7bb
00000010: 996c e33d d0d7 4d3e b8cb 7b3e fdce 8f3e
00000020: 8e78 a93e ac62 cc3e f55e e93e
2.3509727 1.8795444 0.04053315 -0.007566478 0.11104698 0.20101857 0.24589431 0.28087607
0.33099788 0.3991903 0.4558026
