save_parameters/BernNet_BernNet_model.pt (torch, 195530 bytes, 5 tensors)

lin1.weight f4 [64, 745]
0.030236538 -0.020466393 0.055061344 0.010485565 -0.17613295 0.034746494 0.28332078 0.3285216
0.2352311 0.008309385 -0.035339564 -0.11840605 -0.08581054 0.22010121 -0.011674684 0.008072783
-0.13179962 0.15778473 0.07031868 -0.0332087 0.017260456 0.05162799 -0.01691117 -0.09883846
-0.13874204 -0.14111625 0.07322702 0.43397173 -0.017870639 -0.13051848 -0.04330959 0.104308166
-0.08575776 -0.053814802 -0.008312025 0.26551756 0.045774452 0.091207035 -0.09106187 -0.062653735
0.4399068 0.12973173 -0.049489066 -0.08259489 -0.08365136 0.06719638 0.03582093 -0.029768547
-0.11864622 0.32451656 -0.09384561 0.2463153 0.18694624 0.0013881577 -0.0012807971 -0.2628862
0.029025957 -0.02290126 0.07402828 -0.066630304 -0.14757176 0.03655883 0.0017539642 -0.0063435263
0.050388034 0.046238597 -0.009815717 -0.036431026 -0.1047397 -0.053411637 -0.2509107 0.038576875
0.062069498 0.1510137 -0.13183197 0.0048257182 0.05939516 -0.06748791 -0.06260559 -0.113831036
0.07329489 0.31038103 0.36029965 0.40061468 -0.043998145 -0.03511765 -0.08134754 -0.30509126
-0.086173244 -0.36623517 0.5023118 0.008035494 -0.1948463 -0.07178166 -0.3029943 -0.06824959
-0.04878945 0.005595483 0.092343554 0.08952194 0.10482931 -0.027517077 -0.2631467 -0.06389792
-0.005398754 -0.040823825 -0.032922138 -0.19518636 -0.23654892 -0.21631739 -0.055930305 -0.387893
-0.10558789 0.07092536 -0.09865612 0.16552874 -0.23681837 0.043171562 -0.1276029 -0.13468325
0.014643736 0.10321699 0.012729198 -0.064059086 -0.07989526 -0.41831556 0.03422847 -0.020711657
-0.23885164 -0.034950178 0.098403245 0.047093466 0.27412063 0.026614826 -0.067864396 0.00945573
0.16145974 -0.09797685 -0.14005032 0.12950417 0.0124470405 0.0866789 0.012031652 -0.03272456
0.22683129 -0.18914755 0.025972115 -0.1442089 -0.055006284 -0.0744594 -0.12698407 -0.21527411
-0.25745255 -0.1254004 -0.031084146 0.004594538 -0.04671438 0.060524717 0.12812547 -0.019475223
0.028155645 0.12313315 0.047929056 0.037831344 0.017552424 -0.011350835 -0.23605947 -0.15413009
-0.1675183 0.06394634 0.07305069 -0.11609695 0.012753823 0.08194778 0.13453819 -0.08683486
0.033797976 -0.16891839 -0.04624597 -0.3027782 -0.14553623 -0.067009896 0.27598065 0.0324726
-0.03831905 -0.08896562 -0.034388103 -0.15163466 0.21850514 -0.050355237 0.3447394 0.22522163
0.105681434 0.14439878 -0.07742393 -0.13668367 -0.0032774687 -0.1405412 0.008294084 0.1809621
-0.030785695 0.08136115 -0.08163659 -0.12235478 -0.08095268 -0.14821467 0.0529619 0.07713669
-0.009261199 -0.07178697 -0.072326444 -0.0051077115 -0.08173674 0.11496589 -0.04094482 0.007857372
0.25612524 0.007141001 0.010673127 -0.25212017 -0.07886901 0.04842541 -0.06796739 0.023388203
0.09897588 0.04229333 -0.07795157 0.09183515 0.028988492 -0.008388092 -0.123043455 0.10580648
0.10103676 0.037544094 -0.08357146 -0.045433283 0.0926749 -0.07024389 0.25590175 -0.29739195
0.19306162 0.3492393 0.025200231 -0.005349371 0.568981 0.107648894 0.21805103 0.10262608
-0.19408518 -0.051725805 0.208289 -0.08907839 -0.0404381 -0.08434974 0.010283553 0.050809182
00000000: 9eb2 f73c 23a9 a7bc 0188 613d a6cb 2b3c
00000010: 325c 34be 5752 0e3d 6c0f 913e fc33 a83e
00000020: 6ce0 703e 1624 083c 38c0 10bd df7e f2bd
00000030: 70bd afbd 3662 613e 2c47 3fbc b543 043c
00000040: 7bf6 06be 5292 213e 3d03 903d d905 08bd
00000050: cd65 8d3c df77 533d 4b89 8abc d26b cabd
00000060: 6512 0ebe c780 10be 0cf8 953d 8b31 de3e
00000070: 7265 92bc a3a6 05be 6665 31bd 859f d53d
00000080: c4a1 afbd e96c 5cbd 292f 08bc ebf1 873e
00000090: fe7d 3b3d c1ca ba3d a57e babd 9a50 80bd
000000a0: 773b e13e 65d8 043e 0cb5 4abd 8227 a9bd
000000b0: 6751 abbd 419e 893d f8b8 123d 2bdd f3bc
000000c0: cafc f2bd 0927 a63e 2132 c0bd 143a 7c3e
000000d0: d66e 3f3e d8f2 b53a 6be0 a7ba 0599 86be
000000e0: d8c7 ed3c 6c9b bbbc 249c 973d 7875 88bd
000000f0: 0d1d 17be b6be 153d 46e5 e53a 5bdd cfbb
00000100: af63 4e3d af64 3d3d 1ad2 20bc b338 15bd
00000110: c581 d6bd 29c6 5abd 5e77 80be c902 1e3d
00000120: 963c 7e3d 56a3 1a3e f6fe 06be 0f21 9e3b
00000130: 5748 733d 1a37 8abd 5c37 80bd 3f20 e9bd
00000140: a21b 963d 43ea 9e3e 3279 b83e 5e1d cd3e
00000150: 6637 34bd 86d7 0fbd 8a99 a6bd ec34 9cbe
00000160: 997b b0bd 2d83 bbbe 8297 003f 4ea7 033c
00000170: ca85 47be 4302 93bd 1222 9bbe 71c6 8bbd
00000180: 72d7 47bd 505a b73b 9e1e bd3d 4757 b73d
00000190: c0b0 d63d 7e6b e1bc 2abb 86be eadc 82bd
000001a0: 08e8 b0bb e236 27bd 5dd9 06bd efde 47be
000001b0: e139 72be 4e82 5dbe 2d17 65bd e999 c6be
000001c0: 773e d8bd 5141 913d 380c cabd 5e80 293e
000001d0: 8480 72be aad4 303d 56aa 02be 68ea 09be
000001e0: 48ec 6f3c 6e63 d33d 208e 503c 6931 83bd
000001f0: 20a0 a3bd 752d d6be 2733 0c3d 7eab a9bc
00000200: 8695 74be eb27 0fbd a487 c93d 14e5 403d
00000210: 8a59 8c3e 5607 da3c 7dfc 8abd 35ec 1a3c
00000220: b455 253e 16a8 c8bd 5a69 0fbe be9c 043e
00000230: acee 4b3c b584 b13d 6820 453c 300a 06bd
00000240: 7646 683e e5af 41be 79c3 d43c 7fab 13be
00000250: 454e 61bd 2b7e 98bd 1d08 02be d170 5cbe
00000260: d2d0 83be f668 00be 2ea4 febc c78d 963b
00000270: 9457 3fbd c4e8 773d 5333 033e 818a 9fbc
00000280: aba6 e63c 3c2d fc3d 4251 443d 0af5 1a3d
00000290: 1aca 8f3c daf8 39bc 93b9 71be 47d4 1dbe
000002a0: eb89 2bbe 4cf6 823d 9a9b 953d 3dc4 edbd
000002b0: 69f5 503c 3dd4 a73d 61c4 093e 7ad6 b1bd
000002c0: bf6f 0a3d f1f8 2cbe 6a6c 3dbd bf05 9bbe
000002d0: 7307 15be 7c3c 89bd 564d 8d3e fd01 053d
000002e0: 70f4 1cbd 9b33 b6bd 8ada 0cbd 1e46 1bbe
000002f0: d0bf 5f3e 4b41 4ebd af81 b03e 80a0 663e
00000300: 826f d83d 46dd 133e 7090 9ebd cef6 0bbe
00000310: cdca 56bb 08ea 0fbe e9e3 073c 214e 393e
00000320: 4832 fcbc ada0 a63d 1631 a7bd 2595 fabd
00000330: 85ca a5bd 96c5 17be 94ee 583d d7f9 9d3d
00000340: 49bc 17bc 0c05 93bd e31f 94bd 975e a7bb
00000350: 9865 a7bd 3d73 eb3d c1b5 27bd 35bc 003c
00000360: d922 833e 0fff e93b 57de 2e3c e515 81be
00000370: 1386 a1bd b959 463d 7d32 8bbd 9e98 bf3c
00000380: deb3 ca3d c53b 2d3d 13a5 9fbd 1114 bc3d
00000390: 4679 ed3c 356e 09bc 35fe fbbd 11b1 d83d
000003a0: 5cec ce3d d6c7 193d 8327 abbd 4018 3abd
000003b0: 57cc bd3d 07dc 8fbd 8e05 833e c243 98be
000003c0: f2b1 453e 7ecf b23e b770 ce3c c749 afbb
000003d0: bda8 113f 0677 dc3d c548 5f3e 9f2d d23d
000003e0: 44be 46be 70de 53bd b649 553e bb6e b6bd
000003f0: 6ca2 25bd 8ebf acbd 597c 283c 4a1d 503d

lin1.bias f4 [64]
0.057863213 -6.1236777e-10 0.067246005 0.035220142 0.07068444 0.059933096 0.061009273 0.037657376
0.07147042 -1.3568041e-10 0.036984727 0.045509942 0.036848478 0.037054922 0.058549814 0.056142796
-4.4200013e-05 0.050104953 0.06516351 -4.7357744e-06 0.05263591 0.036995854 0.054691195 0.059062738
0.058639098 0.06466494 0.02645736 0.039023157 0.056571636 0.06972134 0.053702105 0.031062938
0.05383048 0.07002815 0.036382575 0.051835593 0.17989318 0.07526382 0.03858578 0.05874473
0.06658556 0.06523792 0.059486583 0.051054575 0.04996277 0.054387975 0.055276267 0.07064945
0.051869676 0.060523722 0.06688679 0.07021353 -0.0041976906 0.054181147 0.057921864 0.115110435
0.0432026 0.050393 0.056701828 0.0714654 0.06919703 0.050372045 0.0760175 0.06361857
00000000: fa01 6d3d 8d53 28b0 46b8 893d ff42 103d
00000010: 01c3 903d 687c 753d dce4 793d 9f3e 1a3d
00000020: 155f 923d a42e 15af 4c7d 173d a268 3a3d
00000030: 6eee 163d e7c6 173d eed1 6f3d fdf5 653d
00000040: 6763 39b8 da3a 4d3d 7274 853d fee7 9eb6
00000050: c198 573d f788 173d e003 603d c5eb 713d
00000060: 8d2f 703d 0d6f 843d 1bbd d83c bfd6 1f3d
00000070: a9b7 673d 10ca 8e3d bdf6 5b3d b477 fe3c
00000080: 597d 5c3d eb6a 8f3d e505 153d 8f51 543d
00000090: eb35 383e eb23 9a3d 1f0c 1e3d 509e 703d
000000a0: 035e 883d 759b 853d 34a8 733d 9a1e 513d
000000b0: c3a5 4c3d edc5 5e3d 5e69 623d a9b0 903d
000000c0: 4c75 543d b9e7 773d f1fb 883d 1ccc 8f3d
000000d0: c88c 89bb 0ded 5d3d 7a3f 6d3d 05bf eb3d
000000e0: 36f5 303d e468 4e3d 2d40 683d 745c 923d
000000f0: 2cb7 8d3d eb52 4e3d 10af 9b3d 744a 823d

lin2.weight f4 [8, 64]
-1.0840924 -3.296456e-10 1.1996118 1.171066 0.96154904 -0.9871702 -1.1404302 1.2147114
1.2106527 1.1705936e-11 1.0604476 -0.35843262 -1.1793722 -1.0670813 -1.0090599 -1.3040196
-1.5909313e-06 -1.1846848 -0.6018256 -5.526614e-06 1.2803959 1.2372775 0.89462155 -0.8817942
0.8128641 -1.0315259 1.1967299 -1.1998734 -1.0259256 1.2055105 0.9244958 1.2103492
0.9202092 -0.4995255 -1.1658633 1.1580682 -0.6290369 -1.202369 1.2245926 -1.2494084
1.1485415 -1.0568147 -1.0209156 1.2646674 -0.9463869 0.90623647 1.1053376 -1.1448511
0.90388054 -0.957323 -1.2024686 -0.9968021 -0.00039559792 1.0563363 -0.9903889 -0.16576566
-1.1260408 0.9698415 -1.2753739 1.1113632 1.0713696 0.9043702 -1.2430378 -0.95419747
-1.2168361 5.591462e-10 0.8444113 -1.2234013 0.55409974 -0.7786447 -1.2712331 -1.3214893
0.8103911 -3.0390253e-11 -1.5014503 -1.1974248 -1.4020364 -1.0880136 -0.16406438 -0.67011774
1.1528575e-05 -1.2312063 1.1045328 -4.9902656e-06 -0.8028697 -0.17128961 0.9323435 0.775144
1.028729 1.0287186 -1.4261346 -0.79906154 -1.2290251 0.8150987 -0.06684683 -1.4472384
0.0934253 1.2476474 -1.1783584 1.2957162 -0.14869653 0.91938674 -1.4264781 1.2227219
0.6311071 -1.0929363 -0.29764482 -1.4616519 -0.2770175 0.9012997 0.7502506 0.61358595
0.8573735 0.8447364 0.7448277 0.8886236 -0.00090402865 1.1037272 -1.1725818 -0.20750266
-1.157198 -0.2886467 1.1566757 1.0654048 0.9553286 0.94148725 0.10363192 0.24320321
-1.2695936 -1.4226474e-10 0.8983986 1.2484878 1.0529176 0.91869074 1.0583124 -1.026643
-1.3428098 -1.4402756e-12 -1.2525527 -1.1291227 0.22667794 1.2500108 1.1336235 -1.2786907
4.7844114e-06 1.145659 -1.2407323 -1.0452011e-06 -1.3492235 -1.1108838 1.156984 -0.45518926
-1.1928166 -1.2045089 -1.153494 -1.2087249 1.2715435 1.1361153 -1.1404803 -1.1484803
-1.2865876 -1.177783 -1.0369883 -1.0879403 0.12838043 -1.3374447 -1.069227 -0.9806254
-1.1097486 1.1857395 0.99777544 1.2271183 0.797759 1.0731775 -1.1922944 0.5033247
-1.269034 -1.0738752 0.8821592 1.0657076 -0.00037614745 -1.0566663 -1.2317865 0.18585773
1.316068 1.2333654 -1.1413909 -1.2565103 -1.3443557 1.232608 1.0313205 -1.17738
1.0896691 -9.4621e-11 1.169504 -1.341232 0.92467797 0.88729405 0.7283651 -1.0497968
1.3488437 3.1211082e-12 -1.1121893 -1.1388451 -1.3256443 -1.3163341 0.98841757 -1.3632963
-1.5158428e-05 -1.3574209 0.8916287 -4.518758e-06 1.3426051 -1.1519332 -1.3628265 -0.514318
-1.319523 1.0741838 -1.2507809 -1.3587942 0.8661054 1.1580472 -0.9731233 -1.229504
-1.1139448 0.9579165 -1.3273505 -0.8266489 -0.07188658 0.92249465 -1.0265214 -1.3077217
0.91809964 1.2458916 0.20203665 0.35801074 0.76671666 -1.1978577 -0.91113836 0.019367084
-1.2822939 -1.2663016 -0.004254901 0.7199403 -0.00013016048 -0.53949773 1.1825182 0.1710028
-1.3849496 -1.2149633 -1.4896483 1.2015753 1.0922564 -1.3741192 0.4848634 0.66556734
00000000: 8ac3 8abf 7e39 b5af e18c 993f 7ee5 953f
00000010: 1428 763f 30b7 7cbf 9ef9 91bf aa7b 9b3f
00000020: abf6 9a3f d9ee 4d2d bfbc 873f 7b84 b7be
00000030: abf5 96bf 1f96 88bf e028 81bf 1dea a6bf
00000040: fc87 d5b5 c0a3 97bf 3e11 1abf 4171 b9b6
00000050: 03e4 a33f 1c5f 9e3f eb05 653f 44bd 61bf
00000060: dd17 503f 0a09 84bf 722e 993f 7495 99bf
00000070: 8851 83bf 2b4e 9a3f c2ab 6c3f b9ec 9a3f
00000080: d592 6b3f cec1 ffbe 023b 95bf 943b 943f
00000090: 9008 21bf 3ae7 99bf 73bf 9c3f 9dec 9fbf
000000a0: 6803 933f b445 87bf 5dad 82bf 9fe0 a13f
000000b0: 6946 72bf 1dff 673f b47b 8d3f 7b8a 92bf
000000c0: b764 673f 1f13 75bf 7eea 99bf 6c2e 7fbf
000000d0: 4168 cfb9 0736 873f 208a 7dbf 79be 29be
000000e0: 1b22 90bf 8847 783f 743f a3bf 2641 8e3f
000000f0: a422 893f ce84 673f dd1b 9fbf 4946 74bf
00000100: 49c1 9bbf 6ab2 1930 572b 583f 6a98 9cbf
00000110: 7bd9 0d3f 4255 47bf c4b7 a2bf 9026 a9bf
00000120: cb75 4f3f 62a8 05ae 862f c0bf 3745 99bf
00000130: ee75 b3bf 0844 8bbf 7e00 28be d68c 2bbf
00000140: da6a 4137 2b98 9dbf 5561 8d3f 0e72 a7b6
00000150: de88 4dbf 8b66 2fbe 10ae 6e3f d66f 463f
00000160: 64ad 833f 0dad 833f 948b b6bf 4c8f 4cbf
00000170: b250 9dbf 4faa 503f fee6 88bd 1c3f b9bf
00000180: c455 bf3d e9b2 9f3f 73d4 96bf 07da a53f
00000190: e743 18be ee5c 6b3f d696 b6bf 2782 9c3f
000001a0: 3c90 213f 56e5 8bbf e764 98be 6917 bbbf
000001b0: 3dd5 8dbe 94bb 663f 6c10 403f f813 1d3f
000001c0: d47c 5b3f a540 583f 07ad 3e3f d67c 633f
000001d0: 56fc 6cba ef46 8d3f 2917 96bf 947b 54be
000001e0: 101f 94bf 80c9 93be f30d 943f 2f5f 883f
000001f0: 6a90 743f 4f05 713f f93c d43d 430a 793e
00000200: 0b82 a2bf f76b 1caf 73fd 653f 73ce 9f3f
00000210: 01c6 863f 512f 6b3f c876 873f 0a69 83bf
00000220: 31e1 abbf 66b3 caab a653 a0bf 1887 90bf
00000230: 431e 683e 5b00 a03f 931a 913f 23ac a3bf
00000240: c889 a036 f4a4 923f 51d0 9ebf d648 8cb5
00000250: 5bb3 acbf 7131 8ebf 0d18 943f 910e e9be
00000260: 37ae 98bf 592d 9abf b1a5 93bf 7fb7 9abf
00000270: f0c1 a23f 3a6c 913f 42fb 91bf 6701 93bf
00000280: e7ae a4bf 98c1 96bf 08bc 84bf a141 8bbf
00000290: 2976 033e 6331 abbf 6edc 88bf 440a 7bbf
000002a0: 3e0c 8ebf 50c6 973f 366e 7f3f 3612 9d3f
000002b0: ef39 4c3f e15d 893f 1a9d 98bf e3d9 003f
000002c0: b56f a2bf be74 89bf 2fd5 613f 1b69 883f
000002d0: a835 c5b9 d740 87bf 2eab 9dbf 7d51 3e3e
000002e0: eb74 a83f ebde 9d3f 1919 92bf 54d5 a0bf
000002f0: d913 acbf 19c6 9d3f 4f02 843f 63b4 96bf
00000300: 477a 8b3f e312 d0ae 4fb2 953f 7dad abbf
00000310: b2b7 6c3f b425 633f 2376 3a3f be5f 86bf
00000320: e9a6 ac3f e3a0 5b2c 385c 8ebf adc5 91bf
00000330: b6ae a9bf a37d a8bf ef08 7d3f 7e80 aebf
00000340: f450 7eb7 f8bf adbf c741 643f d69f 97b6
00000350: 7cda ab3f 8c72 93bf 1971 aebf 58aa 03bf
00000360: 21e6 a8bf db7e 893f 9719 a0bf f8ec adbf
00000370: 15b9 5d3f e43a 943f 9c1e 79bf 6360 9dbf
00000380: be95 8ebf 043a 753f 9fe6 a9bf 439f 53bf
00000390: 4539 93bd 9c28 6c3f 0e65 83bf 6d63 a7bf
000003a0: 9408 6b3f 6079 9f3f b2e2 4e3e 2f4d b73e
000003b0: 8b47 443f 6753 99bf 5d40 69bf b8a7 9e3c
000003c0: 3522 a4bf 2c16 a2bf b26c 8bbb 024e 383f
000003d0: b07b 08b9 861c 0abf c25c 973f 5c1b 2f3e
000003e0: 0746 b1bf eb83 9bbf ccac bebf 38cd 993f
000003f0: 0fcf 8b3f 23e3 afbf 0440 f83e 9f62 2a3f

lin2.bias f4 [8]
-0.4805472 -0.19611868 0.041103374 0.02583214 -0.2744627 -0.24849214 -0.31288847 -0.087608695
00000000: 480a f6be 56d3 48be 035c 283d ed9d d33c
00000010: 6086 8cbe b974 7ebe eb32 a0be 306c b3bd

prop1.temp f4 [11]
2.6801577 2.710817 2.4696555 -0.0128063755 -0.017344793 -0.014690674 -0.009584737 0.20032042
1.3136445 2.0480022 0.454971
00000000: b487 2b40 077e 2d40 d60e 1e40 d5d1 51bc
00000010: ab16 8ebc 27b1 70bc 4d09 1dbc cc20 4d3e
00000020: 8125 a83f 7812 0340 f5f1 e83e
