save_parameters/BernNet_model_0324_1028.pt (torch, 599324 bytes, 5 tensors)

lin1.weight f4 [64, 2325]
0	0x3b05446a	0.0020334967
1	0x3b5009f9	0.0031744225
2	0xba07afb6	-0.0005176024
3	0xbc15af5c	-0.009136047
4	0xbb5feabe	-0.0034167017
5	0xbae47813	-0.0017430804
6	0xbafc689a	-0.0019257248
7	0xba5f1baf	-0.00085109
8	0xbaa91346	-0.0012899421
9	0x3af80f8a	0.001892553
10	0xbb354e45	-0.002766506
11	0xba9fd07a	-0.0012192868
12	0xbb367f79	-0.0027846976
13	0x3ca2ab28	0.019857004
14	0x39de52cc	0.00042404828
15	0xbb2fa87b	-0.0026803303
16	0xbaf0a6e6	-0.0018360286
17	0xba15edd0	-0.0005719336
18	0xb8a90598	-8.05959e-05
19	0x3c0c2914	0.008554716
20	0xb963cc38	-0.00021724484
21	0xbb375cb1	-0.0027978832
22	0xbc57c63f	-0.013169824
23	0xb9ad6cc0	-0.00033078156
24	0x3ab53b1b	0.0013826819
25	0x3c748f41	0.0149267325
26	0x392f8ed2	0.00016742505
27	0xbad24b76	-0.0016044218
28	0xbbd63c77	-0.0065379697
29	0x3a7eafd8	0.0009715534
30	0x39485fb8	0.00019109144
31	0x3a82708d	0.0009951756
32	0xb9b4fc9b	-0.0003452048
33	0xbbad749e	-0.005293443
34	0xb947b506	-0.00019045555
35	0xbafa23c3	-0.0019084144
36	0xbb21891f	-0.002464838
37	0x3c67a6df	0.014138906
38	0xbaa75ece	-0.0012769343
39	0xba9a8f54	-0.0011791983
40	0x3aa3af84	0.0012488221
41	0xbacd64aa	-0.0015670259
42	0x3a706bb8	0.0009171325
43	0x3c3cb5dd	0.011517969
44	0xbb179e81	-0.0023135247
45	0xbb3ac6fe	-0.0028499956
46	0xbb61a971	-0.003443327
47	0xbc5ca8b1	-0.013467954
48	0x3b135680	0.0022481978
49	0xba62b8ed	-0.0008648772
50	0x3bc6ef94	0.0060710404
51	0xba6812bf	-0.0008852891
52	0x3bf875a5	0.0075823837
53	0xb9942ed0	-0.00028263638
54	0xbaaefe1c	-0.0013350877
55	0xba452ce6	-0.0007521644
56	0xbc18a7cb	-0.009317349
57	0x3aecf28a	0.0018077653
58	0x3ce11fb2	0.027480934
59	0x3b7baa31	0.0038401003
60	0xbb13f29e	-0.002257503
61	0x3ae55cee	0.0017499009
62	0xbb142d65	-0.0022610065
63	0x3b145388	0.0022632796
64	0xba339626	-0.0006850682
65	0xb9b952dd	-0.00035347688
66	0xba866474	-0.0010253326
67	0x3983e5dc	0.00025157526
68	0x3a04a0ed	0.000505938
69	0x3c23ea45	0.010004585
70	0x399da7af	0.00030070308
71	0x389ac168	7.379317e-05
72	0x3b841365	0.0040306323
73	0x3cc86447	0.024461878
74	0x3ce2c455	0.027681509
75	0x37f42d30	2.9108109e-05
76	0xbb3098e1	-0.0026946592
77	0xbb1714cc	-0.0023053167
78	0x3a364dc2	0.0006954336
79	0x3b30279c	0.0026879078
80	0xbb785822	-0.0037894328
81	0xbc9aa858	-0.0188791
82	0xba04b0a0	-0.00050617196
83	0x3b8de77a	0.0043305727
84	0x3943762c	0.00018640672
85	0xbc14aa47	-0.0090738
86	0xb9deb094	-0.000424747
87	0xba2dd7a0	-0.0006631557
88	0x3b0f80c8	0.0021896828
89	0xba098902	-0.0005246551
90	0xbae04cd0	-0.0017112736
91	0xbba97f90	-0.0051726773
92	0xb9cf8292	-0.000395794
93	0xba28dc1d	-0.0006441491
94	0xbb48cd2f	-0.0030639877
95	0xba8e684a	-0.0010864821
96	0xbb48c792	-0.0030636531
97	0xba4a8997	-0.0007726191
98	0xbb2e632b	-0.0026609402
99	0x3c3945b2	0.011308121
100	0xbc2e6f73	-0.010646689
101	0xba9b3820	-0.0011842288
102	0xbab145dc	-0.0013524848
103	0xbbbe0d7b	-0.005799947
104	0x3ac370c2	0.0014910924
105	0x3c69957d	0.014256832
106	0x3af4be81	0.0018672497
107	0xb92b5578	-0.0001633967
108	0x3c5221c2	0.012825431
109	0x3a8fe5b3	0.001097849
110	0x3aa28e78	0.0012402078
111	0x3a0a95bf	0.0005286596
112	0x3b582da0	0.003298618
113	0xbb42d1ff	-0.0029727218
114	0xb8a6584b	-7.931943e-05
115	0x3a99d90e	0.0011737661
116	0xb964ae74	-0.00021808763
117	0xb9b710ce	-0.00034917
118	0x3adbe432	0.0016776382
119	0xbc6b713e	-0.014370261
120	0xbbb7cbbf	-0.005609005
121	0xbafcf29c	-0.0019298377
122	0x3c111451	0.008854941
123	0x3c00de72	0.007865535
124	0xbbda377a	-0.0066594454
125	0xbb796604	-0.003805519
126	0xba44c47e	-0.0007506086
127	0x37b3c428	2.1429805e-05
128	0x3b214b56	0.0024611554
129	0x3ae47f80	0.0017433017
130	0x3b54d14d	0.0032473386
131	0xb9894445	-0.0002618154
132	0x3a9b13b5	0.0011831435
133	0x3ba0bfba	0.004905668
134	0x3a6f1c45	0.0009121339
135	0xbb0aa65e	-0.0021156291
136	0x3a8e3bc6	0.0010851554
137	0x39c7eab5	0.00038131108
138	0xb9de74ea	-0.00042430247
139	0xbab07370	-0.0013462137
140	0x39880aa3	0.00025947866
141	0xb95e8ef5	-0.00021224825
142	0x3c75bd8a	0.014998803
143	0x3b21a00b	0.0024662043
144	0x3a89024a	0.0010452953
145	0xba20fd9f	-0.0006141308
146	0x3c5f70e8	0.013637759
147	0xb91d1486	-0.00014980332
148	0x3acd6ee8	0.0015673311
149	0x3b6e88ef	0.0036397537
150	0xbb8b63b7	-0.0042538303
151	0x3a7870c3	0.0009477252
152	0xbae4cb78	-0.0017455658
153	0xbb9fb111	-0.004873403
154	0xbb55f6a9	-0.0032648242
155	0xba5e1684	-0.0008471983
156	0x3b0f51a2	0.0021868725
157	0x3aaff7aa	0.001342525
158	0x3a3a2468	0.0007100762
159	0xbad9e242	-0.0016623216
160	0x39a5d69a	0.00031631143
161	0xba82458e	-0.0009938942
162	0xb9f9ae7e	-0.00047622988
163	0xbc417ac2	-0.011809053
164	0x3bac3a5b	0.00525598
165	0x3a31f20e	0.0006788083
166	0x3a3df709	0.0007246589
167	0x3cde8d9f	0.02716714
168	0xba871511	-0.0010305961
169	0x3a8565f6	0.0010177481
170	0xba22e21e	-0.00062135037
171	0x3a1e2ef4	0.0006034218
172	0x3ade427c	0.001695707
173	0xbac67f5d	-0.0015144158
174	0x3ad09283	0.0015912805
175	0xba480fc4	-0.0007631744
176	0x3b61718a	0.003439995
177	0x3c504205	0.012711053
178	0x3c97862e	0.018496599
179	0x3b444db3	0.002995354
180	0xbb2d0379	-0.0026399775
181	0xbaa28490	-0.0012399126
182	0x3af9bed5	0.0019054065
183	0xbaf19510	-0.0018431265
184	0xba8789c2	-0.0010340738
185	0xb8c9dcfb	-9.625588e-05
186	0x3b862916	0.0040942533
187	0xba64163f	-0.00087008247
188	0x3b8bef72	0.0042704875
189	0x3aa09aa3	0.0012253117
190	0xbb9b283e	-0.004735022
191	0xbb640ff6	-0.0034799553
192	0x3adab6d0	0.0016686562
193	0x3ca4d57e	0.020121332
194	0xbb368054	-0.0027847486
195	0xb88b6a10	-6.647792e-05
196	0x3b217f57	0.002464255
197	0xbad635f8	-0.0016342988
198	0xb79af100	-1.8470455e-05
199	0xbc39fedf	-0.01135227
200	0x3b7e7867	0.003882909
201	0xbbb3a5c5	-0.0054824078
202	0x3ccd5f80	0.025069952
203	0x3b20ebbc	0.002455457
204	0x3c613d33	0.013747501
205	0xbc71d4b3	-0.014760184
206	0x3cc4a449	0.024004119
207	0xbb108ba8	-0.0022055898
208	0x3a308db1	0.0006734981
209	0xba9c065e	-0.0011903753
210	0xbc34a9a1	-0.011026771
211	0x3a9e5b8c	0.0012081726
212	0x37492e40	1.1991302e-05
213	0x3c6d3c9b	0.0144797815
214	0xb8d095b2	-9.946096e-05
215	0x3ca335c4	0.019923098
216	0x3b173752	0.0023073745
217	0xbb21d99f	-0.0024696363
218	0x39450672	0.00018789785
219	0xba8d4f2e	-0.0010781044
220	0xbad89a13	-0.001652541
221	0x39eecdd4	0.0004554825
222	0xba900ec7	-0.0010990732
223	0xbb00e4f1	-0.001966771
224	0x3c9043e1	0.017610492
225	0xbb1516bd	-0.0022749149
226	0xb9d31beb	-0.00040265857
227	0xba56f03d	-0.00081992504
228	0x39855082	0.0002542772
229	0x3b05e0f9	0.0020428284
230	0x394ce32a	0.00019539581
231	0x39b863e8	0.0003516965
232	0x3a0c890e	0.0005360999
233	0xbace25f7	-0.0015727867
234	0x39bfb972	0.00036568526
235	0x3a640e9a	0.00086996856
236	0x391cf3cf	0.00014968145
237	0xb9e61be6	-0.00043889805
238	0x3cd9e39b	0.026597789
239	0xbb31c1e8	-0.0027123634
240	0x3ce80972	0.028324816
241	0xbb6bb35c	-0.003596506
242	0xba2cb617	-0.0006588413
243	0xbcbb1a8c	-0.022839807
244	0x3b3d7e00	0.0028914213
245	0xbb5e325a	-0.0033904524
246	0x39cfdf45	0.00039648465
247	0x3ca45266	0.020058822
248	0x3b74bbf0	0.0037343465
249	0xb7d9de20	-2.597185e-05
250	0xbc1c4925	-0.009538923
251	0xbaca4283	-0.0015431199
252	0x3a6a6a62	0.0008942244
253	0xb93d366c	-0.00018044718
254	0xba8efe4d	-0.0010909528
255	0x3c90a296	0.017655652

lin1.bias f4 [64]
0	0x3c8150bc	0.015785567
1	0x3d20a89a	0.03922329
2	0xbc41adf4	-0.011821259
3	0x3cff1358	0.031137154
4	0x3cb48e31	0.022040458
5	0x3c28fbf6	0.010313978
6	0xbbd950a2	-0.0066319266
7	0xbc54feab	-0.013000171
8	0x3c9a82a0	0.018861115
9	0x3c828563	0.015932744
10	0x3d08ef83	0.03343154
11	0x3c7ca467	0.015420056
12	0x3ac56bf0	0.0015062075
13	0xbc78f8f1	-0.015196071
14	0x3cc851a6	0.024452996
15	0xbc165a8a	-0.00917686
16	0x3ccde23d	0.025132293
17	0x3c42b7e3	0.011884662
18	0x3d1bd540	0.038045168
19	0x3c510ae7	0.012758947
20	0xbcabf669	-0.020991521
21	0x3cf5d430	0.030008405
22	0xba83150a	-0.0010000777
23	0x3c5ce43a	0.013482148
24	0x3bb553c2	0.0055336663
25	0x3c8b9b96	0.017041963
26	0x3c99f2dd	0.018792564
27	0x3ca8fce6	0.020628404
28	0xbc4918fc	-0.012274023
29	0x3cb1e7c4	0.02171696
30	0xbca50aee	-0.020146813
31	0xbbc71420	-0.006075397
32	0x3cd7828e	0.02630737
33	0xbca4c648	-0.02011408
34	0x3a842e38	0.0010084575
35	0xb904844f	-0.0001263779
36	0xbb70899f	-0.0036703122
37	0x3bed79ba	0.007247177
38	0xbce02097	-0.02735929
39	0x3d08892d	0.033333946
40	0x3bbb27de	0.0057115396
41	0xbcdc017f	-0.026856182
42	0x3d1409ad	0.03614204
43	0x3b632caa	0.0034664073
44	0x3c659c90	0.014014378
45	0x3ca20490	0.019777566
46	0x3bf4abd6	0.0074667735
47	0x3c950ef0	0.0181956
48	0x3cb49fdb	0.022048881
49	0x3ab660d6	0.0013914357
50	0x3d0637cf	0.032768067
51	0x3abb5dd4	0.0014294931
52	0x3ceb68a4	0.02873642
53	0x3c96162d	0.018321121
54	0xbcce5b26	-0.025189947
55	0xbcbdbc99	-0.02316122
56	0x3b60395e	0.003421388
57	0x3c7f3bec	0.015578251
58	0x3c26da93	0.010183948
59	0x3d1862c4	0.037203565
60	0x3bf9df13	0.0076254695
61	0x3cab2fc8	0.020896807
62	0xbcc3633f	-0.023851035
63	0xbc3879bc	-0.0112594925

lin2.weight f4 [5, 64]
0	0xbdac1bdd	-0.08403752
1	0xbe1ce1b4	-0.15320474
2	0xbccc0cef	-0.024908511
3	0x3c1fbc6f	0.009749516
4	0x3d2b60ca	0.041840352
5	0xbd43f88f	-0.047844466
6	0x3d538cde	0.051648013
7	0xbd8ff5d9	-0.070293136
8	0x3d8d90dd	0.06912396
9	0xbadb6027	-0.001673703
10	0x3d98af4d	0.07455311
11	0xbd035eb0	-0.032072723
12	0x3d4863ea	0.04892341
13	0xbd1cd57d	-0.038289536
14	0xbd915862	-0.07096936
15	0xbca6abba	-0.020345557
16	0xbd044376	-0.0322909
17	0x3dc48b26	0.09596853
18	0xbe0f4820	-0.13992357
19	0x3da0406f	0.0782479
20	0xbd658eec	-0.056044504
21	0xbd98d0b9	-0.07461686
22	0x3d0c258a	0.034215488
23	0xbb733bf6	-0.0037114597
24	0xbd6bf840	-0.057609797
25	0xbd5c87ef	-0.053840574
26	0xbd5e9383	-0.054339897
27	0xbe0cdf4a	-0.13757053
28	0xbdce42c1	-0.10071326
29	0xbe035678	-0.12825954
30	0xbcd57f00	-0.026061535
31	0x3d5c2904	0.053750053
32	0x3dc364ec	0.09540734
33	0xbdf3ddc5	-0.119075336
34	0xbdb60c3b	-0.088890515
35	0x3e0a38c5	0.13498218
36	0x3cee8bf0	0.029119462
37	0x3d90d5d6	0.07072036
38	0xbc4eeb2e	-0.012629313
39	0xbd84316c	-0.06454739
40	0xbc9901e9	-0.018677669
41	0xbb67c74d	-0.0035366595
42	0xbdc9683b	-0.098343335
43	0x3df650d7	0.12027138
44	0xbde18491	-0.11011613
45	0xbc8a8962	-0.016911212
46	0xbd874ddc	-0.06606647
47	0xbcf7f18e	-0.03026655
48	0xbe084eda	-0.1331133
49	0xbded695c	-0.11592361
50	0xbdcb37c7	-0.09922748
51	0x3cf60e78	0.030036196
52	0x3da9da3c	0.08293578
53	0x3d80ac1d	0.06282828
54	0xbbc0b9cb	-0.0058815232
55	0x3d551cfa	0.052029587
56	0x3d5e4ef5	0.054274518
57	0x3d3be444	0.045871988
58	0xbcb55bcf	-0.022138504
59	0xbd8e5a49	-0.06950814
60	0x3dee81c6	0.11645846
61	0xbd764971	-0.060128633
62	0x3d978935	0.07399217
63	0x3cefcd14	0.029272594
64	0xbdf09ad5	-0.11748282
65	0x3d5accd6	0.053418003
66	0x3c6fa9f0	0.014627919
67	0xbdcd6f4e	-0.10030995
68	0xbd2be8db	-0.041970115
69	0xbd10588c	-0.035240695
70	0xbd882954	-0.06648508
71	0x3dc3dacd	0.09563217
72	0x3dc968fd	0.09834478
73	0x3deeefdd	0.11666844
74	0x3cecc3ad	0.0289019
75	0x3d474acd	0.04865532
76	0xbe18d22f	-0.14923929
77	0x3de37a78	0.111073434
78	0xbb644491	-0.0034830908
79	0xbd5aacb1	-0.053387348
80	0xbe0b69d6	-0.13614592
81	0xbd909a61	-0.070606954
82	0xbd7d9910	-0.06191355
83	0xbdcbc653	-0.09949937
84	0x3c069dcb	0.008216332
85	0xbd75d1f8	-0.060014695
86	0xbd9c9ef2	-0.07647504
87	0xbda5529e	-0.080723986
88	0x3d16298a	0.03666071
89	0x3e21684c	0.15762442
90	0xbcbfccc7	-0.023413075
91	0x3c0732f1	0.0082518915
92	0xbdac3d0f	-0.084100835
93	0x3d85ac45	0.065269984
94	0xbd5b45bd	-0.053533304
95	0x3d76dc24	0.060268536
96	0xbd9ff544	-0.078104526
97	0xbda756c8	-0.08170849
98	0x3dfce58b	0.12348469
99	0xbdb03c9d	-0.08605311
100	0x3d89d715	0.06730477
101	0x3c3ea012	0.011634843
102	0x3d61a8db	0.055092674
103	0x3e04ce72	0.12969378
104	0x3c56b9c0	0.01310581
105	0xba8aee7a	-0.0010599636
106	0x3c66dd70	0.014090881
107	0x3d578ab9	0.05262253
108	0x3e0ff8f5	0.14059813
109	0xbd4f7d51	-0.05065662
110	0xbd98775c	-0.07444641
111	0xbc5fd211	-0.013660924
112	0xbd41acc9	-0.04728392
113	0x3ddb2fef	0.10702502
114	0xbe0b6584	-0.13612944
115	0x3d8c5be2	0.06853463
116	0x3e0e52dc	0.13898796
117	0xbdae1e4d	-0.08501873
118	0xbc8aae0f	-0.0169287
119	0x3d292813	0.041297983
120	0x3dc93c50	0.09825957
121	0xbdf22a53	-0.11824479
122	0x3d98b8fa	0.074571565
123	0x3cfe99c0	0.031079173
124	0xbe00840a	-0.12550369
125	0x3d9371c0	0.071994305
126	0x3cf115f3	0.029429412
127	0xbcb82aa0	-0.022481263
128	0x3d8fa062	0.070130125
129	0x3db67a04	0.089099914
130	0xbcaae00e	-0.02085879
131	0xbc57fd90	-0.013183013
132	0x3e08ca99	0.13358535
133	0x3cbd8042	0.023132447
134	0xbd9d071e	-0.07667373
135	0xbd866b88	-0.06563479
136	0x3dec8b27	0.11549979
137	0xbd22f65f	-0.03978574
138	0xbd739407	-0.05946734
139	0x3ddfa97a	0.10920997
140	0xbe1c1b4e	-0.15244791
141	0xbdb27a19	-0.087146945
142	0xbdf47722	-0.11936785
143	0x3d92714f	0.07150518
144	0xbdc6387d	-0.09678743
145	0xbcc6aee3	-0.024253314
146	0x3db5b571	0.08872498
147	0x3cdcafc6	0.026939284
148	0xbde379ed	-0.1110724
149	0x3defb9aa	0.117053345
150	0x3d5bfc37	0.053707328
151	0x3e04a81c	0.12954754
152	0x3c2c0c0d	0.01050092
153	0x3b7173bb	0.0036842662
154	0xbe11b513	-0.1422923
155	0x3d7c3770	0.061576307
156	0x3dd4f08d	0.10397444
157	0x3da4be95	0.08044163
158	0xbca0b07e	-0.019615408
159	0x3d0bd35c	0.034137115
160	0x3de79929	0.1130851
161	0xbd965c30	-0.07341802
162	0xbdec0321	-0.11524034
163	0xbdc21bba	-0.09477945
164	0xbdb988d8	-0.09059304
165	0xbdbb3325	-0.091406144
166	0x3d88440f	0.06653606
167	0x3d227f8a	0.039672412
168	0xbe076d7f	-0.13225363
169	0x3b86dfa6	0.0041160164
170	0xbdeadde5	-0.11468104
171	0x3db38dbc	0.08767268
172	0xbd19bc96	-0.037533365
173	0x3da2237c	0.07916924
174	0x3d6b697d	0.05747365
175	0xbdcc3a54	-0.09972063
176	0xbda296d5	-0.07938925
177	0x3d905c83	0.07048895
178	0xbc0eacb2	-0.008708166
179	0xbde37e1f	-0.1110804
180	0xbe0095bb	-0.12557118
181	0x3de4534a	0.11148699
182	0x3ca2fa21	0.019894661
183	0x3cd75186	0.02628399
184	0x3d9fafe0	0.07797217
185	0xbd8b82c0	-0.06812048
186	0xbde0e0af	-0.10980355
187	0x3ccec997	0.02524261
188	0xbbde318a	-0.006780808
189	0xbd9e2e15	-0.07723633
190	0x3c68d43c	0.014210757
191	0x3d3c2dd8	0.045942158
192	0xbb09e1e9	-0.0021039194
193	0x3da15137	0.078768186
194	0xbdcf4179	-0.1011991
195	0x3cc33e24	0.023833342
196	0x3de05a21	0.10954691
197	0x3cb3351b	0.021875909
198	0x3ca01330	0.0195404
199	0x3d8c30e1	0.068452604
200	0x3e034d0e	0.12822363
201	0x3e067083	0.13128857
202	0x3e03d951	0.12875868
203	0xbcea66a7	-0.028613402
204	0xbd9f3faa	-0.07775815
205	0xbd05bdac	-0.03265159
206	0x3e0aebec	0.1356656
207	0xbcb39d91	-0.02192572
208	0x3df20e6a	0.118191555
209	0xbd903f1d	-0.07043288
210	0x3c7bc61e	0.015367059
211	0xbd981f91	-0.07427896
212	0xbdbeb10e	-0.09311114
213	0x3e12805f	0.14306782
214	0xbd85d8dc	-0.06535503
215	0xbdaca804	-0.08430484
216	0xbe09b95f	-0.1344962
217	0xbdbc4d25	-0.09194402
218	0x3d98d723	0.07462909
219	0x3d80c25e	0.062870726
220	0x3d5a0009	0.05322269
221	0xbd792917	-0.060830202
222	0x3cf9354f	0.030420927
223	0xbd502066	-0.050812148
224	0x3df2f4b6	0.11863081
225	0xbd6a0b21	-0.05713952
226	0xbd5cb6b4	-0.053885177
227	0x3da664b1	0.08124674
228	0xbcfa7ae9	-0.030576186
229	0xbd81de4b	-0.06341227
230	0xbb2a6b4a	-0.002600389
231	0x3e18f58b	0.14937417
232	0xbde58c72	-0.112084284
233	0x3d621bd8	0.055202335
234	0x3dc08aa5	0.09401444
235	0xbc59602e	-0.01326756
236	0xbde531f3	-0.11191168
237	0x3d84ce82	0.06484701
238	0xbd6fc223	-0.058534753
239	0xbda6f122	-0.08151461
240	0x3e04b467	0.12959443
241	0xbd76b4c4	-0.060230985
242	0x3e1de4e4	0.15419346
243	0xbd98b4da	-0.0745637
244	0x3dadd4e4	0.08487871
245	0xbe01253a	-0.12611857
246	0x3cf14b55	0.029454866
247	0xbbc97417	-0.006147872
248	0x3b35efd2	0.0027761352
249	0x3dfd3c71	0.12365044
250	0xbde46586	-0.111521766
251	0x3da7b05d	0.081879355
252	0x3b24fd26	0.0025175302
253	0xbd343d77	-0.04400393
254	0xbd7b1f1b	-0.06130896
255	0xbdb153a5	-0.08658532

lin2.bias f4 [5]
0	0x3d47f495	0.048817236
1	0x3d3d1edb	0.046172004
2	0x3d3687d7	0.04456314
3	0xbd9c3abe	-0.07628392
4	0x3cf924d0	0.030413061

prop1.temp f4 [11]
0	0x3f765e80	0.96237946
1	0x3f790ed8	0.97288275
2	0x3f7a363a	0.97738993
3	0x3f815a74	1.0105729
4	0x3f82cdd3	1.0219063
5	0x3f82f96f	1.0232371
6	0x3f827490	1.0191822
7	0x3f803a51	1.0017797
8	0x3f776b67	0.9664826
9	0x3f74c1f2	0.9560844
10	0x3f7462e5	0.954634
