save_parameters/BernNet_model_0324_1041.pt (torch, 599324 bytes, 5 tensors)

lin1.weight f4 [64, 2325]
0	0x3c431f10	0.011909261
1	0xbc79f416	-0.0152559485
2	0xba5f0600	-0.0008507669
3	0xbb394b14	-0.002827351
4	0xbc3af4aa	-0.0114108715
5	0x3cc68642	0.024233941
6	0x3b0a862d	0.0021137104
7	0xbc1e84eb	-0.009675245
8	0xbcd677c6	-0.02618016
9	0x3c85eeeb	0.016349277
10	0xbab10274	-0.0013504759
11	0x3a878aa0	0.0010340996
12	0x3a8eb5e1	0.0010887944
13	0xbc492326	-0.012276446
14	0xba301b0d	-0.0006717898
15	0x3c7909e3	0.015200111
16	0x38b8ae38	8.8062545e-05
17	0x3afb5366	0.0019174635
18	0x3c4f53c9	0.012654253
19	0x3c73b815	0.014875432
20	0xba49810a	-0.000768677
21	0xbb00f365	-0.0019676324
22	0xbc9f682c	-0.019458853
23	0xb984a333	-0.00025298595
24	0xb9ad74aa	-0.00033084053
25	0xbb8ba20e	-0.004261262
26	0x3ab6f975	0.0013959842
27	0xbb28f637	-0.002578152
28	0xbc1ecb81	-0.009692074
29	0xbb01fe32	-0.001983535
30	0xb8301b76	-4.1987245e-05
31	0xba87a9ec	-0.0010350323
32	0x3cbc99f0	0.023022622
33	0xbc8b6e8d	-0.017020488
34	0x3a82f3e1	0.0009990894
35	0xbcb1869c	-0.021670632
36	0xb7d11040	-2.4922309e-05
37	0x3b1ec291	0.0024224857
38	0x3a0afacf	0.00053016556
39	0x3a99e896	0.001174229
40	0xbb0012de	-0.0019542496
41	0x3b3dbe95	0.0028952707
42	0x3cb7ee99	0.02245264
43	0xbb7c6714	-0.0038513588
44	0xbad73ebf	-0.0016421898
45	0x3be9d5e6	0.0071360944
46	0x3b71c310	0.0036889948
47	0x3a2a9b9b	0.00065081724
48	0xbcc1e351	-0.023667963
49	0x3ba92994	0.005162427
50	0xba9d2906	-0.0011990375
51	0x3a660aef	0.0008775433
52	0xbcdd4825	-0.02701194
53	0x3a53cb18	0.00080792746
54	0x3999b40a	0.00029316574
55	0xb8e0f14c	-0.000107260974
56	0x3ac1f6b1	0.0014798251
57	0xba19a33e	-0.0005860812
58	0xbccb96fd	-0.02485227
59	0x3c9ce2ba	0.01915108
60	0xbabcb5ac	-0.0014397404
61	0x3af272be	0.0018497331
62	0xbadc8325	-0.0016823752
63	0x3ac6607c	0.0015134956
64	0x3b03e487	0.0020125227
65	0x3abb3a2e	0.0014284307
66	0xbcb85ae6	-0.022504281
67	0x3b31e21c	0.0027142828
68	0x3b048260	0.002021931
69	0xba8c72e0	-0.0010715388
70	0xbae32b8b	-0.0017331702
71	0xbaf6e36b	-0.0018836086
72	0x3b0c6c4c	0.0021426855
73	0xbaf45cf1	-0.0018643421
74	0x3c0c5bf7	0.008566848
75	0xbaafd62c	-0.0013415269
76	0xbaca9ab6	-0.0015457484
77	0xbb0c7f0f	-0.0021438038
78	0xbcbd4962	-0.02310628
79	0xba34cf95	-0.0006897387
80	0x3a1f4eca	0.0006077109
81	0x3ab03012	0.001344206
82	0xba97f0ce	-0.0011592151
83	0x3a11ed12	0.0005566637
84	0xbcb893af	-0.022531359
85	0xb9b8334c	-0.00035133434
86	0xba81ad7e	-0.0009893624
87	0x3ab1daba	0.0013569214
88	0xb87bc6e4	-6.0028295e-05
89	0xbd19b80a	-0.03752903
90	0xba96e10f	-0.0011511164
91	0x3c658cd7	0.01401063
92	0x3c2f4537	0.010697654
93	0x3a93213c	0.0011225115
94	0xbc0b27ef	-0.008493408
95	0xbad4e6b0	-0.0016243067
96	0x3c29157b	0.010320063
97	0xba3167c3	-0.0006767476
98	0x38b092f0	8.419703e-05
99	0x39ce1bfa	0.00039312226
100	0xb9cb671d	-0.00038796003
101	0xbcbc2d4d	-0.02297082
102	0x3b0cb816	0.0021472028
103	0x39e36d5a	0.00043378287
104	0x38d86197	0.0001031786
105	0x3c694fc2	0.014240207
106	0x3acfa926	0.0015843257
107	0x3c28254f	0.010262801
108	0x3b36580f	0.0027823483
109	0xba474dd0	-0.00076028425
110	0xba45d142	-0.00075461355
111	0xbb0d9a69	-0.0021606928
112	0x38a8ac48	8.042954e-05
113	0x3a8d5d8e	0.0010785328
114	0x3a79a1b0	0.00095226895
115	0x39db1d41	0.0004179273
116	0xba0a7c09	-0.0005282765
117	0x3b0c11ce	0.0021372917
118	0x3b0d6cc3	0.002157972
119	0x39c29ff3	0.00037121735
120	0xb8fde8c8	-0.00012107339
121	0xbb091355	-0.0020916064
122	0x3b71cc76	0.003689555
123	0x39629178	0.00021607231
124	0x3cc8b242	0.024499062
125	0x3c2b3eb1	0.0104519585
126	0xba9321ec	-0.001122532
127	0x3b14a54e	0.0022681537
128	0x3c662e34	0.014049102
129	0x3c8d4f8f	0.01724985
130	0xba83010a	-0.0009994817
131	0x3c1f9d36	0.009742072
132	0x3ad5f83d	0.0016324591
133	0xbc1274a7	-0.008938945
134	0xbb0cedfd	-0.0021504157
135	0xb981ab1f	-0.00024732293
136	0xba959732	-0.0011412858
137	0x38f1d9f0	0.000115323695
138	0x3ccefc58	0.025266811
139	0xbab08220	-0.0013466515
140	0x399081d3	0.00027562547
141	0x39502b0c	0.00019852462
142	0xbc2589eb	-0.010103683
143	0x3c161054	0.009159166
144	0xb954d0de	-0.00020295705
145	0x3a85e9bf	0.0010216756
146	0x39d49951	0.0004055002
147	0x3c566bc5	0.013087218
148	0x3c455f02	0.012046577
149	0xbbdde98a	-0.006772225
150	0x391ed4a8	0.00015147275
151	0xba7717c6	-0.0009425845
152	0x3c52894e	0.012850119
153	0x3a18ad4c	0.0005824163
154	0xbb202ee3	-0.002444201
155	0xbc71937c	-0.014744636
156	0xba1bba9c	-0.0005940588
157	0xbcf17168	-0.029473022
158	0xb98faee1	-0.0002740538
159	0xbcac12c3	-0.02100504
160	0x39f45656	0.00046603632
161	0xbc850188	-0.016236082
162	0x3a6c5366	0.0009015113
163	0xbac45ef8	-0.0014981916
164	0x3966238c	0.00021947752
165	0xbc98c87d	-0.018650288
166	0x39e5e811	0.00043851187
167	0xb972d027	-0.00023156461
168	0x3be3f2d4	0.0069564376
169	0x3bb95548	0.0056559183
170	0x3a27fadd	0.0006407926
171	0xbae97d43	-0.001781382
172	0xbb0384f9	-0.0020068272
173	0x3ad9b964	0.0016611037
174	0x3bdd99c4	0.006762715
175	0xb9e2b0d3	-0.00043237823
176	0x3988bdf6	0.00026081473
177	0x3ac5d58a	0.0015093547
178	0x3b90559a	0.0044047358
179	0x3abeeb67	0.0014566005
180	0x3ab35b0c	0.001368375
181	0x3a9a9cbe	0.001179598
182	0x3a8d1a25	0.0010765238
183	0xbac07dbf	-0.0014685913
184	0x3c8752dc	0.016519003
185	0x391ab66c	0.00014754542
186	0xb9bf52fc	-0.00036492187
187	0xbb0f1c32	-0.0021836874
188	0x39ad8054	0.00033092743
189	0xb9529e60	-0.0002008616
190	0xbc7a1891	-0.015264646
191	0x3c8512a1	0.016244235
192	0x3b13f3e2	0.0022575785
193	0x3be28321	0.0069126044
194	0xba27edc6	-0.00064059754
195	0x3959ab58	0.00020758563
196	0x3a0b51d6	0.00053146237
197	0x3ab9ef30	0.0014185663
198	0x393c0f29	0.00017934725
199	0x3c9f5963	0.019451803
200	0x3cdd8912	0.0270429
201	0x3b2c3008	0.0026273746
202	0xbb2a8fd2	-0.0026025665
203	0x3acb52da	0.0015512363
204	0xbd1099c4	-0.035302892
205	0xbb0a712c	-0.0021124585
206	0x3b0313cf	0.002000082
207	0x3b05f96c	0.0020442856
208	0x3a45e141	0.0007548519
209	0xb5bfb100	-1.4282123e-06
210	0xbb0aef56	-0.0021199784
211	0xba026698	-0.0004974394
212	0xba91491c	-0.001108441
213	0x3b037d36	0.0020063645
214	0x398d3ede	0.00026940455
215	0x39241a90	0.00015650154
216	0x3b07d645	0.002072708
217	0xb9386ef8	-0.00017588947
218	0x3afcd5b8	0.0019289767
219	0x39987254	0.0002907688
220	0xb994fb5d	-0.0002841604
221	0xbcc5d7c9	-0.024150746
222	0x394a40ff	0.00019288434
223	0xbb06269c	-0.002046979
224	0x3d357c3c	0.044307932
225	0xba16c3bd	-0.0005751213
226	0x39882550	0.0002596774
227	0xb8f7c4d0	-0.00011814537
228	0x3af68976	0.0018809277
229	0x39745444	0.00023301045
230	0xba26e204	-0.00063660764
231	0x3afa5a31	0.0019100365
232	0x397f9ec8	0.00024377846
233	0xbb0cade7	-0.0021465959
234	0xb8c25166	-9.2658025e-05
235	0x3ad9854a	0.0016595509
236	0xbaade71e	-0.0013267731
237	0x3a340df5	0.0006868535
238	0xbcdb1435	-0.026743034
239	0xbc543d20	-0.012954026
240	0x3a618ed4	0.0008604352
241	0xb9985456	-0.00029054534
242	0x3ac4d5ef	0.001501737
243	0x3be545de	0.006996854
244	0xbbc09b38	-0.0058778785
245	0x3a093966	0.0005234688
246	0x37d46880	2.5321031e-05
247	0x3c637a0a	0.013884077
248	0x371713c0	9.0049e-06
249	0xba2c8d30	-0.0006582318
250	0xb93d77e7	-0.00018069112
251	0x38b49910	8.611579e-05
252	0xb8a656fe	-7.9317004e-05
253	0xbcadbe36	-0.021208864
254	0xb9995e60	-0.0002925275
255	0xbadd759f	-0.0016896016

lin1.bias f4 [64]
0	0x3cb1cc20	0.02170378
1	0x3c1c4432	0.009537743
2	0xbb6dd2da	-0.0036289007
3	0x3c1807cd	0.009279204
4	0xbc763907	-0.015028245
5	0x3c4e530b	0.012593041
6	0x3beda794	0.007252643
7	0x3cb32104	0.021866329
8	0xbd0c21d0	-0.034211934
9	0x3c78bae4	0.015181277
10	0x3b862704	0.0040940065
11	0xbca06c4e	-0.019582894
12	0x3cb0604f	0.021530299
13	0xbc8866b1	-0.01665053
14	0xbc9fd29d	-0.019509608
15	0x3c6ac61c	0.0143294595
16	0x3ca9c789	0.020725029
17	0x3d0a5cd2	0.033779927
18	0x3ca6a206	0.02034093
19	0x3c44f520	0.012021333
20	0xbc20936d	-0.009800774
21	0x3c81aa3c	0.015828244
22	0x3bb3d59b	0.0054881102
23	0x3c552b01	0.013010741
24	0x3c29adf2	0.010356413
25	0x3cc1ce6f	0.023658006
26	0xbd1010ff	-0.03517246
27	0x3c157952	0.009123163
28	0xbca2239b	-0.019792369
29	0xbc4d7c39	-0.012541824
30	0xbbd47f9b	-0.0064849383
31	0x3b6d4027	0.0036201568
32	0x3c5ecc40	0.013598502
33	0xbcf66720	-0.03007847
34	0x3d0ecb78	0.03486201
35	0x3c621ba7	0.013800538
36	0x3c953ef5	0.018218497
37	0x3c98b4d2	0.01864091
38	0xbc965cb4	-0.018354751
39	0x3d5dc88b	0.05414633
40	0x3c68e082	0.014213683
41	0x3cf7b3e8	0.030237153
42	0xbcf3d5d5	-0.029765049
43	0xbca8a78c	-0.020587705
44	0x3cdf9761	0.027293863
45	0x3c2fbf6e	0.010726793
46	0x3c63f90b	0.013914357
47	0x3c16795a	0.009184206
48	0x3cb47096	0.022026341
49	0x3c35f2fa	0.011105293
50	0x3d5ff705	0.054678936
51	0x3cca84db	0.024721554
52	0x39a859b2	0.00032110285
53	0x3cd2aa77	0.02571605
54	0x3cb7e907	0.022449983
55	0x3cb1c1d0	0.021698862
56	0x3cd4f9e5	0.025998065
57	0x3d090b5c	0.0334581
58	0xbcc4a704	-0.02400542
59	0x3cb0e306	0.021592628
60	0xbcf34538	-0.029696092
61	0x3ce111d7	0.027474327
62	0x3caa20bc	0.020767562
63	0x3d3363fc	0.043796524

lin2.weight f4 [5, 64]
0	0x3dfb096c	0.122576565
1	0xbda05a4a	-0.07829721
2	0xbddd3731	-0.108015426
3	0xbc5aa306	-0.013344532
4	0x39ea276a	0.00044661324
5	0xbdb1a327	-0.08673697
6	0x3db7fb97	0.08983534
7	0xbc8a5b8e	-0.01688936
8	0x3c360df2	0.011111723
9	0xbde0d4d9	-0.109780975
10	0xbcfebac4	-0.031094916
11	0x3d1f92c3	0.038958322
12	0x3dfd9b9f	0.12383198
13	0x399de0d4	0.00030112884
14	0x3d718718	0.058966726
15	0xbdd6f635	-0.10496179
16	0x3da51d08	0.08062178
17	0xbdfe3384	-0.124121696
18	0x3dbff322	0.09372546
19	0x3ce85e71	0.028365346
20	0xbbd1822c	-0.0063936915
21	0x3d610df3	0.054944944
22	0xbc24786e	-0.010038478
23	0x3c0c6a40	0.008570254
24	0x3cb4b233	0.022057628
25	0x3d9e67b2	0.07734622
26	0xbdba8679	-0.0910768
27	0xbe0c2d77	-0.13689218
28	0xbc999790	-0.018749028
29	0xbca33b23	-0.01992566
30	0xbbdfcce7	-0.006829846
31	0x3d48caf7	0.049021687
32	0x3d8c9a8e	0.068654165
33	0xbda4fcc2	-0.08056022
34	0x3dc232d4	0.09482351
35	0xbd8047f0	-0.06263721
36	0x3dac5108	0.08413893
37	0xbe03a511	-0.12855937
38	0xbd950348	-0.072760165
39	0x3e0c5f45	0.13708217
40	0xbdf77908	-0.12083632
41	0x3dcd3f2f	0.10021817
42	0xbc56c0bb	-0.013107474
43	0x3b1297a4	0.0022368217
44	0x3de70e3c	0.11282012
45	0xbc89b0df	-0.016807972
46	0x3dad29f0	0.084552646
47	0x3ddbffba	0.10742135
48	0x3dd4cf0e	0.10391055
49	0xbe124588	-0.14284337
50	0x3de45ad6	0.11150138
51	0x3c0a7012	0.008449571
52	0xbdaf3eee	-0.08556925
53	0x3dd54888	0.10414225
54	0xbdd19c0a	-0.1023484
55	0x3d759e15	0.059965212
56	0x3d8361e6	0.06415157
57	0x3e0f7d66	0.1401268
58	0xbb7ad41b	-0.0038273397
59	0x3b6fa373	0.003656593
60	0x3c352691	0.011056558
61	0x3e0547d1	0.13015677
62	0x3d63ccea	0.055615343
63	0x3d596239	0.053072188
64	0xbcf767de	-0.030200895
65	0xbd6e2b72	-0.0581469
66	0x3dbe7302	0.0929928
67	0x3db011b7	0.08597129
68	0xbd7d8eeb	-0.061903875
69	0x3d701507	0.058613803
70	0x3d93c4ed	0.07215295
71	0x3e06368e	0.13106748
72	0xbbadda0e	-0.005305535
73	0x3d179a04	0.037012115
74	0xbca84504	-0.020540722
75	0xbbbd8be5	-0.005784499
76	0x3d4a4533	0.0493824
77	0xbd755ad3	-0.05990107
78	0xbba93eb2	-0.0051649446
79	0x3d91a902	0.07112314
80	0xbdbf6c41	-0.0934682
81	0x3e184c17	0.14872776
82	0xbe1672b9	-0.146922
83	0xbddd6e8a	-0.10812099
84	0x3d104005	0.035217304
85	0x3d6f3335	0.058398444
86	0xbd42d5bd	-0.047567118
87	0xbddb97e7	-0.107223324
88	0x3de92008	0.113830626
89	0xbe0064e5	-0.12538488
90	0xbd3d2426	-0.046177052
91	0x3d11a813	0.03556068
92	0xbd3fb618	-0.046804518
93	0x3dd1368a	0.102154806
94	0xbcc456d6	-0.023967188
95	0xbd8a3608	-0.06748587
96	0xbd2a81ce	-0.041627698
97	0xbd948048	-0.0725103
98	0x3be72993	0.0070545166
99	0xbdd2411c	-0.10266325
100	0x3caaf5dc	0.020869188
101	0x3c8ba2ab	0.01704534
102	0xbda69529	-0.08133919
103	0xbdd2b5c9	-0.10288579
104	0xbc86a38b	-0.016435405
105	0xbd76f08f	-0.06028801
106	0xbdb34dd1	-0.08755077
107	0xbca94828	-0.02066429
108	0xbdbb862d	-0.091564514
109	0x3e0abc80	0.1354847
110	0x3db8d342	0.09024669
111	0xbdd75184	-0.10513595
112	0x3deb1450	0.11478484
113	0x3df8e6e6	0.121534154
114	0x3d8123bd	0.06305645
115	0x3dd91dea	0.10601409
116	0x3c37f644	0.011228148
117	0xbdeb3963	-0.11485555
118	0x3d6cf7ac	0.057853386
119	0xbdc0e6d7	-0.09419029
120	0x3d87aee9	0.06625158
121	0x3e0968aa	0.13418832
122	0xbd18aac5	-0.037272234
123	0xbdeb49ff	-0.11488723
124	0xbd6bb191	-0.057542387
125	0xbe06386b	-0.13107459
126	0x3d59c844	0.053169504
127	0xbcc7e293	-0.024400031
128	0x3d63e7cb	0.055640977
129	0xbdf7dab2	-0.1210226
130	0xbcde2600	-0.02711773
131	0xbdaa51cf	-0.08316385
132	0xbd115eb7	-0.035490718
133	0x3e1063c8	0.14100564
134	0xbde94a3e	-0.11391114
135	0xbc8d68a6	-0.017261814
136	0x3d494dee	0.049146585
137	0xbdfed4ad	-0.124429084
138	0x3dede0d6	0.1161515
139	0x3daa41d8	0.0831334
140	0xbcb7ef8b	-0.02245309
141	0xbd66d207	-0.05635264
142	0xbc704664	-0.01466522
143	0xbda690b3	-0.08133068
144	0xbdc750f5	-0.09732238
145	0x3db5cf48	0.088774264
146	0x3d880087	0.066407256
147	0x3dee0332	0.11621703
148	0xbd98628b	-0.074406706
149	0x3c64a6ad	0.013955754
150	0xbdfe58b5	-0.12419263
151	0x3c81e26d	0.015855039
152	0x3d06c0bf	0.03289866
153	0xbe17c78d	-0.14822216
154	0x3d60d492	0.054890223
155	0xbd64de3a	-0.055875994
156	0xbc29a0b2	-0.010353254
157	0x3d08ec64	0.033428565
158	0xbde33a64	-0.110951215
159	0xbddb141a	-0.106971934
160	0x3dd7c5b7	0.10535758
161	0xbdc45390	-0.09586251
162	0xbd8c9d3e	-0.06865929
163	0x3da48f0e	0.08035098
164	0xbdd218ea	-0.10258658
165	0x3db545e2	0.0885122
166	0xbd2ca25e	-0.042147033
167	0x3de6abb7	0.11263221
168	0x3dccd899	0.1000225
169	0xbde81146	-0.1133142
170	0x3d845985	0.06462387
171	0xbbd527b7	-0.0065049785
172	0x3dcab34f	0.09897482
173	0x3d789d2f	0.060696777
174	0x3df5a516	0.11994378
175	0xbdd17329	-0.10227043
176	0xbe209aa6	-0.15683994
177	0xbdf7c92f	-0.120989196
178	0x3e0754c4	0.1321593
179	0xbdea0d17	-0.11428278
180	0xbcb93dc8	-0.022612467
181	0xbe14b5a1	-0.14522411
182	0xbd89bf6a	-0.067259625
183	0x3e16d6b0	0.14730334
184	0xbd3f7ada	-0.04674802
185	0xbd9b8b5f	-0.07594942
186	0xbd0103d8	-0.031497806
187	0x3e26e5ee	0.16298649
188	0xbd2df008	-0.04246524
189	0xbdc696a9	-0.09696705
190	0xbb6f122a	-0.0036479332
191	0x3d8d1cbd	0.06890247
192	0xbddc5994	-0.10759273
193	0xbda7501e	-0.08169578
194	0xbd0461c6	-0.032319807
195	0x3d2dcd17	0.042431917
196	0x3ab812c6	0.0014043681
197	0xbcbd04b4	-0.023073532
198	0x3d301011	0.042984072
199	0x3ccb16a9	0.024791079
200	0xbc3ce64c	-0.011529516
201	0x3d69a913	0.057046007
202	0xbd7514c3	-0.059834253
203	0xbd490aac	-0.049082443
204	0xbe103dfd	-0.14086147
205	0xbbc6c7e1	-0.006066308
206	0x3d03f244	0.032213464
207	0x3cc43116	0.023949187
208	0x3d83c018	0.06433123
209	0x3cc814d6	0.024423998
210	0xbe22c75b	-0.1589636
211	0xbc8dd54c	-0.017313622
212	0xbd56891c	-0.05237685
213	0x3d69e945	0.05710723
214	0xbdc0846a	-0.09400256
215	0xbbdc9fe7	-0.006732929
216	0xbda0f3f4	-0.0785903
217	0x3da683fb	0.08130642
218	0xbd3678dd	-0.044548858
219	0xbd938009	-0.07202155
220	0xbd2f572f	-0.042807754
221	0x3d9325b8	0.07184929
222	0x3d7631b3	0.06010599
223	0x3b315f3e	0.0027064825
224	0xbe1b1f7c	-0.15148729
225	0x3d0f8bcc	0.03504543
226	0xbd89c741	-0.06727458
227	0xbd88af5f	-0.066740744
228	0x3d84a17e	0.06476115
229	0xbc977ca0	-0.018492043
230	0xbde1efab	-0.11032041
231	0x3e07e7bc	0.13271993
232	0x3d06b48b	0.032887023
233	0x3de01fd5	0.109435715
234	0xbd2ed60e	-0.042684607
235	0x3cf6391f	0.030056534
236	0xba5a4f32	-0.0008327841
237	0xbd424d76	-0.047437154
238	0xbcd772c9	-0.026299851
239	0xbd9aa3e0	-0.07550788
240	0x3cc7ca52	0.024388466
241	0x3cde7991	0.027157577
242	0xbdce1f35	-0.10064546
243	0xbd9f22ef	-0.07770335
244	0xbbca374a	-0.0061711418
245	0x3dbfd05a	0.09365912
246	0x3e0d23e6	0.13783225
247	0xbde78fd4	-0.1130673
248	0x3dfc0a5f	0.12306666
249	0x3d7bbf0c	0.061461493
250	0xbd13d1b0	-0.036088645
251	0x3dd2a4ad	0.10285316
252	0xbcd164b8	-0.025560722
253	0x3d9020ac	0.07037482
254	0xbe1f32ff	-0.15546797
255	0xbab046a8	-0.0013448792

lin2.bias f4 [5]
0	0xbdb263dd	-0.08710454
1	0xbc0d6782	-0.008630635
2	0xbd849834	-0.06474343
3	0xbdb8ff1f	-0.090330355
4	0x3d3c2ae9	0.04593936

prop1.temp f4 [11]
0	0x3f75f2e6	0.9607376
1	0x3f76787b	0.9627759
2	0x3f76c207	0.9638981
3	0x3f7a9b6c	0.97893405
4	0x3f7e6ac6	0.99381673
5	0x3f7edae1	0.9955273
6	0x3f7e20eb	0.9926898
7	0x3f7d4022	0.98925984
8	0x3f7ddabc	0.9916189
9	0x3f805e84	1.0028844
10	0x3f7fcab7	0.99918693
