save_parameters/BernNet_model_0324_1033.pt (torch, 599324 bytes, 5 tensors)

lin1.weight f4 [64, 2325]
00000000: 66c6 b838 a5f2 6e3d 6311 bbbd f029 7f3d
00000010: 0650 8fbb f039 b5b9 c18a 273c 92c7 81bb
00000020: ac41 7ebd 864e dbb9 2ef2 bcbb de1d a23b
00000030: fc53 f13b f06a 403d f590 533c 3dfd 32bb
00000040: 0d57 013d 482b b93d 3f89 d83b 56b7 c63d
00000050: 5904 2d3b c1e6 1d3b 0aea a2bd 7cc0 c5bb
00000060: 5c94 24bc c6e4 853d bdce 92bb 0cbf 6a3c
00000070: 6827 9d3c f437 21bb ee88 6abb 2242 a2bd
00000080: 748d 9e3d 91fb 29bd 1c78 093a a9d4 b3bd
00000090: c3fb 463c 5375 3f3d c5a9 113d 0ec0 d93a
000000a0: fb78 6f3c 9109 0cbd 76e3 edbd 0bf6 a43d
000000b0: c5dd d13a a5dc 73bd c7c7 ddbb 4f6d 8b3d
000000c0: c874 a93c b0f8 92bd 4e2a d3bb fe4a 91bc
000000d0: 8c55 f83c 1687 1c3c 4b9d 0cbb a29d 153d
000000e0: 77ea 93bd f0fd 3c39 5122 8b3c c9a5 3c3c
000000f0: 59a6 0a3d 0f74 99bb e8ab 20bb 3efc fd3b
00000100: 8e43 c1ba 992d 89bd f547 913d ea41 823b
00000110: 56a8 a6bd 6833 8fb9 3f6f 25bd f20d 87ba
00000120: 18b5 b1b9 4785 fabb 8aa3 ae3d ca50 8ebd
00000130: 957e 74bb 3c29 12ba 1699 acba 1c84 b5bb
00000140: 5b47 97bc 38eb 573d 2297 823b 135a 283d
00000150: 77cc 09bd 1a10 6abc 585e b93c 0a07 d43a
00000160: 45f0 a23b ccb1 8139 9200 1ebc cef0 dc3d
00000170: 3e70 4e3c 9aa7 4b3b 91eb 8cbd 0ea6 783c
00000180: 9be2 d13c 67aa 803b e47c 8abd ae42 2c3d
00000190: 150e 413d 9c8f 463d 7e35 633c ce3a 15bc
000001a0: 1d51 95ba 808d 91bc 9bb7 a7bd 97d0 38bc
000001b0: 1d59 38bb 74ce 723b 9889 5a3b 43ac 2e3a
000001c0: 0a98 2cba 5d19 503d a42e bd39 1447 843d
000001d0: de4e 29ba 90f9 1ebb 1362 343c a88f 12bb
000001e0: a2d2 56bd 3fac c23c 9403 063e 65a2 04bd
000001f0: 4dd1 f33c d5cc ebbc b879 e33c 64a7 98ba
00000200: e0b4 65bc 0b20 843d 0f51 56b9 6fba 7a3b
00000210: 65c8 6d3b b211 ac3c 2439 783c be69 4a3c
00000220: b4d3 1a3d 1a43 8d3c 2df5 c0bb 7190 7ebd
00000230: 111a 573d 238d 6abc 03c8 393b f5db 903d
00000240: 9e9b 303d daa1 87bc d3af 52bc 6cf5 14ba
00000250: 6645 0f3d cffb 243c 46a5 9ebb 41d7 653d
00000260: 9479 3c3d 63fb b43d 2711 8c3d bc1b 0f3d
00000270: a7fa 9f3a bcc4 693d 00f5 693a 1911 b5bd
00000280: ec2a 2fbb 6d2e 343c cb0a 11ba 1ff3 81bd
00000290: db37 94bd 0f17 aa3d 5452 8cbd d3f6 96bd
000002a0: dfc3 a83c 0e06 a13b bf49 54bd 98d6 1f3d
000002b0: 9563 4a39 f873 5a3c 9f13 713d 62ff 8e3d
000002c0: 339b 65bc bd68 64bd 2dc7 e6bd d56b 243d
000002d0: 98e1 b3bd 551c a73d 4e20 2a3d c8f9 3bb9
000002e0: 1915 d6ba ed97 9fbb 637a 533d 09aa 5e3d
000002f0: 8390 d3bb c4fa 88bd 878a 7b3d 831b c3bd
00000300: aff4 a23d b2e5 92bd 6b77 0cb9 7c88 923b
00000310: 36f2 093b 23e7 9e39 9b1e 083c 531a 82bd
00000320: 4e71 25bd 16c2 7dbd 2c56 d63d b612 6b3c
00000330: de41 103c c6e5 5e3d 0558 e6ba 8485 b83d
00000340: 2397 db3b 6912 86bd e1e0 583d 2dc6 7d3b
00000350: a7dc a63b 73af 463d fc28 473c ef45 d93b
00000360: 1e68 91ba 0b49 353c 2a32 13bd d449 f039
00000370: bd65 313c 7f97 6b3b e20b 5f3b 29f8 2c3d
00000380: 962a a03d fabc 38bc 6089 643b 3692 56bd
00000390: ce84 bb3b 0d77 01bc d848 c93a 9f00 253d
000003a0: b0cc 57ba cc30 1c3d cd2d 003b 2356 81bd
000003b0: 421b 24bb d2cd 55bd 1259 acbd 84d5 d9bd
000003c0: e5c6 f83a 5e33 023d 429a 2f3c 75c6 c13d
000003d0: c321 103d 50cd 2f3c c4ee 90bd 71d7 8c3c
000003e0: 833e 42bc 82ec 4a3d 6f33 3cbd dc37 04bc
000003f0: 708e 17bb d143 9bbd dada c2ba 972d 093d
8.810758e-05 0.058336873 -0.09134176 0.062295854 -0.004373553 -0.00034566177 0.010225953 -0.003960558
-0.06207435 -0.0004182944 -0.0057661748 0.004947408 0.007364748 0.046976984 0.012912978 -0.0027311586
0.03157716 0.09041458 0.006608158 0.09702937 0.0026400296 0.002409384 -0.07954796 -0.006034909
-0.010045137 0.06537776 -0.0044802115 0.014327776 0.01918383 -0.00246 -0.0035787183 -0.0792277
0.07741824 -0.041499678 0.0005244033 -0.08780796 0.012144986 0.04674275 0.035562295 0.0016613023
0.014616246 -0.03418881 -0.1161565 0.080547415 0.0016011527 -0.059536595 -0.0067682 0.06807958
0.020685568 -0.071763396 -0.006444252 -0.017735954 0.03031423 0.009553691 -0.0021456059 0.036527283
-0.07222455 0.00018023676 0.016984137 0.011514136 0.033850048 -0.0046830247 -0.0024516527 0.007751017
-0.0014744864 -0.0669815 0.07093803 0.0039751427 -0.08137576 -0.00027313386 -0.040389296 -0.0010303839
-0.00033894996 -0.0076452824 0.08527286 -0.06949003 -0.0037306894 -0.00055756024 -0.0013168182 -0.0055394303
-0.018466642 0.052714556 0.0039853016 0.041101526 -0.03364226 -0.0142860655 0.022627994 0.0016176414
0.00497249 0.00024737266 -0.009643691 0.10788117 0.012600003 0.003107524 -0.06880868 0.015176309
0.02562075 0.0039265635 -0.06762102 0.04205578 0.04713257 0.0484768 0.013867734 -0.009108258
-0.0011391971 -0.017767668 -0.08189317 -0.0112802 -0.0028129288 0.0037049325 0.0033346172 0.0006663242
-0.0006583935 0.05080544 0.0003608364 0.064588696 -0.00064585905 -0.0024257638 0.011009711 -0.0022363458
-0.05244697 0.023763774 0.13087302 -0.032381434 0.029762888 -0.028784195 0.027768001 -0.0011646566
-0.014020175 0.06451424 -0.00020438827 0.0038258096 0.0036282775 0.021004532 0.015150342 0.012354312
0.037799552 0.01724391 -0.005888602 -0.06214947 0.052515093 -0.014315876 0.0028347976 0.070732035
0.043117158 -0.016556669 -0.012859303 -0.00056823227 0.034978293 0.0100698015 -0.0048414795 0.056113485
0.046014383 0.08837011 0.06839209 0.03493856 0.0012205438 0.057072386 0.00089247525 -0.08841152
-0.0026728464 0.010997397 -0.00055329193 -0.063452 -0.07237216 0.08305179 -0.0685164 -0.07371297
0.020601211 0.004914052 -0.051828142 0.039023012 0.00019301318 0.013333313 0.058856603 0.06982304
-0.014014053 -0.05576395 -0.112684585 0.0401419 -0.08783263 0.08159701 0.041534714 -0.0001792676
-0.0016333192 -0.004870406 0.05163039 0.054361377 -0.006456436 -0.06688455 0.061411407 -0.09526732
0.07956826 -0.07172717 -0.00013395927 0.0044718366 0.002104891 0.0003030832 0.008308078 -0.06352677
-0.04039126 -0.061952673 0.10465655 0.014347723 0.008804766 0.054418348 -0.0017573839 0.09009841
0.0067013665 -0.0654648 0.052948836 0.0038722858 0.005092222 0.048507165 0.0121557675 0.006630651
-0.0011093651 0.011064778 -0.035936512 0.00045831373 0.010827479 0.0035948453 0.0034034182 0.04222885
0.078206226 -0.011275524 0.003487192 -0.05238553 0.0057226187 -0.007901919 0.0015356792 0.040283795
-0.00082321 0.038132474 0.001955855 -0.063152574 -0.002504066 -0.05219824 -0.08415426 -0.10636428
0.0018980174 0.03178727 0.01071793 0.09461681 0.035188448 0.010730103 -0.07076791 0.017192574
-0.011855724 0.049541958 -0.04594749 -0.008069959 -0.002312567 -0.07581294 -0.0014866248 0.033490743

lin1.bias f4 [64]
00000000: 9445 a73d 076b 923d a46f 543d f09d ba3d
00000010: a8ac d73d 8f19 aa3d 8db4 683d 6316 b23d
00000020: a160 c2bc 23a6 bc3d 3983 f1bc 197f 863d
00000030: 4149 ad3d 2616 8e3d 201b a73d 6c3e 2f3d
00000040: 29e6 b3bc 1d15 933d 2a88 4e3d 2e5d 233d
00000050: 7073 903d 3daa 873d 1990 9a3d 2696 1ebc
00000060: 19a1 783d 6627 573d 9a91 6f3d cb5d a33d
00000070: 2508 ca3d 048f b53d 684c 863d fd64 c03d
00000080: 46da 443d 443a dabc 44e0 833d 7fcf 4d3d
00000090: d6ee 3d3d a2f4 313d f45b 4a3d 9af3 a93d
000000a0: 3166 753d 65d5 7b3d 854d bcbc dd18 b93d
000000b0: d08e 883d 7ee9 643d 2ade 8f3d ac57 08bc
000000c0: c846 9f3d 6849 a8bc fd50 5c3d 49fd 723d
000000d0: 4443 913d 34ce 893d bf4d 823d 84ca e6bc
000000e0: 0b98 9d3d 9824 af3d 8e97 453d 8139 9ebc
000000f0: 628b f63c d8cf 593d 58bd ee3d f01f 27bc
0.08167568 0.0714932 0.05186428 0.091121554 0.105309784 0.08305656 0.05681281 0.08695676
-0.023727717 0.092113756 -0.029481517 0.06567211 0.08461238 0.06937818 0.081594706 0.04278414
-0.021960335 0.071817614 0.050422825 0.039883785 0.07053268 0.06624267 0.07547016 -0.009679353
0.06070051 0.052527808 0.058488466 0.07976874 0.09864835 0.08865169 0.06557542 0.09394262
0.048059724 -0.026639111 0.0643926 0.05024671 0.04637035 0.04344619 0.0494041 0.082984164
0.05991191 0.061482806 -0.022986183 0.090379454 0.06667864 0.055886738 0.07024796 -0.008321684
0.07777172 -0.020542815 0.053788174 0.059323583 0.07092908 0.06728783 0.06362485 -0.028172739
0.076950155 0.085519016 0.048240237 -0.01931453 0.03009576 0.05317673 0.11657208 -0.010200486

lin2.weight f4 [5, 64]
00000000: cd8b 5a3e a97d 01be e995 10bd a935 01be
00000010: 49fe 723e e757 693e 9805 f7bd 56ae d63c
00000020: 521f 2eb9 839a 203d 2c2a 2eb7 f629 7dbe
00000030: 5d14 7e3e f8a5 89be eaac 7d3e 191b 0fbe
00000040: 4014 30b9 766b 02bb a774 cdbd 7775 8cbe
00000050: 1262 643e 82c7 3e3e 4345 4fbe 3224 d1b7
00000060: de30 8dbd 1d62 57be 184e d33d 6678 843e
00000070: 6ad6 933e 23d0 2e3e 8de4 61be f2bf bd3a
00000080: ff45 6fbe fcc9 fcbc 6a23 093e a4c9 67be
00000090: 4410 533e a246 9abe f14a 8ebe 7773 803e
000000a0: 090b 183e d92e 5cbe c79f 1e3a 4fd2 d73d
000000b0: b59f 5fbe 9bea 43bd 2e8b 2c3e ceb0 8c39
000000c0: 10ab 463e 678c 8ab9 f1ac 87be b4a1 10be
000000d0: af4a 603e 7042 1e3e fca4 723e 3898 873a
000000e0: 0390 5e3e 6aa6 5b3e 4c02 50be 310a c737
000000f0: 8ffa 57be 0cfe f9bd 3e0e e93d 702f bdb7
00000100: 7f2b 9f3e 246f 823e 5b86 063e c318 31be
00000110: 4cc9 ac3c 559f 77be 9068 923e aaf6 a7be
00000120: ee1d 7939 acb6 b9be 5a2e 94bc 5e16 97be
00000130: cdcf 633e df75 48bd 636a 84be 4a3d 903e
00000140: 0a18 21bc a642 acbe 7237 1ebe 71d2 7ebe
00000150: ad3d 6d3e 5ef1 b0be 957f ec3d 6379 ebb9
00000160: 28bd 6cbe 4a54 9fbe 00e5 4e3e b6c8 2fbe
00000170: 8bb6 eb3d a9e3 78be aeb6 613e d53e 3d3e
00000180: 9bb2 90be a0f2 d6bc d86b 7e3e b052 803c
00000190: 915e 61be 69ea 523e 0418 533e 6ef2 5bbe
000001a0: 5656 46be 4a99 acbe b1bb 1a3b 82ae 9ebe
000001b0: aa1b 423e bf72 3b3e 336f a23e 0819 fd35
000001c0: d673 9dbe 4d3d 9c3b 6e96 043e 628e 543e
000001d0: 9e6c 8fbe 18e3 c53d 1038 39be 7753 b3ba
000001e0: bfc3 013e 95c6 3a3e 013d 903e 088f ee38
000001f0: 5ca7 70be bab6 853e 80ee 943e f76a 1639
00000200: 2bd9 a6be 6811 9dbe eed2 023e 959d b6be
00000210: b7d4 a5be 8fd4 96be f742 c0bd c260 163e
00000220: 27cb 6439 f1b4 953a c06d a7b9 0d31 733e
00000230: 48a5 263c e05b 34be ed36 a8be c667 3f3e
00000240: 906a 1c38 ef4e 7c3e d6d3 a73e b441 753e
00000250: 5920 953e c6f0 503e d14d 6c3e 6f93 5e38
00000260: 40c8 8d3e a5c7 883e f60b 613e 4e68 89be
00000270: 3ff4 8fbe a395 7e3e da6d 95be 0199 a9be
00000280: a6fa 713e 0892 0fb8 2173 5f3e 87e4 853e
00000290: 6805 353e 0c7b 8e3e baac da3d 4eac 09bc
000002a0: 1d2a a63e 74ad 7b3e cb74 66b9 9f6f 95be
000002b0: 343f 193e be6a aabe 70b6 9bbe 391d 8db9
000002c0: e408 313e 9209 4cb9 be95 96be 9947 8d3e
000002d0: 4255 b3be 009f 51be 7ccb a63e cf57 53bc
000002e0: e8af 843e b8af 8fbe 6ebb 423e 1c94 5eb8
000002f0: 6f72 573e a30d 36be e5da 8bbe dc72 233b
00000300: cc86 493e bfad 843e 9ba4 b3be e6a2 903e
00000310: a8b4 123e 5ec7 9c3d 16cb 32be 3c35 633e
00000320: 8807 6338 f9c1 643d a639 9a39 831b 903e
00000330: 0ca8 82be e0d6 823e ba15 3c3e 9d04 d0bc
00000340: 09f7 01ba b2a6 4b3e 6254 8fbe b253 95be
00000350: 14f5 bdbe 0fc9 083d be99 473e f97c 2938
00000360: 3a70 bebe f898 713e 77a0 73be 75bf 2cbe
00000370: faa4 833e 2945 193e ca5a 38be b9f5 f3bd
00000380: b923 463e c98e a8b8 89fb 86be fb28 89be
00000390: 18ea 9bbe 7573 b7be 7999 2a3e 4d3a 79be
000003a0: a0d6 a9be 0ca3 973e bb82 863c b3e3 413e
000003b0: dca4 7a3e b4bc 20bd 6eea 87be fc54 8fb9
000003c0: 68b5 643d 80da 68b8 9148 15be bb27 72be
000003d0: 90d7 a2be 9232 193e fae7 b4be fe0e 443a
000003e0: 44fe 94be d08f 1c3e fed3 b6be 17b5 feb9
000003f0: 63a9 94be ed7d 6dbe 3695 2c3e 56eb 1637
0.21342392 -0.12645592 -0.035299215 -0.12618126 0.23729815 0.22787438 -0.12061614 0.026206177
-0.00016605601 0.039209854 -1.0381027e-05 -0.24723038 0.24812455 -0.26884437 0.24772993 -0.1397518
-0.00016792212 -0.0019900477 -0.10032015 -0.2743337 0.22303036 0.18630794 -0.20241265 -2.4931596e-05
-0.06894086 -0.21033521 0.103176296 0.25873107 0.28874522 0.17071585 -0.22059841 0.001447676
-0.23366545 -0.030858032 0.13392416 -0.22635514 0.20611674 -0.30132014 -0.2779155 0.25088093
0.1484796 -0.21502246 0.00060510304 0.1053816 -0.21838267 -0.04783116 0.16849968 0.0002683461
0.19401193 -0.0002642602 -0.2649913 -0.14124185 0.2190349 0.15455031 0.23695749 0.0010345047
0.21734624 0.214502 -0.20313376 2.3727394e-05 -0.21091674 -0.12206659 0.113796696 -2.2552646e-05
0.31087872 0.2547542 0.1313719 -0.17294602 0.02109208 -0.24181874 0.285954 -0.32805377
0.0002375764 -0.3627218 -0.018088508 -0.29509252 0.22247238 -0.048940536 -0.25862417 0.2817176
-0.0098323915 -0.336446 -0.15450838 -0.24884965 0.23168059 -0.3455915 0.11547772 -0.00044913133
-0.23119032 -0.31118995 0.20204544 -0.17166409 0.11509427 -0.24305595 0.22042343 0.18481
-0.28261265 -0.02623874 0.24845827 0.015664428 -0.2200873 0.20597233 0.2061463 -0.21479198
-0.19368872 -0.337107 0.0023610408 -0.30992514 0.18955866 0.18305491 0.31725463 1.8857254e-06
-0.30752438 0.00476805 0.1294801 0.2075744 -0.28012556 0.09662455 -0.18087792 -0.0013681491
0.12672327 0.18239816 0.28171542 0.00011375366 -0.23501343 0.26115972 0.2908821 0.00014344962
-0.3258756 -0.30677342 0.12775776 -0.356671 -0.3238885 -0.29459044 -0.093877725 0.14685348
0.00021819455 0.0011421723 -0.00031934492 0.2374918 0.010171242 -0.17613173 -0.32854405 0.1869193
3.7292542e-05 0.24639486 0.32778805 0.23950845 0.29126242 0.20404348 0.2307656 5.3066233e-05
0.2769184 0.26714817 0.21977219 -0.2683739 -0.28116032 0.2486177 -0.29185373 -0.33124545
0.23630771 -3.422986e-05 0.21821262 0.26150915 0.17677844 0.27828252 0.10677476 -0.008402897
0.32454005 0.24577886 -0.00021978018 -0.29186723 0.14965516 -0.33284563 -0.30412626 -0.00026915388
0.17288548 -0.00019458521 -0.2941112 0.27593687 -0.35025984 -0.2047081 0.3257712 -0.012899353
0.25915456 -0.2806375 0.19016811 -5.3066862e-05 0.21039747 -0.1777864 -0.2731544 0.0024940288
0.19680327 0.25913808 -0.35086522 0.28249282 0.14326727 0.07655214 -0.17460284 0.22188276
5.412803e-05 0.05584905 0.0002941612 0.2814599 -0.25518835 0.25554562 0.18367663 -0.025392825
-0.00049577706 0.19887808 -0.27994066 -0.29165417 -0.37101042 0.03339487 0.19492242 4.040913e-05
-0.37194997 0.23593509 -0.23791681 -0.1686991 0.25711805 0.14967789 -0.18003383 -0.11912102
0.19349565 -8.03746e-05 -0.2636378 -0.26789078 -0.30452037 -0.35830274 0.16660108 -0.24338646
-0.33171558 0.29616582 0.016419759 0.18934517 0.24476951 -0.03924246 -0.26546043 -0.00027338404
0.055837065 -5.5516604e-05 -0.14578463 -0.23647968 -0.31805086 0.14960697 -0.35333234 0.00074790407
-0.2910024 0.15289235 -0.35708612 -0.00048581578 -0.29035482 -0.23192568 0.16853794 8.99549e-06

lin2.bias f4 [5]
00000000: 2dca 33bb 40ce 80bd 94bf babd 72c4 8fbd
00000010: 224d 023d
-0.0027433739 -0.06289339 -0.09118572 -0.07019891 0.03181184

prop1.temp f4 [11]
00000000: 83bf 323f 3a77 a33f f5c0 a43f c5cd a33f
00000010: 1d5a a33f a015 a33f d9c5 a23f a9c0 a13f
00000020: b539 9e3f 16c4 973f 9946 843f
0.69823474 1.277076 1.2871386 1.2797171 1.2761875 1.2740974 1.2716628 1.263692
1.2361361 1.1856716 1.0334045
