save_parameters/BernNet_model_0324_1039.pt (torch, 599324 bytes, 5 tensors)

lin1.weight f4 [64, 2325]
00000000: 57f6 40bc 1353 5fbb a493 c938 e094 b4b9
00000010: bc2c e4bc e7b1 6fbc 973d 5939 0356 76bc
00000020: e2ab c9bc cd42 293a 56ea f5ba a8b5 973a
00000030: 8b7e c73a 377a 4f3b 86d2 063b 99c7 b2bc
00000040: 50e9 1f3a c0f9 d9b7 002b e4b6 efda a5bc
00000050: 0ba5 03bb 0e58 20bc b217 b9bc c6f3 2c3b
00000060: b24f 5f3b 0165 bcbb 25ae 52ba 1839 173b
00000070: 0de9 a23c 02fd f7ba d0d4 d939 ea82 b03a
00000080: 3b75 1fbc dd98 4cbc 5747 0e3b 2492 9e3b
00000090: d073 403b 5ddd f53a 92c4 89bc 2611 cd38
000000a0: eda2 d7bb 6f1c 0abc 9578 87bc f3eb 04bb
000000b0: 0938 b33a 48c0 943c 5e6f 0f3b bc16 063b
000000c0: d8b7 123a 36b0 91bc 64ad 23bd eef9 45bc
000000d0: 92da 1cbb 14b7 0db9 2c14 55b9 086e 6a3c
000000e0: 232e 62bc dae7 3cba 5bfa 27bc b11f f9b9
000000f0: 740d 4d39 33b9 6fba ac4b 05ba 5d8a 7abc
00000100: 7635 8639 a4b4 7439 de4e 2d39 d3d2 e43a
00000110: 0d5e 02ba 21e8 1aba 98f1 1b3b 4ca0 d139
00000120: 7444 72ba 1257 363a 6f67 d4b9 220d 283b
00000130: eda8 ccba 8d67 7cbc 63e1 ff3a b2c6 a1ba
00000140: 46de c239 6f86 d03a 32dd cb3a ba91 193a
00000150: ff61 ad3a 83cd 6bbc 900c 6638 ba97 c4b9
00000160: 8aef a23b 047f da38 74dc 26bc 7c9d d53b
00000170: 2e2d 103b fe1a 113b 5db0 bb3a 2206 c23a
00000180: efd7 1f3d 9b43 daba 9ec8 313b a601 edbb
00000190: 4438 a7b9 63e5 3d3a 81b4 1f3d 784e 41b9
000001a0: c700 a2b9 9ed3 bcbb 3758 d33a 9b5e 5dbc
000001b0: 917a 033a e423 dbba e666 b539 b2ee 91ba
000001c0: 78ba 7b38 5fc2 ec39 fb88 f3ba 220f 08bc
000001d0: a0b3 eabb a83b deb9 303f be3c fcd6 d33a
000001e0: d52e 38ba 081d 3f3b c357 14bc 28f3 80bc
000001f0: 60d3 18bd 6f62 2e3b 6e6f 153b 118e 10ba
00000200: d78e 15bc 45c5 f9b9 3e09 85ba 2a7c 43ba
00000210: b9f7 1dbb d05a f93a 4357 49ba 4fce 3dbb
00000220: 02bd bfbb 868c 013b 54dd 82bb 53a5 35ba
00000230: b301 1e3b da53 28bb d750 e0ba 3bb0 ba3a
00000240: 7a4d 513a 5ac6 cf3a 0452 ccba 3785 26ba
00000250: 47cd bcbb 8103 0ebb 7779 79ba dfb6 27bb
00000260: 8193 c03a 8030 ae3c 63ce 0fba 994e d839
00000270: 74f1 73b9 7c6f 403b 5c1f d539 7387 8dbc
00000280: b4b9 8c39 4c64 383a e065 d6b7 4f14 d73c
00000290: 48dc daba 8c8c de3a 95b0 f23a 78c5 e7ba
000002a0: 46bd 793c 5af0 1b3b aed0 ce3a 3962 59ba
000002b0: 88ef 1e3a 180b 423b 21c3 76bc 4289 3abb
000002c0: f466 c13a 8f01 36bc db51 69bc 52e1 363a
000002d0: c154 13bc cc67 95bc 8cbb 183b 46eb 35ba
000002e0: 68d3 23bc ed03 8e3a 7038 a1b9 ca7a 9b39
000002f0: 34f1 23ba d88d 88b9 ee74 ee3a bd45 c93c
00000300: 9c9a 9e3a f7af c23b 6c3d 09bb 3160 3c3b
00000310: 21b0 4dbb 5404 4aba 50ce 89ba ac94 89ba
00000320: e633 b7ba 6a64 92bb b786 853c 4934 173b
00000330: caab e63a 382b ba3a 6d9e 6a3a 0826 c53c
00000340: 5a7e a2b9 1ea3 54ba 542d 30bb 9dd8 923a
00000350: 3800 df39 7e3d 843a 0d18 59bc 6caa bb39
00000360: 7440 86b9 3da2 bcbc 0d03 2d3c 80fa 7c37
00000370: 017d e33a 8441 c5b9 ba1f c6bb b6bb 06ba
00000380: 1c0f 6fbc 182e 5339 e904 6fba db50 d7bb
00000390: df8b dcb9 ca52 07ba c09c dc3a 0dae 9439
000003a0: c274 ad39 402e 73b9 9fa9 a13a 98fe 8ab9
000003b0: 3692 a63a 3c32 9dbc d915 0bbc f1e5 29bc
000003c0: 7484 d3ba 142f 6c39 a0b3 803a c954 26bc
000003d0: 3076 603c bc7c ceba aa01 9439 0b6f 99bc
000003e0: 3e6c 2cba 5ede 053b 76cf 1c3a 9be2 fd3a
000003f0: 54dc 933a e05a 8d3a ad80 d33a 3223 153a
-0.011777482 -0.0034076616 9.611927e-05 -0.00034443196 -0.027853362 -0.014629818 0.00020717677 -0.015035155
-0.024618093 0.00064567925 -0.0018761854 0.0011574524 0.0015220208 0.003165854 0.002057226 -0.021823691
0.0006100135 -2.5984715e-05 -6.7999354e-06 -0.020245997 -0.0020087387 -0.009786619 -0.022594307 0.0026390417
0.0034074602 -0.0057493453 -0.0008036814 0.0023074802 0.019886518 -0.0018920007 0.00041548023 0.001346675
-0.00973254 -0.012487617 0.0021710002 0.0048391987 0.0029365905 0.0018757988 -0.016817365 9.778356e-05
-0.0065807016 -0.008429631 -0.01653699 -0.0020282238 0.0013673316 0.018158093 0.0021886448 0.0020460328
0.0005596853 -0.01778422 -0.03996028 -0.012083514 -0.002393399 -0.0001351501 -0.00020320778 0.01430846
-0.013804945 -0.00072061794 -0.0102525605 -0.00047516593 0.00019555335 -0.00091447233 -0.00050848234 -0.015291777
0.00025598303 0.00023336947 0.00016527946 0.001745785 -0.0004973121 -0.00059092237 0.0023795124 0.00039983017
-0.00092417677 0.00069557235 -0.00040512855 0.0025642593 -0.0015614309 -0.015405548 0.0019522127 -0.0012342541
0.0003716817 0.0015909205 0.0015553592 0.0005858202 0.0013228058 -0.0143922595 5.4847973e-05 -0.00037497078
0.004972403 0.000104187086 -0.010184396 0.0065190177 0.0021999585 0.0022141333 0.0014319528 0.0014802853
0.03902429 -0.0016652228 0.0027127634 -0.0072328625 -0.00031894643 0.0007243959 0.0389905 -0.00018435146
-0.00030899627 -0.0057625314 0.0016124313 -0.013511325 0.0005015517 -0.001671907 0.00034599676 -0.0011133759
6.0016726e-05 0.00045158245 -0.0018580252 -0.008304389 -0.0071625262 -0.00042387587 0.02322349 0.0016162093
-0.00070260215 0.002916159 -0.009054127 -0.015740946 -0.037310958 0.0026608964 0.0022802013 -0.00055143336
-0.009128294 -0.00047639958 -0.0010149849 -0.00074571616 -0.0024103953 0.0019024257 -0.00076805445 -0.002896208
-0.005851389 0.0019767596 -0.0039936695 -0.0006929237 0.00241099 -0.0025684745 -0.0017113936 0.0014243195
0.0007984262 0.001585196 -0.0015588407 -0.0006352248 -0.0057617757 -0.002166957 -0.0009516696 -0.0025591177
0.0014692397 0.021263361 -0.0005485771 0.0004125729 -0.00023264234 0.0029363325 0.0004064989 -0.017276501
0.0002684124 0.00070339884 -2.5558227e-05 0.026254801 -0.0016697729 0.0016979142 0.001851576 -0.0017682752
0.01524288 0.0023794384 0.0015778744 -0.00082925294 0.00060629146 0.0029608663 -0.015061171 -0.002846316
0.0014755414 -0.01110877 -0.014240707 0.00069763244 -0.008992375 -0.01823797 0.0023305146 -0.00069396605
-0.009999134 0.001083491 -0.00030750362 0.0002965539 -0.00062538986 -0.00026045623 0.0018192807 0.024569387
0.001210052 0.005941387 -0.0020941151 0.0028743858 -0.0031385499 -0.00077063334 -0.0010513756 -0.0010496578
-0.0013977259 -0.0044675367 0.016299589 0.0023071936 0.0017598805 0.0014203554 0.0008949999 0.024065986
-0.00030993187 -0.00081114646 -0.0026882486 0.0011203472 0.00042534037 0.0010089127 -0.013250363 0.00035794394
-0.00025606493 -0.02302658 0.010559809 1.5078695e-05 0.001735598 -0.0003762358 -0.0060462626 -0.00051396654
-0.014591005 0.000201397 -0.0009117858 -0.006570918 -0.00042065882 -0.0005162178 0.0016831383 0.00028358438
0.00033084123 -0.00023191515 0.0012333876 -0.00026511098 0.0012708369 -0.019188993 -0.008489096 -0.010369764
-0.0016137497 0.00022524252 0.0009819157 -0.01015205 0.013700053 -0.0015753726 0.0002823 -0.018729707
-0.00065774086 0.002042673 0.0005981842 0.0019369902 0.0011280873 0.0010784529 0.0016136371 0.00056891434

lin1.bias f4 [64]
00000000: 0999 853c f626 1bbb 1f63 533c bab1 033d
00000010: a67d 733c 2e59 b9bb 93de c8bc 4e89 923c
00000020: 94b5 ba3c 0e78 d9bc 85ec a93c ce8d e1bc
00000030: b558 c3bb 2a77 1ebc f648 bdbb e816 203c
00000040: 00cf ea3c 9b4e eabc df66 ea3c 3dff 623c
00000050: cda2 403c 50ab b0bc ed65 8a3c b173 99bc
00000060: 806b 0b3c cce4 b33c 53e8 083c 479a 5f3c
00000070: 7693 743b 789f f33b d44f 9f3c 6aff b83c
00000080: b23c 93bb aad4 cb3c 9f65 89bc 98d6 183c
00000090: 30ec 75bc dceb 24bc 74a8 503c 2549 e53c
000000a0: ae1e ba3b 3bbe a4bc 602a d5bb 59d8 3dbc
000000b0: 74ab 63bc 2940 053c f05b 6d3c a62e 963c
000000c0: 3f38 eb3b 1d49 d5bc 9e6f 973c 6dba 0e3c
000000d0: d879 2a3d 6aaa 553c da14 1c3c c27e 513c
000000e0: b5d9 213c f403 5dbc 46a5 983c 8c1f 8f3c
000000f0: 16d4 f83c f138 023c e27a 903c ca96 bdbb
0.016308324 -0.0023674346 0.01290205 0.032151915 0.0148615 -0.005656383 -0.024520194 0.017887738
0.022791661 -0.026546504 0.020742664 -0.027533438 -0.0059615024 -0.009671966 -0.00577652 0.009771086
0.028663158 -0.028601935 0.028613506 0.013854799 0.011757565 -0.021566063 0.016894305 -0.018731924
0.008509517 0.021959685 0.008356172 0.013647622 0.003731934 0.0074347816 0.019447245 0.022582728
-0.0044933194 0.02488168 -0.01677209 0.009328507 -0.015009925 -0.010065999 0.012735475 0.02798898
0.005679927 -0.02011024 -0.0065052956 -0.011587226 -0.013895858 0.008132973 0.014487252 0.01833279
0.007178336 -0.02603584 0.01848584 0.00871144 0.041620106 0.013041118 0.009526456 0.012786569
0.009878566 -0.013489712 0.018633496 0.017471097 0.030374568 0.007948146 0.01763672 -0.0057857977

lin2.weight f4 [5, 64]
00000000: 214f 063b dfab 70bd c378 18be 066d f7bc
00000010: f291 95bd 0bb3 c4bd d082 9539 bf0c 303d
00000020: e400 4bbd 2f4a 01bd 9553 fc3d 0836 0c3d
00000030: 9379 913d 2ebc d93b 573e 05bd 10fb 9a3d
00000040: bef9 14be da90 353c 4b19 cf3d 3788 423c
00000050: 6050 813d ef4a 0ebd 8dea 01be 4a1c 30bd
00000060: 74d8 a43d 5a31 10bd 0f44 e5bd b40d 8f3d
00000070: fb33 93bd 950e 89bc 6b14 b23d d21d 9d3d
00000080: 07aa 46bd f86b 5dba 4f05 7c3d 1420 053d
00000090: d2a8 0bbc ffd1 d2bd 611a 16be 93e0 b53d
000000a0: e4a9 c2bc 9657 91bb b8f2 dcbd 7e89 98bd
000000b0: 0ac2 96bd afe8 643c c2ca 393d c241 e2bd
000000c0: 8259 4fbd d90e ee3c 1319 a43d 079a 9cbd
000000d0: 1075 0dbe cb8d e9bd 666b 9ebd 6428 043d
000000e0: 1a68 dfbd 90d7 db3d 1e0e 46bd 63eb 783d
000000f0: 5361 39bd 5ab2 98bd 0ce2 e0bd 968a a73b
00000100: c26b 413d fadb 47bd 4d40 ef3d c876 04be
00000110: d321 233d 4281 043d 57e6 f73a 8932 bf3c
00000120: f8fa 01bd e0ef 9cbd d7e0 80bd 89ca a2bd
00000130: 5b96 85bc fb9e bfbd 14e6 77bc d2af 45bd
00000140: 11a0 9e3c 1a32 5abd 82de 15bd 6c24 553d
00000150: e1a5 14be 8d60 58bc e638 7cbc 2f97 053d
00000160: 7070 fc3d 2290 103e bdea 0f3e a16b bebc
00000170: 95af 5dbd f50d b13d ed31 163e 3636 84bc
00000180: 9258 fc3d f55e b73d 7b93 fbbd 599c 1f3e
00000190: 9c7f a3bd 58b6 343d 3b14 103e 5d69 02be
000001a0: 69e5 d6bd 38fe 2bbb 0654 02bd a009 833b
000001b0: c731 a0bd d8ca fdbd 320e f7bc 60c4 d8bd
000001c0: 6c12 b13b 3957 8e3c 8621 363d e20e c03d
000001d0: a950 1cbe 7c6b e63d d47f 9cbc cbe7 b4bd
000001e0: 772f a63d 4409 b8bd fedb 213d 3fdb e83d
000001f0: 23d6 58bd 6124 d0bd b5f9 bb3d e57e be3d
00000200: 52d8 0d3e 1ec7 b1bd 7ac7 343d e141 fbbd
00000210: 61ac 613d a1a2 33bd 8b69 4d3c dab9 30bd
00000220: 9ad4 c83c 301f e6bc e991 1d3d 71e2 52bd
00000230: 830e d6bd 5e76 80bd e019 63bd 9f67 993d
00000240: 970a d13d b24a 0c3b a3f2 e5bd be7c 813c
00000250: 7333 6e3d 3705 a33d c644 19bc 92c3 263c
00000260: 9751 753d 2537 903d a046 00bd 7062 c33d
00000270: b86f 9e3d 9ff3 04bd 3e0b ad3d 24f0 c6bd
00000280: 32ab 3fba 1860 e13d 0339 cabd b653 f2bb
00000290: 00ba 18bd 6fcf 3f3d fe54 06be 4bc9 99bd
000002a0: 7fe2 e9bb fa4a 9bbd 98fe c93d 6556 6c3d
000002b0: 4ce0 98bd 237b bf3d c111 ff3d 2d27 ff3d
000002c0: b0e0 913d d1fd 14bd 0b58 a23d a828 76bb
000002d0: 482c a13d 365b f93d 4c7b a63d ff54 a43d
000002e0: 6202 003e 1030 bcbd 9299 c6bd 4870 3cbd
000002f0: 9fd7 97bd f132 873d d2bb a6bd 5539 2c3d
00000300: 7fd6 b9bd 9794 d43d 776d 02be f55b 0a3e
00000310: c2f5 be3c 29d5 25bd 35a7 1dbc 75d2 e03b
00000320: 2598 b73d 1eb6 d9b9 52c5 033e d840 dc38
00000330: 1977 02bd 18d2 72bd 212e 3f3d 2227 f6bd
00000340: c961 f83d 5b62 2c3d ab7c 06be 175a c93d
00000350: 15a8 ecbd 5731 9dbd a9da f83d 1663 56bb
00000360: 47d6 d8bd cb5f 8e3d 5b87 d6bd b994 a1bd
00000370: 40b9 29bd c477 66bc c46b d63c 2e2f 173d
00000380: 5c2c 9abb b521 c13d 6dc5 e0bd 26b0 febd
00000390: 6363 1cbd 1bda 0a3d 1464 b7bd 887a ce3d
000003a0: 2049 d8bd 3079 80bd 31fc d1bd a58c e0bc
000003b0: 3cbe bbbc bfc2 b23d 90dd ad3d 3b28 9fbb
000003c0: fad0 63bd d6f1 dd3c d838 b3bd 611e 11be
000003d0: b261 d83c e6ce 1ebe f36b c9bd 6ba5 02be
000003e0: e107 423d 9972 b3bd f73b be3b eb96 8f3d
000003f0: fa92 fa3d 5624 a0bd 6fb4 17bd ef60 a03d
0.0020493942 -0.05875766 -0.14889817 -0.030203354 -0.073032275 -0.09604462 0.00028516958 0.042980906
-0.049561396 -0.031564888 0.123206295 0.034231216 0.071032666 0.006644747 -0.032530155 0.075674176
-0.14548394 0.011081899 0.10112246 0.011873296 0.063141584 -0.03473943 -0.1268713 -0.04299573
0.08049098 -0.035203315 -0.11194622 0.069850355 -0.07187649 -0.016730586 0.08695301 0.076717034
-0.048501994 -0.00084465696 0.0615285 0.032501295 -0.008524137 -0.1029396 -0.146585 0.08880725
-0.02376265 -0.00443549 -0.107884824 -0.074480996 -0.07361229 0.013971492 0.04535938 -0.110476986
-0.05062247 0.029059814 0.08012595 -0.07646566 -0.13814187 -0.11403998 -0.077353284 0.032265082
-0.10908528 0.10734475 -0.048353307 0.060771357 -0.04525883 -0.07455893 -0.10980615 0.0051129563
0.047221906 -0.04879377 0.11682186 -0.12935936 0.03982718 0.032349832 0.0018913251 0.023339527
-0.031733483 -0.0766294 -0.06292885 -0.07948787 -0.016307047 -0.09356495 -0.0151305385 -0.04826338
0.019363435 -0.053270437 -0.036589153 0.052036688 -0.14516403 -0.013206613 -0.015394425 0.032614883
0.12326133 0.14117482 0.1405439 -0.02324468 -0.054122526 0.0864524 0.14667483 -0.016139131
0.12321581 0.089536585 -0.12283989 0.15586986 -0.07983324 0.04411921 0.14070217 -0.12735505
-0.10492975 -0.0026244055 -0.031818412 0.00399895 -0.07821994 -0.12392205 -0.030158136 -0.105843306
0.0054038074 0.017375575 0.044465564 0.09377839 -0.15265144 0.1125097 -0.019103922 -0.088332735
0.08114522 -0.08986142 0.03951644 0.11369943 -0.05293859 -0.10163189 0.09178487 0.09301547
0.13852051 -0.08680557 0.04413555 -0.12268425 0.055096034 -0.043856267 0.01253737 -0.04314599
0.024515439 -0.028091043 0.03846923 -0.051485483 -0.10451987 -0.06272577 -0.0554446 0.07490467
0.10207098 0.0021406827 -0.1122792 0.015806552 0.058154535 0.07959979 -0.009354776 0.0101784635
0.059892263 0.07041768 -0.031317353 0.0954026 0.077361524 -0.032458898 0.0844941 -0.09713772
-0.0007311582 0.110046566 -0.09874155 -0.007395233 -0.03728676 0.046828683 -0.1311836 -0.07509097
-0.007137596 -0.0758266 0.09863013 0.05769958 -0.07464656 0.09349658 0.12454558 0.12458644
0.07122934 -0.03637487 0.07926949 -0.0037560854 0.07869774 0.121756 0.08128986 0.08024024
0.12500909 -0.09188855 -0.0969726 -0.046005517 -0.07414173 0.06601513 -0.08141293 0.042046864
-0.09074115 0.10379904 -0.1273707 0.13511641 0.023310546 -0.04048649 -0.009622385 0.006861026
0.08964566 -0.00041525153 0.1286824 0.000105024956 -0.03185186 -0.059282392 0.04667485 -0.12019183
0.12128026 0.042085987 -0.13133495 0.098316364 -0.115554966 -0.076754265 0.12151081 -0.0032712868
-0.10587745 0.06951865 -0.10475036 -0.07889695 -0.041436434 -0.01406664 0.026174434 0.03691023
-0.004704995 0.09430257 -0.10975156 -0.124359414 -0.03818072 0.033899408 -0.08954635 0.10081965
-0.105608225 -0.06273115 -0.1025318 -0.027410815 -0.02291786 0.08728551 0.08489525 -0.004857091
-0.055619217 0.027092855 -0.087510765 -0.14171745 0.026413772 -0.15508613 -0.09835043 -0.12758414
0.047370795 -0.08762092 0.005805488 0.07011207 0.12235065 -0.078194305 -0.03703731 0.078309886

lin2.bias f4 [5]
00000000: 4fcb e53c f105 6d3d 0a26 4c3d 1ea8 5abd
00000010: 5381 9a3c
0.028051047 0.057866994 0.049840964 -0.053382985 0.018860495

prop1.temp f4 [11]
00000000: cf2a 783f 9a32 773f a731 7b3f 9f10 803f
00000010: 0414 813f 4f38 813f e583 803f 6346 7c3f
00000020: 9f3a 763f afc9 733f a47e 733f
0.9694032 0.96561587 0.9812264 1.0005072 1.0084233 1.0095309 1.0040251 0.985449
0.961832 0.9522962 0.95115113
