save_parameters/BernNet_model_0324_1037.pt (torch, 599324 bytes, 5 tensors)

lin1.weight f4 [64, 2325]
-3.9829574e-05 -0.0027506945 -0.0017611175 -0.03391884 0.005972078 0.0004974522 5.5745186e-05 0.0009850196
0.0056075808 0.0007166506 0.0044466415 -0.003213723 0.012264647 -0.0007200034 -0.0057442365 -0.03353589
-0.046072423 0.0016313619 0.0040256227 0.069493495 0.0034119203 0.00707432 -0.020526445 0.0010039049
-0.022522349 0.028976344 -0.010348578 0.042584453 -0.001462403 0.0033907886 0.0018804094 -0.00056021597
0.10520689 -0.017759917 -0.0021655955 -0.056212436 -0.00856193 0.006307039 -0.0011646044 0.0001266932
0.00033433552 -0.005893225 0.0008112965 0.07757243 0.00019149763 -0.022381548 -0.036118615 0.014369417
0.06889306 0.017030384 0.0015037924 0.008368727 -0.0014781276 -0.001384527 -0.001055582 0.07608137
0.005264087 -9.151554e-07 -0.004649875 0.062453352 0.062479023 0.0003427994 0.0013694873 0.002333417
-0.028322784 0.06030762 -0.0040125684 -0.015427184 0.0007000685 0.0009798077 0.0019293296 0.0013808494
-3.2583566e-06 0.0005230463 0.0041725105 0.0004824418 0.08308154 0.001228095 0.0010107876 0.008206636
-0.021436678 -0.0027380625 0.007787421 0.04356268 0.027710704 -0.061244383 -0.003103499 -0.0015189137
-0.0010141958 -0.00010159402 -0.023693237 0.07758563 -0.028296191 0.07337262 -0.024387356 -0.03435547
-0.0016060339 -0.00025067115 0.06260963 0.00222611 -0.046928644 0.001544933 -0.00066387665 0.105303645
-0.0028420547 0.09844867 0.085321024 0.0026891301 -0.004483763 -0.010818372 -0.047200046 6.210083e-05
-0.00087004557 0.0031127715 0.0015655713 0.011639741 -0.049086854 -0.00042958895 -0.0032169512 -0.047515832
-0.007083333 8.1113845e-05 0.05583123 0.07005659 -0.002106316 0.0007516361 0.0020543814 -0.05270019
0.0025924235 0.0043878877 0.00283319 0.0020575572 0.049550883 0.00037998936 0.06728613 -0.0008231787
0.007876311 -0.00084848533 0.009396883 -0.0015083525 -0.0457908 0.004583266 -0.059121005 -0.0052272007
0.0049669943 -0.06279707 0.0024601144 -2.3334347e-05 -0.008685698 -0.0012744642 -0.00023539654 0.0015496814
-0.043490835 -0.011874431 0.0040797694 0.004883698 0.00020887372 0.0036975192 -8.021254e-05 0.00013520411
8.690092e-05 0.0033342296 -0.000111479225 -0.046273917 0.018931974 -0.00935245 0.000116285155 0.00075330795
-0.0009456654 -0.027378663 -3.2881886e-05 -0.00019049979 -0.041909218 0.00068726717 -0.023021966 -0.0059803226
0.023203593 0.04251654 0.009137459 0.0016478978 -0.039399084 -0.007073628 0.0011596995 0.00042958552
0.062372953 0.049850084 -0.0031672379 -0.00054919685 0.003540641 0.0019416292 0.0025093027 -0.0048320685
-0.004671096 -0.030992733 9.566025e-05 0.003712193 0.010942869 -0.00016270687 0.0072832443 -0.075568974
-0.01743112 -0.034873188 -0.0435307 -0.00079116214 -0.00061305345 0.016097382 0.00035041937 -0.052399565
0.00041867117 0.007801054 0.0088872295 -0.048838824 0.002382466 -0.002142673 0.09092655 0.0022812071
0.00055842183 -0.039304134 -0.0005752014 -0.00019540807 0.0026544926 -0.003024565 0.06551151 0.11338156
0.07262295 -0.0018497849 0.0016295122 -0.0012666443 0.00023030769 0.008984961 0.0056704646 -0.055813815
0.00026037794 -0.001911665 -0.00092627254 -0.043690477 -0.0011964292 0.12364517 -0.004064788 0.016101727
0.07858898 -8.339497e-05 -0.05695156 0.057965416 0.008021813 -5.0309045e-05 -0.00044540432 0.00061222113
-0.0018876395 4.8617956e-05 0.01874697 0.011431324 -0.0005565749 -0.0016354548 -5.2862408e-05 -0.011011569
00000000: ae0e 27b8 ff44 34bb 4cd5 e6ba 7bee 0abd
00000010: 6cb1 c33b 7467 023a f0cf 6938 c61b 813a
00000020: ccbf b73b 9cdd 3b3a 22b5 913b 539d 52bb
00000030: a8f1 483c 9cbe 3cba 263a bcbb ee5c 09bd
00000040: 70b6 3cbd 6cd3 d53a 5fe9 833b 9b52 8e3d
00000050: 869a 5f3b b3cf e73b 1327 a8bc 7595 833a
00000060: ca80 b8bc cc5f ed3c 158d 29bc 096d 2e3d
00000070: 1aae bfba fe37 5e3b 1278 f63a 75db 12ba
00000080: b676 d73d 3f7d 91bc aaec 0dbb 033f 66bd
00000090: 5647 0cbc 47ab ce3b a4a5 98ba f2d8 0439
000000a0: c149 af39 f41b c1bb 30ad 543a 4bde 9e3d
000000b0: c1cc 4839 8259 b7bc 1df1 13bd b46d 6b3c
000000c0: ce17 8d3d 4e83 8b3c e61a c53a fc1c 093c
000000d0: bbbd c1ba 0479 b5ba 745b 8aba 8dd0 9b3d
000000e0: 5d7e ac3b 00a9 75b5 fb5d 98bb 16cf 7f3d
000000f0: 01ea 7f3d c2b9 b339 5e80 b33a 3eec 183b
00000100: 2f05 e8bc 1f05 773d dd7b 83bb 4dc2 7cbc
00000110: cd84 373a e46c 803a 8fe1 fc3a 9efd b43a
00000120: 24aa 5ab6 0b1d 093a 8eb9 883b 3ef0 fc39
00000130: a826 aa3d 08f8 a03a 677c 843a 2075 063c
00000140: f99b afbc 1171 33bb 9f2d ff3b c86e 323d
00000150: 8f01 e33c 64db 7abd 1364 4bbb 4916 c7ba
00000160: c4ee 84ba e00e d5b8 5218 c2bc 37e5 9e3d
00000170: 6acd e7bc 6244 963d fec7 c7bc 52b8 0cbd
00000180: 8e81 d2ba 836c 83b9 7a39 803d eee3 113b
00000190: 4038 40bd 597f ca3a 0208 2eba 70a9 d73d
000001a0: c441 3abb 759f c93d cabc ae3d 1e3c 303b
000001b0: 88ec 92bb 8a3f 31bc d654 41bd 213c 8238
000001c0: c513 64ba a4ff 4b3b db33 cd3a 9db4 3e3c
000001d0: 4c0f 49bd 743a e1b9 7cd3 52bb f69f 42bd
000001e0: 4e1b e8bb aa1b aa38 4aaf 643d d479 8f3d
000001f0: 1e0a 0abb 7209 453a cda2 063b 28dc 57bd
00000200: a6e5 293b 45c8 8f3b 0aad 393b 15d8 063b
00000210: def5 4a3d 4f39 c739 4fcd 893d 96ca 57ba
00000220: a50b 013c e36c 5eba 62f5 193c e9b3 c5ba
00000230: 228f 3bbd 392f 963b de28 72bd f048 abbb
00000240: 2bc2 a23b c09b 80bd df39 213b 21be c3b7
00000250: 754e 0ebc ec0b a7ba c7d4 76b9 ae1e cb3a
00000260: 7223 32bd f98c 42bc 96af 853b 6e07 a03b
00000270: 1d05 5b39 1452 723b c837 a8b8 94c5 0d39
00000280: 943e b638 1783 5a3b f4c9 e9b8 b889 3dbd
00000290: 3a17 9b3c 053b 19bc 1ede f338 a479 453a
000002a0: 88e6 77ba 3849 e0bc a8ea 09b8 e6c0 47b9
000002b0: 00a9 2bbd b829 343a 9098 bcbc 95f6 c3bb
000002c0: 7615 be3c d325 2e3d 48b5 153c 46fe d73a
000002d0: ef60 21bd e4c9 e7bb 0f01 983a fe39 e139
000002e0: c87a 7f3d 9a2f 4c3d 6f91 4fbb faf7 0fba
000002f0: 190a 683b 447e fe3a 1d73 243b 5456 9ebb
00000300: fe0f 99bb 79e4 fdbc 359d c838 4448 733b
00000310: b849 333c 4b9c 2ab9 48a8 ee3b e8c3 9abd
00000320: b5cb 8ebc 30d7 0ebd 3f4d 32bd fe65 4fba
00000330: 52b5 20ba a8de 833c 7eb8 b739 eda0 56bd
00000340: 1881 db39 fc9f ff3b be9b 113c 380b 48bd
00000350: 2623 1c3b 166c 0cbb b337 ba3d 4e80 153b
00000360: 0e63 123a 5ffd 20bd 1dc9 16ba 74e6 4cb9
00000370: fff6 2d3b c837 46bb e62a 863d 9734 e83d
00000380: 57bb 943d 7b74 f2ba 5b95 d53a 8805 a6ba
00000390: c07e 7139 a835 133c 4ecf b93b 079d 64bd
000003a0: 5683 8839 d590 faba 19d1 72ba c9f4 32bd
000003b0: 81d1 9cba ae39 fd3d ea31 85bb c5e7 833c
000003c0: 42f3 a03d 55e4 aeb8 0a46 69bd 256d 6d3d
000003d0: ec6d 033c ed02 53b8 2885 e9b9 777d 203a
000003e0: ac6a f7ba 22eb 4b38 3f93 993c 734a 3b3c
000003f0: 1ce7 11ba c25c d6ba 94b8 5db8 de69 34bc

lin1.bias f4 [64]
0.041594215 0.018538618 0.09241846 0.03854739 0.08660539 0.06657827 0.04238392 0.06665861
-0.0119916815 0.035699014 0.04757324 0.0773934 0.06659681 0.08727662 0.0748824 0.06398159
0.07104281 0.052679487 0.07322397 0.046957806 -0.005821157 0.08498864 0.041398253 0.01671246
0.084892415 0.05018862 0.043397587 0.063398555 0.06735344 0.07212399 0.06786816 0.093856886
0.054668136 0.085022256 0.054540128 0.05452159 -0.01987792 0.063445255 -0.025967218 0.067729205
0.0896938 -0.020232951 0.055153657 0.06985999 0.049846068 0.075788535 0.010224904 0.061826665
0.039088905 0.06990205 0.08225039 0.050608877 -0.022625914 0.07474941 0.099668905 0.080878876
0.04722224 0.030883312 0.049860526 0.073950365 0.0270487 0.05692534 0.059055176 0.055166055
00000000: b25e 2a3d 4dde 973c e445 bd3d dee3 1d3d
00000010: 2b5e b13d 305a 883d c39a 2d3d 4f84 883d
00000020: c278 44bc 2139 123d 28dc 423d 6e80 9e3d
00000030: e963 883d 16be b23d f25b 993d c808 833d
00000040: e57e 913d 72c6 573d 73f6 953d d456 403d
00000050: 67bf bebb 860e ae3d 3791 293d 92e8 883c
00000060: 13dc ad3d 9592 4d3d abc1 313d 1ad7 813d
00000070: 9af0 893d beb5 933d 76fe 8a3d 0a38 c03d
00000080: b2eb 5f3d 2620 ae3d 7865 5f3d 0852 5f3d
00000090: 05d7 a2bc 96ef 813d 34b9 d4bc 9cb5 8a3d
000000a0: 62b1 b73d 93bf a5bc cde8 613d c112 8f3d
000000b0: 642b 4c3d 0537 9b3d 5b86 273c f53d 7d3d
000000c0: b01b 203d ce28 8f3d e472 a83d 414b 4f3d
000000d0: fb59 b9bc 3816 993d 361f cc3d d3a3 a53d
000000e0: 1c6c 413d 00ff fc3c 8d3a 4c3d 4a73 973d
000000f0: 3c95 dd3c 8c2a 693d d7e3 713d cdf5 613d

lin2.weight f4 [5, 64]
-0.19495146 -0.034085087 0.21000522 -0.17214257 0.23281437 0.11226396 -0.1494706 -0.28109956
0.13747326 -0.055218462 0.020159958 -0.08510153 0.07464794 -0.22967422 0.14535758 -0.07872949
0.14647184 0.15966189 0.067293465 -0.04150475 -0.0013105047 0.1436317 -0.15060943 -0.22028922
0.21119207 0.019699251 -0.17846435 -0.26375732 0.09383654 0.14865537 -0.093689516 0.12640235
0.078056835 0.16942987 -0.03650888 -0.08238458 0.05799577 -0.09722215 -0.05742033 0.2219756
-0.09142953 0.0023687293 -0.10436565 0.21436927 -0.18814108 0.10213641 -0.12241729 0.09634148
-0.026274608 0.2428622 0.214256 -0.24986494 0.00014575405 0.24922839 0.06430562 -0.18169554
-0.16479972 -0.19735375 -0.21507451 0.038122445 -0.11354955 0.22665411 -0.17396532 0.15582371
0.14740984 0.13205342 0.25815684 0.1530783 -0.29577115 0.16833748 0.22085902 -0.23187074
-0.004415971 0.060466252 -0.26953807 0.16845341 0.2536691 -0.28064045 0.14322154 0.17880835
-0.20242082 -0.19684172 0.24277964 0.16207099 -0.09164416 -0.21624395 0.28634742 0.23868519
-0.09873098 0.22586994 0.21080431 -0.18611497 0.21527179 0.25567135 0.22477807 0.19470672
-0.12187223 -0.23855977 0.15212679 0.25883582 -0.0011926488 -0.22364996 -0.025156984 -0.07274999
-0.33269364 -0.038978964 0.17876023 -0.281663 -0.24485579 0.20223258 0.042163108 0.15276943
0.26440123 -0.23182413 0.01895297 0.17720242 -0.00015099597 -0.26852408 -0.26509747 -0.2808247
-0.20447667 0.24561182 0.21632886 -0.217354 0.15764 -0.20718813 0.14181785 0.15017651
-0.2607699 -0.20122546 -0.23223764 -0.24865125 -0.18616118 0.23282728 -0.23773257 0.2932375
-0.066981055 -0.047262046 0.25770715 -0.23653406 0.22385721 -0.2807443 0.17418312 0.2177846
-0.15976985 -0.08495956 0.1986141 -0.28225026 -0.11209369 0.18287012 -0.26685205 0.093150415
-0.24259809 0.059753533 0.1135171 0.2698146 0.21545607 -0.18980733 -0.27571926 -0.265191
0.14529364 0.1534545 0.23119986 -0.21290267 0.012714265 0.22180343 -0.0013035496 0.2645343
0.26416892 6.705901e-05 -0.24521725 -0.0786297 0.20805003 -0.27368104 -0.10947405 -0.27184683
-0.19435252 -0.1776721 -0.016544793 -0.24489553 -0.00065679324 -0.12490402 -0.30071452 0.13305967
0.21858889 0.1488178 -0.25451675 0.14805089 -0.21485727 -0.085746616 0.20101744 -0.14881815
-0.3080446 -0.1390411 -0.27540448 -0.16021125 -0.14960174 0.0039914935 0.18693246 -0.32373226
-0.005007889 -0.16798085 -0.24478893 -0.25239435 -0.1829111 0.2914911 -0.34573218 -0.36014453
-0.17376816 0.050160762 -0.24204306 0.22166638 -0.054699555 -0.31490538 0.1862584 0.060766533
-0.24382818 -0.23660631 -0.21232177 0.2948465 -0.2973226 -0.22208472 0.24201776 -0.25180465
-0.13937224 -0.21243115 0.01884963 0.22347826 0.030137861 0.25366968 -0.00034463278 0.048530046
-0.071511045 -0.0017230574 0.18021789 0.2159228 -0.27389282 -0.26025572 -0.18548252 -0.26384127
-0.19802202 0.15266874 0.25468612 0.2046583 -1.0191943e-06 0.10304255 0.2628066 0.18210402
0.106147796 -0.13759077 0.19105203 -0.2613955 -0.0191351 -0.17596875 0.25943884 0.11283355
00000000: 5ba1 47be ce9c 0bbd 9c0b 573e 2446 30be
00000010: e466 6e3e a6ea e53d d20e 19be 48ec 8fbe
00000020: cac5 0c3e c12c 62bd 7f26 a53c b649 aebd
00000030: 05e1 983d b82f 6bbe 9ed8 143e ed3c a1bd
00000040: b7fc 153e 687e 233e 28d1 893d e200 2abd
00000050: 3ec5 abba 3014 133e 5c39 1abe 7f93 61be
00000060: bc42 583e 5360 a13c 5cbf 36be 330b 87be
00000070: 5f2d c03d 1d39 183e 4ae0 bfbd 9e6f 013e
00000080: 43dc 9f3d 067f 2d3e 568a 15bd 3fb9 a8bd
00000090: f98c 6d3d 681c c7bd 9431 6bbd 924d 633e
000000a0: 683f bbbd af3c 1b3b a8bd d5bd 9e83 5b3e
000000b0: 0ea8 40be e52c d13d ebb5 fabd af4e c53d
000000c0: d93d d7bc deb0 783e ed65 5b3e 98dc 7fbe
000000d0: 8ed5 1839 ba35 7f3e aab2 833d 650e 3abe
000000e0: 42c1 28be 1a17 4abe 7e3c 5cbe 4826 1c3d
000000f0: ab8c e8bd 0418 683e f723 32be 4090 1f3e
00000100: 9bf2 163e 0339 073e 222d 843e 8fc0 1c3e
00000110: 516f 97be a960 2c3e de28 623e 866f 6dbe
00000120: dab3 90bb 76ab 773d e500 8abe 0d7f 2c3e
00000130: ebe0 813e 1bb0 8fbe aba8 123e 8919 373e
00000140: 6747 4fbe e090 49be 3a9b 783e f0f5 253e
00000150: efaf bbbd 0e6f 5dbe 219c 923e e469 743e
00000160: 7833 cabd 734a 673e 16dd 573e ec94 3ebe
00000170: 3570 5c3e 5be7 823e 392c 663e 3361 473e
00000180: 2698 f9bd 0349 74be 20c7 1b3e 2186 843e
00000190: a752 9cba 7f04 65be 0516 cebc f2fd 94bd
000001a0: d256 aabe 68a8 1fbd ec0c 373e 2236 90be
000001b0: 7abb 7abe 0f16 4f3e 39b3 2c3d 976f 1c3e
000001c0: 995f 873e 4e63 6dbe 4243 9b3c 8d74 353e
000001d0: ac54 1eb9 fd7b 89be dbba 87be 41c8 8fbe
000001e0: 5562 51be aa81 7b3e 5085 5d3e 0c92 5ebe
000001f0: 616c 213e 2029 54be b338 113e dfc7 193e
00000200: a283 85be 0c0e 4ebe b4cf 6dbe 6f9e 7ebe
00000210: 09a1 3ebe 466a 6e3e 2b70 73be 3a23 963e
00000220: 5d2d 89bd d995 41bd 31f2 833e fc35 72be
00000230: d33a 653e b8bd 8fbe 0f5d 323e ed02 5f3e
00000240: b59a 23be 47ff adbd 7f61 4b3e 1b83 90be
00000250: 6091 e5bd 4e42 3b3e d5a0 88be a5c5 be3d
00000260: a26b 78be 1fc0 743d a77b e83d 2425 8a3e
00000270: 84a0 5c3e da5c 42be 132b 8dbe 1dc7 87be
00000280: dbc7 143e 2d23 1d3e a8bf 6c3e 2803 5abe
00000290: 7e4f 503c 7020 633e dedb aaba 0a71 873e
000002a0: 2641 873e 08a2 8c38 3b1a 7bbe 9c08 a1bd
000002b0: 110b 553e ec1f 8cbe ee33 e0bd 822f 8bbe
000002c0: 5904 47be adef 35be f288 87bc e5c5 7abe
000002d0: a62c 2cba aecd ffbd 41f7 99be cb40 083e
000002e0: c4d5 5f3e b263 183e 0550 82be a79a 173e
000002f0: 8b03 5cbe ec9b afbd 84d7 4d3e c963 18be
00000300: 06b8 9dbe ca60 0ebe d101 8dbe 6b0e 24be
00000310: 3331 19be 13cb 823b 396b 3f3e 3cc0 a5be
00000320: 3819 a4bb 2c03 2cbe f3a9 7abe d539 81be
00000330: 0c4d 3bbe 523e 953e cf03 b1be dd64 b8be
00000340: 48f0 31be 5f75 4d3d 23da 77be 83fc 623e
00000350: a40c 60bd 473b a1be 86ba 3e3e 54e6 783d
00000360: 18ae 79be ed48 72be e16a 59be 1ff6 963e
00000370: ab3a 98be 2d6a 63be 81d3 773e 8aec 80be
00000380: 99b7 0ebe 8d87 59be 8a6a 9a3c 7cd7 643e
00000390: ade3 f63c fee0 813e d4af b4b9 71c7 463d
000003a0: 6274 92bd 36d8 e1ba 0a8b 383e de1a 5d3e
000003b0: ae3b 8cbe 3d40 85be 21ef 3dbe 3416 87be
000003c0: 49c6 4abe 3255 1c3e 3866 823e f291 513e
000003d0: 40cb 88b5 f907 d33d 968e 863e 7a79 3a3e
000003e0: 0464 d93d 98e4 0cbe 25a3 433e a2d5 85be
000003f0: 37c1 9cbc 2731 34be 2bd5 843e 4715 e73d

lin2.bias f4 [5]
0.013699148 -0.093374476 0.011292433 0.030101018 0.09635254
00000000: 6472 603c 1e3b bfbd e603 393c 6996 f63c
00000010: 7b54 c53d

prop1.temp f4 [11]
1.1692199 1.2757561 1.2849439 1.2338881 1.2222748 1.2151881 1.2063428 1.1904166
1.1571333 1.0830152 0.92233455
00000000: ffa8 953f fa4b a33f 0b79 a43f 0cf0 9d3f
00000010: 8073 9c3f 498b 9b3f 7169 9a3f 925f 983f
00000020: f21c 943f 3ea0 8a3f 1e1e 6c3f
