save_parameters/BernNet_model_0324_1038.pt (torch, 599324 bytes, 5 tensors)

lin1.weight f4 [64, 2325]
000000 79 79 b1 38 5e a1 3f bc 94 28 6a 3b 10 d8 30 bd
       8.462644e-05 -0.011696188 0.0035729753 -0.043174803
000010 e1 9b 2e bb 7e cd 90 3a f4 ea e5 3a b3 b7 0d 3b
       -0.0026643204 0.001104757 0.0017541335 0.0021624386
000020 95 a2 18 3c 01 c9 63 39 1c 20 14 3c 30 c0 2c ba
       0.009316106 0.00021723287 0.009040859 -0.00065899175
000030 03 d0 d2 3c 8e 1d a2 3b 33 a3 c9 bb ae 67 99 bd
       0.025733953 0.004947371 -0.006153488 -0.074904785
000040 03 87 ce bc 47 42 d7 3a bf 9d 1c 3b 14 ad ec 3d
       -0.025210863 0.001642295 0.0023897735 0.115564495
000050 36 47 bd 3b 92 6d f2 3b 64 98 8d bc fa 5a 9a 3a
       0.0057763113 0.0073983157 -0.01728458 0.0011776381
000060 e7 4a f1 bc 66 8c 59 3d e2 70 93 bc 8c 05 c6 3d
       -0.029454662 0.05311241 -0.017998163 0.09669027
000070 fe f6 85 3a a6 b7 09 3c 49 cd 0d 3c c8 60 a7 b7
       0.0010220704 0.008405602 0.008654901 -1.9953019e-05
000080 3b 7b 40 3e a3 60 bf bc ac c8 c0 ba da e2 70 bd
       0.18797009 -0.02336151 -0.0014708242 -0.058810093
000090 79 0c 9f bc 9a 50 28 3c 24 d5 fd 3a a8 32 1c 39
       -0.019415127 0.010273123 0.0019365889 0.0001489619
0000a0 19 26 30 ba f5 e7 03 bc 81 51 07 3c 0d 67 c4 3d
       -0.0006719544 -0.008050908 0.008259178 0.09589968
0000b0 cb 1e bc 3a 84 a8 17 bd 24 c2 8a bd e2 8f 93 3c
       0.0014352439 -0.037025943 -0.06775311 0.018012945
0000c0 59 f5 d3 3d 3e a7 ba 3c fa e5 25 3c db 14 8e 3c
       0.10349531 0.022784825 0.0101256315 0.017343929
0000d0 22 6a 51 3a 7c 90 b2 bb 67 d2 f5 3a 75 13 01 3e
       0.00079885323 -0.005449353 0.0018754721 0.12605079
0000e0 5c 35 f5 bc 6c aa 44 ba b5 13 aa bb 1d 30 ee 3d
       -0.02993267 -0.00075022015 -0.0051903375 0.11630271
0000f0 49 b0 9f 3d b6 b3 2f bb 2c d7 e6 3a b6 9d 9c 3b
       0.077972956 -0.0026809997 0.0017611734 0.004779543
000100 a4 67 62 bd 74 a5 d7 3d ae f9 14 3a 8b 69 cc 3b
       -0.05527462 0.105296046 0.0005682957 0.0062381676
000110 1a 82 3c 3a 84 92 35 bc 1b 88 6c 3b 3d 2b 79 3a
       0.00071910175 -0.011082295 0.0036091867 0.0009505039
000120 e1 c2 bd 38 65 b7 a4 3b 2a 53 fa bc 54 47 59 ba
       9.048521e-05 0.005026745 -0.030557234 -0.0008288522
000130 b0 0a cf 3d 99 f4 a9 3b 8a 59 54 ba d2 15 74 3c
       0.1010946 0.005186629 -0.00081005006 0.0148977805
000140 4c 3b 8c bc 58 06 be ba 7e 22 b0 3b ab b0 68 3d
       -0.017118119 -0.001449774 0.0053752055 0.05680911
000150 fd 78 c7 3c a1 7c 9d bd 34 b3 17 bc 22 58 57 bb
       0.024349684 -0.07689787 -0.009259034 -0.0032858928
000160 97 0f 1c bb 64 c2 7f ba ff 52 1b bc 5e 80 ee 3d
       -0.0023813003 -0.00097564445 -0.009480237 0.11645578
000170 a6 84 8a bd d5 94 d3 3d 12 44 9f bc 12 c4 69 bd
       -0.06763582 0.10331122 -0.019441638 -0.057071753
000180 d2 10 07 bd 02 8c 4f 3a 69 75 de 3d 66 60 f0 bb
       -0.032975025 0.0007917286 0.10862238 -0.0073357103
000190 48 91 3a bd 36 0b 2a bb 18 cd d1 bb d9 35 09 3e
       -0.045548707 -0.0025946624 -0.006402623 0.13399448
0001a0 a9 31 eb bb b3 88 00 3e d7 85 e0 3d e6 f6 44 3a
       -0.007177551 0.12552147 0.10963028 0.00075135974
0001b0 04 86 40 bb a9 7b 91 bc a7 e8 42 bd a1 dc 8f b9
       -0.0029376755 -0.017759161 -0.047585156 -0.00027439467
0001c0 0b 76 84 3a b7 aa 9d 3a af aa 77 3b c2 f5 74 3c
       0.001010598 0.0012029026 0.0037790944 0.014951171
0001d0 e5 a6 87 bd 3c 18 e6 39 0c 13 79 ba e0 75 8f bd
       -0.066236295 0.00043887075 -0.00095014344 -0.07004905
0001e0 d8 07 08 bc 00 80 24 3a 37 34 9c 3d ce 53 a6 3d
       -0.008302651 0.0006275177 0.07627147 0.08121453
0001f0 74 9e 56 3c 9b 11 41 bb 8f aa 5d ba 6d 92 80 bd
       0.013099302 -0.0029459957 -0.0008455896 -0.062779285
000200 54 9b b7 3a dd e8 a4 3b dd 0d af ba d4 65 4a 3b
       0.0014008083 0.0050326423 -0.0013355572 0.0030883448
000210 9f 30 9e 3d dc d0 1d b9 dc 5f 9f 3d 24 b3 2a b9
       0.077241175 -0.00015050493 0.077819556 -0.00016279198
000220 f4 af 31 ba 1f 41 6b 3a 51 c5 03 3c 3c 40 9c 3b
       -0.0006778233 0.00089742424 0.008042649 0.0047683995
000230 7c e3 ad bd a2 7d 41 3c cd 54 99 bd 2e 0e 93 bb
       -0.08490655 0.011809738 -0.074868776 -0.0044877743
000240 a5 51 3d 3c 9c 92 ce bd a8 25 2c 3c 52 a0 30 3a
       0.01155511 -0.10086557 0.010507025 0.0006737757
000250 0a f9 a4 39 4d 68 0c bc 30 e1 81 39 ee 5c 6d 3b
       0.00031466066 -0.008569789 0.00024772575 0.003621872
000260 90 a5 ac bd 66 eb c6 ba 63 ec 8d bc 09 73 4e bb
       -0.08430016 -0.0015176355 -0.017324632 -0.0031501672
000270 b0 80 86 39 9d 4a 28 bb c7 ae 90 3a ff d7 0d ba
       0.0002565435 -0.0025679239 0.0011038416 -0.0005410909
000280 a6 ef 99 3a d6 61 30 3b 70 73 99 b9 92 5f 61 bd
       0.0011744394 0.0026913784 -0.00029268442 -0.055022784
000290 77 8c 77 3c 59 eb 72 3b 6b b7 b0 ba 07 d0 84 3b
       0.015109173 0.0037066548 -0.0013482397 0.004053119
0002a0 ff 32 36 bb 39 07 2e bd e5 28 6a 3b 63 53 23 ba
       -0.0027801392 -0.042487357 0.0035729941 -0.0006230382
0002b0 ae e3 78 bd 74 eb 07 3b eb c1 25 bd 75 b7 f3 3a
       -0.060764007 0.0020739706 -0.040468138 0.0018594103
0002c0 4f 98 aa 3c 75 4e a3 3d d3 18 bb 3c 18 b1 73 b7
       0.02082458 0.07973949 0.022838986 -1.45251615e-05
0002d0 9b de 58 bd 90 4e 20 bc 12 68 bb ba d6 64 a6 39
       -0.052946668 -0.009784356 -0.0014297983 0.00031737116
0002e0 09 d6 c2 3d 0c 94 87 3d f7 b1 c1 38 cf 1c 9d 3a
       0.0951348 0.066200346 9.236106e-05 0.0011986735
0002f0 e4 73 3c 3c ea b4 9b 3a 46 d1 d3 ba 72 e6 44 bb
       0.01150224 0.0011879478 -0.0016160391 -0.0030044583
000300 62 4b ab 3b d5 9f 00 bd 2c 06 15 38 f3 7b c1 ba
       0.005227492 -0.031402428 3.5530116e-05 -0.0014761671
000310 8a a4 0d bb 5e cc ae b8 03 b9 7a 3b ff f9 de bd
       -0.0021612966 -8.335033e-05 0.0038257248 -0.10887527
000320 82 33 83 bb 1b f8 2f bd 1c 52 5a bd a1 2a de 3a
       -0.004003943 -0.04296122 -0.05330096 0.001694996
000330 21 23 b1 bb e9 2f a8 3c 42 d0 d1 b8 3b 3f 88 bd
       -0.005405799 0.020530658 -0.00010004688 -0.06652685
000340 05 17 88 3a c7 c2 5c bc c8 e0 dd bb a2 86 84 bd
       0.0010382837 -0.013474173 -0.006771181 -0.06470992
000350 7c 0d 77 3b ab 1a 64 3a fe 2f 06 3e 76 66 74 3a
       0.0037697246 0.00087014836 0.13104245 0.0009323129
000360 3c 3d dc 3a f3 0d 79 bd 35 55 15 3b de 5d 1d 3a
       0.0016802917 -0.06080432 0.0022786383 0.0006003062
000370 40 0b 5b 3b 24 f3 74 ba b0 2f ac 3d 4c bf 23 3e
       0.0033423454 -0.0009344092 0.08407533 0.15990943
000380 84 47 0b 3e 40 e8 82 bc e2 2d 64 3b 8a 88 04 bc
       0.136015 -0.015979886 0.0034817387 -0.008089194
000390 c1 d7 e5 ba fb f9 b2 3b 4d f3 3f 3c 24 34 87 bd
       -0.0017535613 0.005461929 0.011715722 -0.06601742
0003a0 60 05 21 ba 83 48 e8 bb ee e6 38 39 39 2d 9a bd
       -0.00061424635 -0.007088722 0.00017633635 -0.07528157
0003b0 a9 c4 d6 3a 7e a7 26 3e 8a 56 dd bc ea fe 9b 3c
       0.0016385514 0.1627483 -0.027018804 0.019042451
0003c0 61 d8 f5 3d 76 e3 75 3a e3 a8 b7 bd b8 ca d0 3d
       0.120041616 0.00093799026 -0.089677595 0.101949155
0003d0 c8 cd 43 3c ca b6 ab b9 a4 03 da 3a 44 d8 46 3c
       0.011950918 -0.0003275185 0.0016633165 0.012136523
0003e0 44 0f b4 ba c2 1a 7b 3b 21 0c 79 3c a1 1b 43 3c
       -0.001373746 0.003831551 0.015200646 0.011908443
0003f0 01 11 2f 3a a3 eb 5d ba 96 c0 38 3b 81 31 b7 bc
       0.0006678254 -0.00084655936 0.0028190962 -0.022362472

lin1.bias f4 [64]
000000 82 3a 52 3d 59 11 2d 3d e7 bf c4 3d ab 20 54 3d
       0.05132533 0.042252872 0.09606915 0.051788967
000010 78 9a bf 3d 01 34 a5 3d cf be 73 3d fb 40 5f 3d
       0.093556345 0.080665596 0.05950814 0.05450533
000020 6f cd 2f bc 84 82 5c 3d d8 ae a2 3d 49 d9 9c 3d
       -0.0107301315 0.053835407 0.07943505 0.07658631
000030 f1 97 c2 3d b6 09 84 3d 06 e5 a4 3d 32 e7 92 3d
       0.09501637 0.06447165 0.08051495 0.07173003
000040 36 61 c0 3d 13 4d d2 3d 09 5f b6 3d 37 f0 96 3d
       0.093935415 0.10268607 0.08904845 0.07370036
000050 ea 1c 89 3c 20 7a be 3d a1 77 4d 3d 41 3d 15 3d
       0.01673742 0.09300637 0.050162915 0.03643537
000060 46 8a d6 3d fb 72 8e 3d 2e 06 75 3d 50 6f 90 3d
       0.10475592 0.069555245 0.059820347 0.07052481
000070 cb 83 bb 3d c9 82 ab 3d bc 12 9c 3d 79 6e c4 3d
       0.09155997 0.08374555 0.07620761 0.095913835
000080 53 46 b3 3d 4a 15 d4 3d 29 10 a5 3d 4b 4e 6a 3d
       0.08753648 0.10355623 0.08059723 0.057203572
000090 ad 53 97 bc 2f de b6 3d 6b 91 c4 bc fd 01 c3 3d
       -0.018472517 0.08929097 -0.023995122 0.095218636
0000a0 43 21 95 3d f2 cd 9b bc 15 37 97 3d 6b 23 a9 3d
       0.07281735 -0.0190191 0.07383553 0.082587086
0000b0 ab ea 7e 3d 30 3c be 3d 36 bf 2f 3d 4e dc d8 3d
       0.062235516 0.092888236 0.042906962 0.10588895
0000c0 33 ba 71 3d c6 b9 a5 3d bc f6 cd 3d 97 ba 88 3d
       0.059015464 0.08092074 0.100568265 0.06676214
0000d0 dd b5 90 bc 5a 6c d8 3d 0e 2e b8 3d 6d c6 ae 3d
       -0.017664844 0.105675414 0.08993159 0.085339405
0000e0 6b f2 34 3d cc 28 52 3d 44 f4 53 3d 20 17 c6 3d
       0.0441765 0.05130844 0.05174662 0.096723795
0000f0 90 d1 31 3d c9 b4 bf 3d 38 12 84 3d c2 46 b0 3d
       0.043412745 0.09360654 0.064487875 0.08607246

lin2.weight f4 [5, 64]
000000 ac 1d 88 be ab 59 d2 bd 78 aa 52 3e 5f 94 8f be
       -0.26585138 -0.10271009 0.20572841 -0.28042886
000010 ce e1 8b 3e df 9a 02 3e 4e 7c 47 be 01 e4 ad be
       0.27320713 0.12754391 -0.19481012 -0.33963016
000020 cd 7b 38 3e 06 7e 19 be 99 3c 01 3d 30 29 1a be
       0.18015976 -0.1498948 0.03155193 -0.15054774
000030 aa 60 78 3d 78 b8 86 be 5e a0 14 3e a6 d9 1a be
       0.06063906 -0.26312613 0.145143 -0.15122089
000040 51 37 54 3e 22 82 62 3e 35 a2 92 3d 47 a9 ba bd
       0.20724227 0.22119954 0.07159845 -0.09114318
000050 20 b2 95 3c 62 96 15 3e 9c 8a 3e be 91 2e b3 be
       0.018273413 0.14608148 -0.18607563 -0.34996465
000060 1e bf 85 3e 72 94 8b 3b 5d 21 92 be 5e 2e a4 be
       0.26122373 0.0042596394 -0.2854108 -0.32066625
000070 0e c6 cd 3d 32 41 67 3e 1e f8 af bd d5 de ec 3d
       0.100475416 0.22583464 -0.085922465 0.11565939
000080 1b e5 89 3d 84 37 49 3e 84 db cf bd 78 45 98 bd
       0.067331515 0.19650084 -0.10149291 -0.07435125
000090 80 5d 0b 3d 95 ba 0d be aa 9b 2e bd bc ae 88 3e
       0.034024715 -0.13840707 -0.04262892 0.26695812
0000a0 93 46 24 be 6c 19 40 b9 11 37 08 be 33 a7 6e 3e
       -0.16042547 -0.00018320017 -0.13302256 0.23305969
0000b0 f8 06 8d be 0f c0 c1 3d 82 fb 75 be 69 b8 c0 3d
       -0.2754438 0.094604604 -0.24021724 0.094101734
0000c0 65 4a ac 3b 4d b2 90 3e 2a f4 85 3e 75 40 9e be
       0.005257892 0.28261033 0.26162845 -0.30908552
0000d0 df f5 d5 36 28 c9 9f 3e 63 21 78 3c 1e 24 8d be
       6.376518e-06 0.31208158 0.015144679 -0.27566618
0000e0 c9 bb 82 be b1 4b 8a be 68 1d 84 be ef 25 37 bc
       -0.25533894 -0.27010873 -0.25803685 -0.011178478
0000f0 69 7a 1b be c9 4f a8 3e 19 00 62 be d1 fe 3c 3e
       -0.15183415 0.3287337 -0.2207035 0.1845658
000100 1a 38 5f 3e 40 44 67 3e 25 db 91 3e 66 00 62 3e
       0.21798745 0.22584629 0.28487507 0.22070464
000110 e5 f6 bb be 81 2f 31 3e a4 75 79 3e 33 1b a2 be
       -0.36711803 0.17303278 0.24361283 -0.31661376
000120 38 10 a0 bd ef 8b 00 3e eb ad b3 be 28 de 46 3e
       -0.078155935 0.1255338 -0.35093626 0.19420683
000130 5a 1f 99 3e 7f 63 c0 be a0 c0 15 3e 89 08 49 3e
       0.29906732 -0.3757591 0.14624262 0.19632162
000140 7f 0f 93 be e9 bc a0 be df b3 86 3e 9f 36 45 3e
       -0.2872276 -0.31394127 0.26309106 0.19259118
000150 7a d5 04 be 15 68 96 be 19 3e a3 3e 25 93 88 3e
       -0.1297206 -0.29376283 0.31883314 0.26674762
000160 1b a5 17 be c1 a9 84 3e b4 06 74 3e 04 73 94 be
       -0.14809076 0.25910762 0.23830682 -0.28994
000170 83 a1 82 3e fe eb a3 3e ac 5f 7d 3e 7d e5 6f 3e
       0.2551385 0.32015985 0.24743527 0.23427387
000180 dc 4f 74 be 06 84 a8 be 3b 6b 2a 3e 00 23 8d 3e
       -0.23858589 -0.32913226 0.16642468 0.27565765
000190 d2 33 98 b9 c1 ce a7 be 3f 41 2b bc 5d 51 06 be
       -0.00029030308 -0.32774928 -0.010452568 -0.13116975
0001a0 a8 fc d1 be 83 f0 9d bc d6 88 4e 3e f1 e5 b9 be
       -0.41013074 -0.019279724 0.20169386 -0.36308244
0001b0 b9 84 ad be 94 ab 71 3e e4 5c f2 3d 99 6e 59 3e
       -0.33890322 0.23600608 0.11834124 0.21233596
0001c0 40 86 b0 3e 2b f8 9e be 56 af 0d bd fe 04 60 3e
       0.34477425 -0.31048712 -0.03459104 0.21876904
0001d0 48 4b c7 36 18 c1 b7 be e4 5b b8 be ad 69 c5 be
       5.939426e-06 -0.35889506 -0.36007607 -0.38557187
0001e0 33 90 aa be 72 12 96 3e 2b af 80 3e 54 41 9d be
       -0.3331314 0.29310948 0.25133643 -0.30713904
0001f0 f7 d8 67 3e c0 b1 80 be 2d cc eb 3d 72 40 2c 3e
       0.2264136 -0.25135612 0.11513553 0.16821459
000200 f1 fe bb be 8f 19 b3 be 3d f6 a6 be 30 51 bf be
       -0.36717942 -0.34980437 -0.3260974 -0.3736663
000210 b7 31 94 be a0 f9 95 3e 57 99 a2 be e9 a7 b4 3e
       -0.2894418 0.2929201 -0.31757614 0.35284355
000220 18 8c 05 be 8d a2 ee bd 07 b1 a9 3e 18 93 a9 be
       -0.13041723 -0.11652098 0.33142874 -0.33120036
000230 55 6d 9b 3e 01 5b be be b1 06 39 3e e6 37 73 3e
       0.3035685 -0.37178805 0.18068959 0.23751792
000240 92 25 88 be 80 a5 38 be a7 43 8e 3e 68 97 c2 be
       -0.26591164 -0.18031883 0.2778599 -0.3800614
000250 9e 37 1f be 03 7a 5b 3e 5a 35 b7 be 69 41 3d 3e
       -0.1554856 0.21433263 -0.35782892 0.18481983
000260 d3 c9 ac be 58 dd 0d 3e 54 a4 5e 3e d3 88 a7 3e
       -0.3374773 0.13853967 0.21742374 0.32721576
000270 b8 14 80 3e 7c 13 84 be 42 8c b3 be ea bd b8 be
       0.25015807 -0.25796115 -0.35067946 -0.36082393
000280 03 27 48 3e 96 b7 3c 3e 7d 63 a4 3e 70 bf 97 be
       0.19546132 0.18429407 0.32107154 -0.29638243
000290 92 03 a3 3b 7e fc 98 3e 4a b4 47 38 c9 73 a6 3e
       0.004974791 0.29880136 4.7613205e-05 0.32510212
0002a0 2d 76 99 3e fe 72 e9 37 21 9d a6 be 1e 2e f4 bd
       0.29972973 2.7829312e-05 -0.32541755 -0.11922859
0002b0 3d 40 8a 3e 1e 45 bb be 39 cf 68 be 12 d1 c9 be
       0.27002135 -0.3657617 -0.22735299 -0.3941732
0002c0 4e fd 8d be ae a3 90 be 95 78 c7 bd fe 0b ad be
       -0.2773232 -0.28249878 -0.09739796 -0.33798212
0002d0 fc c9 3c 38 87 e3 5b be 23 48 ce be 59 08 26 3e
       4.5010805e-05 -0.21473514 -0.4028941 0.16214122
0002e0 03 e8 8b 3e ff 5e 77 3e 5f a3 ac be 44 89 49 3e
       0.27325448 0.24157332 -0.33718392 0.19681269
0002f0 38 54 ae be 25 b6 f2 bd 02 14 8d 3e 93 c6 82 be
       -0.3404863 -0.118511476 0.27554327 -0.25542125
000300 fd f8 cf be cd a5 8e be 30 51 bb be 21 40 92 be
       -0.4061965 -0.2786087 -0.3658538 -0.2856455
000310 aa be 76 be 61 01 a8 bd c4 97 84 3e 1e ad d5 be
       -0.2409617 -0.08203388 0.25897038 -0.4173364
000320 6b 89 41 bd 45 11 9d be 42 fe b4 be 5e 1b b3 be
       -0.047250193 -0.30677238 -0.35350233 -0.34981817
000330 93 26 9a be d6 0d b7 3e e5 76 e2 be e4 fa ed be
       -0.30107555 0.35752743 -0.44231334 -0.46480477
000340 cc 88 8e be de 11 2d 3e 74 2a b6 be 9d 44 99 3e
       -0.27838743 0.16901347 -0.35579264 0.2993516
000350 88 5a d7 b9 13 be d2 be 16 c9 83 3e 0f ae 9e 3d
       -0.00041075447 -0.4116064 0.25739354 0.07748043
000360 00 bc b3 be b2 74 b1 be ba ba b8 be 4d a4 c1 3e
       -0.3510437 -0.34659344 -0.3607996 0.37820664
000370 2f d8 c6 be f4 05 a9 be a8 44 9e 3e 49 29 b2 be
       -0.3883681 -0.33012354 0.30911756 -0.34797123
000380 19 9a 97 be 05 21 b0 be 88 df c0 bc 14 89 96 3e
       -0.29609755 -0.34400192 -0.023544088 0.29401457
000390 88 49 6a 3c 7e a0 a7 3e 43 79 6f 38 42 df 03 3c
       0.014299758 0.32739633 5.7094974e-05 0.008048834
0003a0 a4 e3 00 be b3 3e 37 39 14 93 83 3e ff 2c 9f 3e
       -0.12586838 0.00017475597 0.2569815 0.31089017
0003b0 f0 05 c8 be c7 80 b5 be 11 a9 a5 be 36 a0 c0 be
       -0.3906703 -0.35449812 -0.3235555 -0.3762223
0003c0 21 fd a1 be 39 4c 76 3e 87 7b ab 3e 60 8e 90 3e
       -0.31638435 0.24052514 0.3349268 0.28233624
0003d0 00 66 a5 36 bb bf 35 3e c7 a2 a5 3e 36 b9 7a 3e
       4.9292576e-06 0.1774892 0.32350752 0.24484715
0003e0 f9 1d 44 3e 3c 5a 73 be fb 67 87 3e fe ac bb be
       0.19152059 -0.2376489 0.26446518 -0.3665542
0003f0 dd 2a 59 3d d2 4c 92 be 86 ba 9a 3e 63 83 38 3e
       0.053019393 -0.28574234 0.3022043 0.1801887

lin2.bias f4 [5]
000000 af 70 0b 3c d6 51 10 be 69 58 1d 3b ec 31 f5 3c
       0.008510753 -0.14093718 0.0024008995 0.029931031
000010 cb e1 a7 3d
       0.081973635

prop1.temp f4 [11]
000000 5d 13 aa 3f 0e 5e b7 3f cf a2 b7 3f eb ee af 3f
       1.3287159 1.4325578 1.434656 1.3744787
000010 28 a1 ad 3f e6 4d ac 3f e8 11 ab 3f 01 2c a9 3f
       1.3564806 1.3461273 1.336484 1.3216554
000020 a0 e3 a4 3f af 5c 97 3f ed 0b 54 3f
       1.2881966 1.182516 0.828307
