save_parameters/BernNet_model_0324_1024.pt (torch, 599324 bytes, 5 tensors)

lin1.weight f4 [64, 2325]
-2.907851e-06 1.5775777e-05 7.4404406e-06 3.0584724e-06 1.1032696e-05 -7.579624e-06 -1.110884e-05 -4.720576e-06
2.8320403e-06 1.6860742e-05 -2.3125818e-05 -1.092842e-07 -7.6538436e-07 -5.6380914e-06 4.6004607e-06 4.471633e-06
7.1816917e-06 5.2672153e-06 1.0254388e-06 2.819827e-07 1.5093441e-06 -1.5207524e-07 -2.172326e-05 -7.4997783e-06
7.5089197e-06 -4.2619085e-06 -2.6863624e-06 -1.2151036e-05 9.371317e-06 -2.9320734e-07 -1.3217414e-06 -7.352234e-06
1.3670649e-05 -6.7786386e-06 -1.4698868e-05 -8.062903e-06 -4.6163714e-06 -3.6451056e-06 -2.10824e-06 -1.3145207e-05
4.993037e-06 -2.4253555e-05 1.0963231e-05 -1.6802871e-05 -4.9748724e-07 1.4202371e-05 2.4077859e-05 -6.897532e-06
6.0832795e-06 -2.8437923e-06 -1.3722294e-05 -8.486351e-06 -1.340873e-05 1.3602734e-05 -8.969511e-06 -1.5500837e-05
-3.5945195e-06 -1.4711923e-05 1.3942238e-05 3.3728588e-07 -1.6476077e-05 3.2742855e-06 -1.3669767e-06 -1.8128034e-05
-1.7524173e-06 1.2833751e-06 2.257863e-05 6.570368e-06 -6.2905006e-06 1.0295315e-05 -1.0047259e-05 -2.8138197e-06
1.9070227e-05 2.5464537e-06 -1.9326682e-05 -4.4932845e-06 2.1892758e-05 -1.4752064e-05 -3.3684337e-06 -1.6467006e-06
-2.2707354e-07 -3.918266e-06 1.1552252e-06 -2.800025e-07 5.650847e-06 9.159282e-06 7.895131e-06 1.4958828e-05
1.3566816e-05 1.5843962e-05 1.0989617e-05 4.2094384e-06 -4.1717317e-07 -2.457744e-05 9.616292e-08 -1.846347e-07
-1.3826007e-05 -1.0267303e-05 1.5472335e-05 1.5065032e-05 -3.9150227e-06 -1.7856121e-06 -6.988067e-06 -1.3127706e-06
-1.8758892e-05 1.7374046e-05 -7.747198e-06 1.5336758e-05 -2.0488156e-05 -6.9857424e-06 2.2971477e-05 1.8380108e-05
4.244142e-06 1.3732677e-05 -1.7989414e-05 6.7198703e-06 2.4260305e-06 3.0521824e-06 8.4277303e-07 1.584841e-06
-1.2101993e-05 -3.4600234e-06 7.468922e-06 1.187417e-05 -2.1128803e-06 -1.3101333e-06 1.6103959e-05 -8.940988e-07
9.213117e-06 -6.7547735e-06 -6.5835557e-06 1.6421194e-05 -1.8315604e-06 7.649019e-06 2.0520777e-06 1.3038538e-05
-5.006061e-06 -5.5138626e-06 -2.4833737e-06 3.6395925e-06 -9.216871e-06 5.535781e-06 -7.412684e-06 1.7418159e-05
-4.318168e-06 2.093307e-06 1.2061128e-05 2.3497266e-06 -1.4107033e-05 3.7210839e-06 6.349057e-06 1.9602385e-07
-9.787429e-06 1.5989305e-06 -1.6336886e-06 1.7211882e-05 -3.7204243e-06 -8.194829e-06 2.8327518e-06 1.0109116e-05
4.25291e-06 -5.44786e-06 1.1454217e-05 -1.2788657e-06 -1.5359719e-06 -2.4051807e-05 5.16363e-06 -6.0118095e-06
1.5628034e-06 -9.408053e-06 1.0794562e-05 7.5166145e-06 -1.429863e-05 -2.6787523e-06 1.7753871e-05 2.5928107e-06
-1.4003863e-06 -5.0792023e-06 3.524799e-06 2.0111787e-05 -7.432054e-07 1.6805214e-05 2.3997216e-05 2.4485491e-05
-8.760208e-06 1.928821e-05 4.1932144e-06 9.7346174e-08 -2.2865821e-05 7.641495e-06 -4.4441795e-06 1.843579e-05
6.0885764e-06 1.2992928e-06 -2.4401255e-05 3.804279e-06 -1.6579468e-06 4.7609592e-07 -3.4339905e-08 -1.5861644e-06
-6.099921e-06 -2.0063819e-05 1.930344e-05 1.4371981e-05 -5.048014e-06 -3.8883036e-06 1.710007e-05 -7.750971e-06
1.124959e-05 -3.343707e-06 1.7880513e-05 3.8356566e-06 -1.2038926e-06 1.8853403e-05 4.2247966e-06 4.7038975e-06
-9.854948e-06 1.1302818e-05 -1.9739267e-05 3.892868e-06 3.6054325e-07 1.213214e-05 1.5882739e-05 7.5695984e-06
-7.557435e-06 -3.910741e-06 -8.759798e-07 1.8468461e-06 4.0933414e-06 3.9879342e-07 -2.2033291e-06 1.0920373e-05
9.127099e-06 -1.2170791e-05 1.4562757e-05 -1.5249866e-05 1.3770687e-06 1.1022702e-05 -1.1132556e-06 -3.5317726e-06
-1.3254989e-05 -2.277736e-05 2.157717e-05 2.5794e-06 -9.7836955e-06 -2.3322436e-05 -2.020593e-05 -1.6835711e-05
-9.876809e-06 -9.394437e-06 -8.829858e-06 9.831892e-07 -8.800922e-06 1.3317249e-06 -1.8903756e-05 -1.1150517e-05
00000000: 8024 43b6 3956 8437 e6a8 f936 2840 4d36
00000010: 1219 3937 7954 feb6 1b60 3ab7 7065 9eb6
00000020: 150e 3e36 2b70 8d37 51fe c1b7 a0af eab3
00000030: d074 4db5 d62e bdb6 a85d 9a36 090b 9636
00000040: 43fa f036 09bd b036 cfa1 8935 6863 9734
00000050: ab94 ca35 204a 23b4 583a b6b7 9ba6 fbb6
00000060: 21f5 fb36 8401 8fb6 5b47 34b6 4ddc 4bb7
00000070: 8039 1d37 1c6a 9db4 b066 b1b5 36b3 f6b6
00000080: fe5a 6537 1074 e3b6 289b 76b7 e845 07b7
00000090: 54e6 9ab6 709e 74b6 4a7b 0db6 3c8a 5cb7
000000a0: dc89 a736 1d74 cbb7 b8ee 3737 e4f3 8cb7
000000b0: 108b 05b5 b846 6e37 cffa c937 5971 e7b6
000000c0: f91e cc36 fbd7 3eb6 ce38 66b7 9a60 0eb7
000000d0: 0ff6 60b7 4c37 6437 c27b 16b7 cb07 82b7
000000e0: 6039 71b6 3ad3 76b7 75e9 6937 3814 b534
000000f0: 1b36 8ab7 ccbb 5b36 f678 b7b5 a811 98b7
00000100: 9a34 ebb5 6f40 ac35 3d67 bd37 0877 dc36
00000110: fd12 d3b6 0bba 2c37 a690 28b7 0ed5 3cb6
00000120: 00f9 9f37 bee3 2a36 bc1f a2b7 05c5 96b6
00000130: 57a6 b737 a27f 77b7 400d 62b6 3404 ddb5
00000140: 80d1 73b4 a679 83b6 3c0d 9b35 4053 96b4
00000150: 689c bd36 d1aa 1937 5475 0437 adf7 7a37
00000160: 089d 6337 a6e8 8437 0c60 3837 cd3e 8d36
00000170: d8f7 dfb4 a72b ceb7 2082 ce33 0040 46b4
00000180: 3ff6 67b7 bb41 2cb7 96ca 8137 d2bf 7c37
00000190: ca5d 83b6 2aa9 efb5 0a7b eab6 7432 b0b5
000001a0: 6a5c 9db7 7bbe 9137 f6f9 01b7 70a7 8037
000001b0: fbdd abb7 1267 eab6 dfb2 c037 fb2e 9a37
000001c0: e768 8e36 6665 6637 f9e7 96b7 3f7b e136
000001d0: e3ce 2236 18d4 4c36 ec3a 6235 b9b6 d435
000001e0: aa09 4bb7 c032 68b6 8d9d fa36 2c37 4737
000001f0: 02cb 0db6 d6d7 afb5 fd16 8737 0002 70b5
00000200: 0992 1a37 10a7 e2b6 50e8 dcb6 3fc0 8937
00000210: f0d3 f5b5 4954 0037 6db6 0936 18c0 5a37
00000220: bdf9 a7b6 b803 b9b6 09a8 26b6 b93f 7436
00000230: 29a2 1ab7 ffbf b936 79ba f8b6 361d 9237
00000240: c8e4 90b6 be7a 0c36 265a 4a37 ffaf 1d36
00000250: 3fad 6cb7 bcb7 7936 fc09 d536 a07a 5234
00000260: b034 24b7 d59a d635 1d45 dbb5 3c62 9037
00000270: 67ac 79b6 867c 09b7 4e1a 3e36 539a 2937
00000280: 38b4 8e36 c3cc b6b6 7d2b 4037 7ea5 abb5
00000290: 9827 ceb5 ddc2 c9b7 3e43 ad36 0db9 c9b6
000002a0: 84c1 d135 48d7 1db7 4a1a 3537 3a37 fc36
000002b0: 26e4 6fb7 9dc4 33b6 26ee 9437 2600 2e36
000002c0: e8f4 bbb5 046e aab6 968b 6c36 bcb5 a837
000002d0: b080 47b5 ecf8 8c37 a14d c937 3166 cd37
000002e0: cff8 12b7 1ecd a137 70b3 8c36 a00c d133
000002f0: facf bfb7 f933 0037 361f 95b6 8fa6 9a37
00000300: 794c cc36 5c63 ae35 4cb1 ccb7 044d 7f36
00000310: 9e86 deb5 209a ff34 207d 13b3 32e4 d4b5
00000320: ecad ccb6 b94e a8b7 d2ed a137 301f 7137
00000330: 1c62 a9b6 4678 82b6 1f72 8f37 2b0a 02b7
00000340: 9fbc 3c37 7364 60b6 1cfe 9537 0ab4 8036
00000350: 6f95 a1b5 6027 9e37 bac2 8d36 2cd6 9d36
00000360: ae56 25b7 3ca1 3d37 c195 a5b7 7b9f 8236
00000370: b090 c134 258b 4b37 ec3b 8537 5bfe fd36
00000380: df95 fdb6 0239 83b6 e024 6bb5 26e1 f735
00000390: 8959 8936 c019 d634 e8dc 13b6 a536 3737
000003a0: 9720 1937 2631 4cb7 9152 7437 add9 7fb7
000003b0: b8d3 b835 25ee 3837 2c6b 95b5 6403 6db6
000003c0: bf61 5eb7 0212 bfb7 9f00 b537 c119 2d36
000003d0: a724 24b7 8da4 c3b7 e77f a9b7 6a3a 8db7
000003e0: 92b4 25b7 cd9c 1db7 f423 14b7 20f6 8335
000003f0: aca7 13b7 b8bd b235 8293 9eb7 1b13 3bb7

lin1.bias f4 [64]
-0.014038191 0.048148945 0.08008542 0.05858522 0.056587856 0.075829096 0.054884065 -0.009177283
0.10850871 0.010504313 0.05606034 0.10075508 -0.010389449 0.0719508 0.08621698 0.09634881
0.04939754 0.075691134 0.055153493 0.08135604 0.033364445 0.053873543 0.093465984 0.08376703
0.09553405 0.016924962 0.13160159 -0.010681258 0.060184866 0.06807102 0.08068849 0.050617464
-0.027213195 0.06997188 0.078657724 0.009582969 0.08857334 0.08589204 0.045041658 0.05567047
0.06380548 0.0580343 0.058401797 -0.021132367 -0.01883129 0.053930834 0.039655965 0.042333797
-0.0014153452 0.049579952 0.08474834 0.10020696 0.08247693 0.0903518 -0.0074305846 0.06705885
0.033002518 0.030389056 0.051254533 -0.021537127 0.07503554 0.08995649 0.08879246 0.063259155
00000000: 7100 66bc d437 453d d303 a43d 0ef7 6f3d
00000010: abc8 673d 494c 9b3d 1dce 603d 515c 16bc
00000020: d139 de3d 481a 2c3c 879f 653d ae58 ce3d
00000030: 8238 2abc f15a 933d 8792 b03d 8652 c53d
00000040: 1355 4a3d f403 9b3d a1e8 613d ff9d a63d
00000050: 28a9 083d 81aa 5c3d 186b bf3d 0c8e ab3d
00000060: 5ba7 c33d 38a6 8a3c 91c2 063e 7100 2fbc
00000070: 6884 763d d268 8b3d 0240 a53d 4254 4f3d
00000080: 35ee debc 6b4d 8f3d 4d17 a13d e301 1d3c
00000090: f065 b53d 2ae8 af3d 9a7d 383d b806 643d
000000a0: 73ac 823d 60b5 6d3d b936 6f3d c91d adbc
000000b0: 1444 9abc 94e6 5c3d 4b6e 223d 3466 2d3d
000000c0: 1b83 b9ba 5914 4b3d 8a90 ad3d 4f39 cd3d
000000d0: aae9 a83d 5d0a b93d 437c f3bb 2656 893d
000000e0: a62d 073d 78f2 f83c 46f0 513d a16e b0bc
000000f0: 3cac 993d 1c3b b83d d2d8 b53d 048e 813d

lin2.weight f4 [5, 64]
2.2164331e-05 -0.06781779 0.30395934 -0.1935376 0.13081361 0.059949093 -0.2702594 8.375958e-06
0.24657917 -0.029841818 0.028645253 0.19929262 3.7842135e-06 -0.12722863 -0.061355047 0.13486813
-0.12490548 0.15996051 -0.013358254 -0.30642322 -0.18808873 -0.14778832 0.22513302 0.06733898
0.20147675 0.06498435 0.23053215 6.247923e-05 -0.09674006 -0.18424033 0.0058803847 -0.21286322
-4.8425485e-05 -0.04256243 0.1382694 0.11790035 0.35800698 0.099278115 0.009973187 -0.13888259
-0.040859338 -0.15738425 -0.14534296 0.00042383076 -0.018188797 -0.22905782 -0.259175 -0.25471035
0.0001774393 -0.30583116 0.140494 0.13312665 0.30590236 0.16506305 6.767109e-05 0.07122822
-0.30715498 -0.3221425 -0.27989557 0.00013855743 -0.115406446 0.28247154 0.26376468 -0.27868548
9.811148e-05 0.026036546 -0.28965867 -0.3496726 0.19012815 0.28642783 0.25343576 -2.765411e-06
-0.21934819 0.06681818 0.020219805 0.3093965 -2.4331395e-05 0.31270507 -0.3729034 -0.17523116
-0.31794083 0.28186947 -0.31556016 0.05902153 -0.13693757 0.24052322 -0.32569277 -0.38026276
-0.16511892 -0.10150605 0.213786 -0.00025519705 -0.21595734 -0.36382908 -0.2738331 -0.27450302
-0.013449703 0.28206047 -0.24667391 -0.08171312 -0.24977754 0.21790583 -0.30294272 0.30465445
0.29251975 0.26551226 0.31795773 0.0003127451 -0.00045462296 -0.28698874 -0.28428674 0.1719377
0.00044887624 0.10303955 -0.29838628 -0.16080406 0.2497653 0.30558425 -0.00040417636 -0.27143833
-0.3256747 0.27732235 -0.34012273 6.737565e-05 0.31053254 -0.3149166 -0.18875298 0.23216316
0.014357501 0.23643474 -0.21384613 0.24534535 0.18282385 -0.19293746 0.1212243 7.5569415e-06
-0.29478174 -0.06497266 -0.20281103 -0.2590872 -0.0004247061 -0.34114394 -0.14835086 -0.32005516
0.23466308 0.25070447 0.10146986 -0.39558312 0.18265565 0.24628481 0.2406285 0.10492435
-0.262796 -0.13834615 -0.28781974 -1.4864201e-05 0.24757509 0.1801168 0.23700182 0.25052497
-0.017789572 0.0387396 0.23838563 -0.13817756 0.10919553 -0.3287456 0.31782296 0.24105737
0.31288406 0.2992758 -0.17110196 -0.0014255873 -0.0009628356 -0.041022036 0.21998562 0.2123123
2.8528444e-05 0.22066401 -0.3172824 -0.29168966 -0.25742176 -0.27501136 -0.0034006783 0.27724782
0.22765906 -0.22118427 0.16244568 -0.014782381 -0.31058246 0.23862518 -0.30169827 -0.14723293
-7.748497e-05 -0.39563638 0.32821783 -0.38717055 -0.36994672 -0.3547386 0.16619691 -0.00040119706
-0.20059666 0.0033884936 -0.10705679 0.14323223 9.027455e-06 0.15503787 0.27933377 0.22936197
-0.2217612 -0.35607302 -0.39275333 0.17930287 0.18496428 -0.37271938 0.13568924 0.28946108
0.21211046 -0.15075068 -0.27297482 -5.583808e-05 -0.33109704 0.21469092 -0.3125144 -0.33350757
0.008626352 -0.4062236 -0.40600303 -0.047973324 -0.1325953 -0.29372114 -0.30807948 -0.085051306
-0.35599738 -0.3321626 -0.34574258 -1.1536376e-05 3.4234778e-05 0.28452212 -0.4008132 0.17366368
-3.0166198e-05 -0.359087 0.30753314 0.20089933 -0.37145728 0.21467936 9.154441e-05 -0.21544462
0.18451646 0.22512993 0.17672348 0.000341176 0.2547475 -0.26994342 0.20187496 -0.35534778
00000000: 8aed b937 0ee4 8abd 8fa0 9b3e b82e 46be
00000010: 01f4 053e 2e8d 753d 715f 8abe 7786 0c37
00000020: 407f 7c3e d476 f4bc 73a9 ea3c 5d13 4c3e
00000030: 4bf4 7d36 3948 02be 6e4f 7bbd df1a 0a3e
00000040: 72ce ffbd b0cc 233e 94dc 5abc 81e3 9cbe
00000050: 559a 40be d255 17be 4589 663e 05e9 893d
00000060: ec4f 4e3e 8416 853d 9f10 6c3e 4807 8338
00000070: a71f c6bd 7fa9 3cbe 3eb0 c03b d1f8 59be
00000080: 781c 4bb8 f155 2ebd 7e96 0d3e bd75 f13d
00000090: b14c b73e 5352 cb3d 9466 233c 3d37 0ebe
000000a0: 1f5c 27bd 5629 21be c9d4 14be 9a35 de39
000000b0: ac00 95bc 228e 6abe 96b2 84be 6569 82be
000000c0: 000f 3a39 e795 9cbe a9dd 0f3e 5a52 083e
000000d0: 3c9f 9c3e 4a06 293e a4ea 8d38 1ae0 913d
000000e0: 6b43 9dbe ddef a4be 794e 8fbe ba49 1139
000000f0: 375a ecbd 1ca0 903e 2a0c 873e ddaf 8ebe
00000100: 33c1 cd38 984a d53c 244e 94be 4908 b3be
00000110: f4b0 423e aba6 923e 55c2 813e 6695 39b6
00000120: d09c 60be f8d7 883d 01a4 a53c 3869 9e3e
00000130: 461b ccb7 e11a a03e 32ed bebe cc6f 33be
00000140: 24c9 a2be 3251 903e 1a91 a1be 8fc0 713d
00000150: 5d39 0cbe b84b 763e 34c1 a6be cdb1 c2be
00000160: ef14 29be 67e2 cfbd b8ea 5a3e f8cb 85b9
00000170: ec23 5dbe ce47 babe da33 8cbe a98b 8cbe
00000180: 255c 5cbc 3b6a 903e 1698 7cbe 3559 a7bd
00000190: afc5 7fbe b522 5f3e 4f1b 9bbe abfb 9b3e
000001a0: 26c5 953e 39f1 873e 5bcb a23e f0f7 a339
000001b0: 765a eeb9 30f0 92be 088e 91be 7010 303e
000001c0: 2657 eb39 6606 d33d 16c6 98be d2a9 24be
000001d0: 7ac2 7f3e 8a75 9c3e a2e7 d3b9 f7f9 8abe
000001e0: d6be a6be 32fd 8d3e 9124 aebe 074c 8d38
000001f0: 1ffe 9e3e c03c a1be 7648 41be 2ebc 6d3e
00000200: b93b 6b3c f31b 723e 7bfa 5abe d03b 7b3e
00000210: 2d36 3b3e 6691 45be 7244 f83d a291 fd36
00000220: a2ed 96be 6310 85bd b2ad 4fbe 14a7 84be
00000230: 16ab deb9 6baa aebe 4ae9 17be 45de a3be
00000240: 854b 703e 565c 803e 6ecf cf3d df89 cabe
00000250: 150a 3b3e 1632 7c3e 5167 763e 94e2 d63d
00000260: 338d 86be 9daa 0dbe 1c5d 93be 4261 79b7
00000270: 5384 7d3e 8a70 383e 9bb0 723e cf44 803e
00000280: 70bb 91bc 6aad 1e3d 5d1b 743e 6b7e 0dbe
00000290: e8a1 df3d 5851 a8be b1b9 a23e bed7 763e
000002a0: 5732 a03e ad3a 993e 5a35 2fbe c6da baba
000002b0: ce66 7cba b906 28bd e943 613e 6568 593e
000002c0: 5e50 ef37 bff5 613e d772 a2be 5958 95be
000002d0: c9cc 83be 4ace 8cbe eadd 5ebb 6df3 8d3e
000002e0: 751f 693e 217e 62be 2958 263e cd31 72bc
000002f0: aa04 9fbe 295a 743e 3278 9abe 3bc4 16be
00000300: 6d7f a2b8 da90 cabe 2b0c a83e 383b c6be
00000310: a869 bdbe 4ca0 b5be 862f 2a3e c257 d2b9
00000320: 3669 4dbe 7d11 5e3b 9740 dbbd 78ab 123e
00000330: a074 1737 3fc2 1e3e d604 8f3e dddd 6a3e
00000340: 5e15 63be 344f b6be f716 c9be 2c9b 373e
00000350: 4767 3d3e 13d5 bebe 1ff2 0a3e 3e34 943e
00000360: 7c33 593e 635e 1abe 5bc3 8bbe af33 6ab8
00000370: 8d85 a9be f0d7 5b3e e301 a0be 81c1 aabe
00000380: 8b55 0d3c 8afc cfbe a1df cfbe ad7f 44bd
00000390: 10c7 07be 9e62 96be 98bc 9dbe 612f aebd
000003a0: 4a45 b6be 3711 aabe 2c05 b1be 5c8c 41b7
000003b0: 5097 0f38 e2ac 913e 6337 cdbe e4d4 313e
000003c0: 6b0d fdb7 40da b7be fc74 9d3e 8eb8 4d3e
000003d0: a62f bebe e8d4 5b3e 88fb bf38 849d 5cbe
000003e0: e2f1 3c3e 7688 663e 00f7 343e dedf b239
000003f0: 446e 823e 0636 8abe 4fb8 4e3e 25f0 b5be

lin2.bias f4 [5]
0.08323924 -0.017500563 -0.054432724 0.08533597 -0.04039767
00000000: 5679 aa3d 575d 8fbc d9f4 5ebd a0c4 ae3d
00000010: 0778 25bd

prop1.temp f4 [11]
0.7211018 0.7750065 1.2243317 1.2962548 1.3155317 1.3294137 1.3427894 1.3475627
1.342591 1.3290548 1.2772408
00000000: 219a 383f d366 463f e7b6 9c3f adeb a53f
00000010: 5863 a83f 3a2a aa3f 86e0 ab3f ef7c ac3f
00000020: 06da ab3f 781e aa3f a07c a33f
