save_parameters/BernNet_model_0324_1036.pt (torch, 599324 bytes, 5 tensors)

lin1.weight f4 [64, 2325]
000000 5b 9f 01 b9 ad 31 97 ba 45 36 8f 39 fb b9 a7 bc
       -0.00012361763 -0.001153519 0.0002731552 -0.020474425
000010 91 73 4f bb 71 43 65 3a b1 67 0e 3a 96 f9 06 39
       -0.0031654576 0.0008745706 0.00054323213 0.00012872214
000020 55 4e 8f 3a 32 24 5e 39 e5 d6 df 3a 8f 95 35 3a
       0.0010933379 0.00021185054 0.0017077593 0.0006926888
000030 f8 66 dc 3b 8d e1 ff b9 f1 70 28 bb d2 23 79 bc
       0.006726142 -0.0004880544 -0.0025702084 -0.015206294
000040 2b 4f 01 bd 12 e8 25 3b 80 ff fa 36 54 b8 bf 3c
       -0.03156964 0.0025315327 7.4803247e-06 0.023403324
000050 a0 7d e8 38 24 91 7f 3a 28 35 f3 ba 48 b7 11 ba
       0.000110860215 0.00097491057 -0.001855527 -0.0005558622
000060 c9 f1 b4 bc 4f 89 77 bb 58 6b b0 b9 fe cb d6 3c
       -0.022087948 -0.0037771051 -0.00033649313 0.026220318
000070 d3 6c ec b9 28 b0 78 3b c0 c9 1c 39 8d e7 51 ba
       -0.00045094508 0.0037946794 0.00014952477 -0.0008007221
000080 3d 60 35 3d 5d 7d 11 3c 85 44 4b ba d7 1e 6e bc
       0.044281233 0.008879987 -0.00077540457 -0.01453372
000090 55 8d 87 bb 73 e8 90 3c 0a 2c 71 3a c0 ea b2 ba
       -0.004136721 0.017688965 0.0009199983 -0.0013650283
0000a0 ef 34 a3 ba cc 52 a3 3a 52 5d 9a bb 24 c1 0b 3d
       -0.0012451689 0.0012460588 -0.0047108317 0.03411974
0000b0 68 28 10 3a 0a 9d 9f bc 22 c0 c9 3a 18 38 93 3b
       0.0005499185 -0.019484062 0.0015392343 0.004492771
0000c0 cc 29 cb 3b 0b 96 70 3c 56 47 29 bc fc 25 15 37
       0.006200051 0.0146842105 -0.010331949 8.889936e-06
0000d0 0b 46 c0 b8 01 91 5d 3a 91 5f 87 ba bf bc b2 3c
       -9.16832e-05 0.0008452088 -0.0010328164 0.021818517
0000e0 6b f4 f0 3a be 76 30 b9 8a ce 80 bb 59 7c 89 3c
       0.0018383389 -0.00016828903 -0.0039308714 0.016782926
0000f0 cc 30 b2 3c 88 e2 54 bb c1 70 3c 3b 94 6c 10 3b
       0.021751784 -0.0032483656 0.002875373 0.0022037374
000100 25 d5 9b bc fa b4 79 3c f9 28 f5 ba d5 b2 b9 3b
       -0.019022534 0.015240902 -0.0018704227 0.0056670704
000110 a4 37 5f 3a 78 0c d5 bb 20 40 97 3a 3c fa ab 37
       0.0008515066 -0.0065017305 0.0011539496 2.0501313e-05
000120 46 25 f4 39 64 8b a6 3a 44 16 04 bc 84 04 5f 3a
       0.00046567078 0.0012706337 -0.008061949 0.0008507448
000130 d7 bf 2e 3d 71 19 04 3b b0 18 48 3a 26 1b e4 3b
       0.04266342 0.0020156766 0.0007633073 0.006961244
000140 94 e0 88 bc 48 8f 67 3b 0c a1 8f ba b8 88 d1 3c
       -0.01670865 0.0035333205 -0.001095803 0.025577888
000150 83 9c be 3c ff e2 1a bd 12 52 d8 3a d5 89 d7 39
       0.02326799 -0.037814137 0.0016503951 0.00041110688
000160 35 63 8c 39 94 13 bd 38 35 bf 18 bc 41 e3 02 3d
       0.00026776796 9.015869e-05 -0.009322931 0.031955007
000170 00 cf 80 bc f1 00 e3 3c b5 0b d1 bb bc 65 41 3b
       -0.015723705 0.02771041 -0.0063795694 0.0029510101
000180 00 5a 07 3c 64 69 05 ba 6a 0b b6 3c a8 31 b3 b6
       0.008261204 -0.0005089252 0.02222224 -5.3403965e-06
000190 90 b9 5b bc 1c 91 f6 ba 4f 5a 03 bc 98 9b 6b 3d
       -0.013410941 -0.0018811557 -0.008017137 0.057521433
0001a0 4d 68 c7 3a 03 bf 2c 3d 58 da 23 3d b2 c8 1d 39
       0.0015213579 0.04217435 0.04000315 0.00015047452
0001b0 57 b9 e5 3a ee 31 e7 ba 4d 75 ee bc 4e e9 fd 39
       0.0017526549 -0.0017638782 -0.029108668 0.00048429746
0001c0 86 f6 00 3a e4 3a 57 3b c6 ff 85 ba 23 7c 7d 3b
       0.00049195474 0.0032841498 -0.0010223321 0.0038678728
0001d0 43 3b d3 bb ee 2c 36 3a 12 1a 29 39 dd fe d4 bc
       -0.0064462735 0.0006949444 0.00016126808 -0.026000435
0001e0 40 e6 2c bb 7a d7 65 39 0c ff 03 3d e7 ac bd 3c
       -0.0026382357 0.00021919413 0.032225654 0.023153735
0001f0 4f 7c 84 3b aa 05 69 bb ec 74 e9 3a fc d5 b2 bc
       0.004043139 -0.0035556355 0.0017811335 -0.021830551
000200 cf 60 9c 39 30 c9 b8 b7 30 e1 3d b9 a0 a6 39 3a
       0.00029826767 -2.2028195e-05 -0.00018108333 0.0007082019
000210 61 58 e7 3c 6e a0 19 3a 9f cd ca 3c c4 a6 5a 39
       0.028240385 0.00058603927 0.02475625 0.00020852225
000220 f4 24 c0 3b be 2a b5 b9 de fa 3c 3b 63 a1 82 3b
       0.00586378 -0.00034554856 0.0028836052 0.003986524
000230 d2 1c 91 bc 7f db b0 3a 58 3d 90 bc fe b8 c2 bb
       -0.017713938 0.0013493149 -0.017607376 -0.005942463
000240 53 38 5f 3b 17 1e e9 bc a0 6a 21 3b 9e 86 5c 3a
       0.0034060671 -0.02845673 0.0024630204 0.00084123935
000250 60 f8 fb b8 c9 95 c6 bb 2b 07 1b 3a e3 98 04 3b
       -0.00012014876 -0.0060603363 0.0005913849 0.002023273
000260 d4 06 1f 3c 0f 0d 82 bb 7e e0 92 3b 58 10 98 3b
       0.009706218 -0.003968842 0.004482328 0.00464062
000270 e5 d5 dc 39 ae 49 28 3b 68 86 eb 37 fe 58 09 3a
       0.00042121034 0.0025678682 2.807677e-05 0.0005239396
000280 62 1b 54 3a b1 bf 03 bb c1 69 18 b9 9b 67 00 bc
       0.00080912386 -0.002010327 -0.00014535246 -0.0078372015
000290 1c 0d d0 3a 37 6e 78 3a 8a 3c b1 39 c8 50 a6 3a
       0.0015873048 0.00094768725 0.00033805176 0.001268887
0002a0 a0 03 c7 b7 ea f8 10 bc 85 d4 19 ba 98 db dc 38
       -2.3724337e-05 -0.008848408 -0.00058681547 0.0001053132
0002b0 cb 56 42 bc 36 0f 8b 3a 09 ee bf bb e5 fa 62 ba
       -0.011861513 0.0010609392 -0.0058572334 -0.0008658602
0002c0 6e 7d 43 3b ec 5d a4 3c 20 6f a2 3b ac 2c 04 3a
       0.00298294 0.020064317 0.004957095 0.0005042057
0002d0 3a d3 92 bc 57 1b 83 bb 6f 16 9f b9 e1 60 aa b9
       -0.017922986 -0.004001062 -0.00030343558 -0.00032497107
0002e0 43 b3 e6 3c e8 5c a9 3c 92 a7 93 ba ae 32 ac 38
       0.02816165 0.020674184 -0.001126515 8.211039e-05
0002f0 e2 68 ae 3a a6 7b fe 3a 2f 55 86 3a 2e 6a 6d bb
       0.0013306404 0.0019415512 0.0010248775 -0.0036226618
000300 3b e8 49 ba 21 a4 09 bc 96 13 67 b8 01 92 9f 3a
       -0.00077021465 -0.008400948 -5.5092933e-05 0.001217425
000310 a2 90 2e 3b ca 05 a2 b8 e6 cc 26 ba b1 bc 2b bd
       0.00266365 -7.72584e-05 -0.00063629297 -0.041927997
000320 58 09 a5 b9 f0 5d 10 bc bc af e5 bc a0 28 8d ba
       -0.00031478214 -0.008811459 -0.028037898 -0.0010769553
000330 d0 fa c9 3a 8a 5e e3 3b 32 1b 2d ba 8b 9c d8 bc
       0.0015409831 0.00693876 -0.00066034787 -0.026441833
000340 5e 0f 87 3a c7 dc 3e 3c 62 91 90 bb e2 54 1b bc
       0.0010304262 0.011649317 -0.004411862 -0.009480687
000350 70 4b e9 3a 31 e2 c6 b8 e1 1c 0c 3d 70 14 f1 37
       0.0017798971 -9.483507e-05 0.03420723 2.8738956e-05
000360 ad 18 77 39 e0 96 32 bc 37 e4 94 39 44 64 cf b7
       0.00023564948 -0.010900229 0.00028398793 -2.4723013e-05
000370 ac c8 b2 b8 04 b1 49 ba 07 40 db 3c 81 3a 0c 3d
       -8.5250795e-05 -0.0007693919 0.026763929 0.03423548
000380 ad 90 e1 3c 98 3f db 39 5a 03 2a 39 91 63 64 bb
       0.027534807 0.00041818316 0.00016213712 -0.0034849385
000390 db f4 5f ba 19 23 b7 3a 60 a2 ae 3a e2 92 42 bb
       -0.0008543261 0.0013972252 0.0013323538 -0.00296896
0003a0 1a 6b c9 39 9b d9 54 ba 14 aa 16 3a 38 01 11 bd
       0.00038417504 -0.0008119584 0.00057473895 -0.035401553
0003b0 0c b4 b1 39 32 4d 3a 3d 60 13 3a bc a2 be 76 3b
       0.00033894216 0.045483775 -0.011357158 0.0037650247
0003c0 79 9a f7 3c b6 6c 4d 3a 67 1e c8 bc a8 c2 b4 3c
       0.030225025 0.00078363286 -0.02442856 0.022065476
0003d0 c5 13 58 3b 5b 29 15 3a 74 90 80 b9 48 88 95 3a
       0.0032970768 0.00056900614 -0.00024521688 0.0011408413
0003e0 9e 77 18 3a 26 07 34 39 af 5a ac 3b 5e 33 19 3b
       0.0005816164 0.000171688 0.0052598338 0.0023376564
0003f0 9a 7d f2 39 4e e8 9e 3a 95 90 bb b9 82 14 15 bb
       0.00046251417 0.0012123676 -0.0003577514 -0.002274782

lin1.bias f4 [64]
000000 21 e3 f8 3c 18 c6 8f bb 01 ba 66 3d 3a 1d 76 3c
       0.030381741 -0.0043876283 0.05632973 0.015021617
000010 be d9 16 3d f0 67 1c 3d 72 dd 32 3d ff 71 d2 3c
       0.03682875 0.03818506 0.043668218 0.025689123
000020 d9 43 ff bc ff c1 9f ba 90 e9 e3 3c 7b f1 45 3d
       -0.031160282 -0.0012188553 0.027821332 0.048325997
000030 b2 6e 0c 3d 9a 2b f9 3c 9a 6a 2b 3d 67 7e f4 3c
       0.034285255 0.030416299 0.04184971 0.02984543
000040 7b a1 89 3c 0f d6 12 bc 1f b8 11 3d b1 74 0b 3d
       0.016800633 -0.008962168 0.035575982 0.034046832
000050 16 6b c1 bc cf 47 28 3d 4d 17 a3 3c 96 b7 23 3c
       -0.023610633 0.041084107 0.019908572 0.009992501
000060 6d 23 35 3d 04 04 02 3d 31 0d 85 3b b6 88 20 3c
       0.044223238 0.03174211 0.0040604104 0.009798219
000070 76 e6 3a 3d 0f b0 02 3d 61 61 63 3d d8 fd 37 3d
       0.04562994 0.031906184 0.05551279 0.04491982
000080 48 cd 96 bb e6 69 68 3c 11 96 b9 3c 65 11 2f 3d
       -0.004602108 0.014185404 0.022654565 0.042741198
000090 c6 4d aa bc 77 db fd 3c 1f 29 e0 bc b7 dc 04 3d
       -0.020789038 0.030988438 -0.027363358 0.032437053
0000a0 5f bf 25 3d 33 66 ac bc 61 94 51 3d 85 48 f0 3c
       0.04046571 -0.021044826 0.051166896 0.029331455
0000b0 b9 1b 8e 3c 95 d8 45 3d d9 fd 31 bc 34 43 28 3d
       0.017347204 0.04830225 -0.010863745 0.041079715
0000c0 a0 2d 83 3c df ff 8f 3c af e6 29 3d f1 bd fd 3c
       0.016012967 0.017578064 0.041479763 0.03097436
0000d0 a0 e0 dc bc 57 01 28 3d e6 be 49 3d 1f 76 09 3d
       -0.026962578 0.041016903 0.04925432 0.033559915
0000e0 48 f3 73 39 c2 6a f1 3c ce 6a 00 3d 42 16 39 3d
       0.00023264915 0.029469851 0.031351857 0.045187242
0000f0 fc cd 8b 3b cd b5 30 3d 6d 8a 24 3d b3 f9 c9 3c
       0.0042664986 0.04314213 0.040171076 0.024655199

lin2.weight f4 [5, 64]
000000 1e 80 f0 bd 5b 31 97 bc fe 07 20 3e 65 9b 84 bd
       -0.117431864 -0.018456152 0.15628049 -0.06474952
000010 ae 81 2f 3e 9a f6 b9 3d 7a 7d e2 bd 78 31 45 be
       0.17139313 0.09080239 -0.11059089 -0.19257152
000020 f2 b2 d3 3d 21 e0 b9 ba c1 d4 4a bc 94 93 4b bd
       0.103368655 -0.0014181176 -0.012379826 -0.04970129
000030 00 50 88 3d c9 2d 25 be 8d 81 df 3d 13 22 13 3b
       0.06655884 -0.16130747 0.10913382 0.002245073
000040 07 26 8a 3d a5 a8 9a 3d 12 11 1d 3d 23 ac 49 bc
       0.067455344 0.07551698 0.038346358 -0.012309107
000050 cf fb e9 bc 95 d7 a5 3d ed 57 b5 bd 99 8c d8 bd
       -0.028562455 0.0809776 -0.08854661 -0.10573692
000060 d9 19 0a 3e c2 f4 b2 3b 95 2e a2 bd 72 d9 1b be
       0.13486423 0.0054613063 -0.07919041 -0.15219668
000070 99 fa a9 3d 88 ca 95 3d 56 4b 48 bd 7b 95 c3 3d
       0.08299751 0.073140204 -0.04889997 0.095499955
000080 8c 0f 5a 3d 90 51 cf 3d a1 40 94 3b 68 b7 40 bd
       0.053237483 0.10122979 0.004524306 -0.04704991
000090 8b a5 ad 3d 5e e5 2a bd 7e ed 91 bd 3f 1a 1a 3e
       0.084788404 -0.041722648 -0.07125376 0.15049075
0000a0 79 11 4f bd ea ee f8 3c 0e 3d 73 bd 86 92 02 3e
       -0.050553773 0.03038736 -0.0593844 0.12751207
0000b0 f4 98 e0 bd 91 65 9a 3d 9a fa d7 bd 6d d9 93 3d
       -0.109666735 0.075389035 -0.10545845 0.07219205
0000c0 08 a4 c3 bb 36 71 1f 3e 09 8f 21 3e ef ac 1d be
       -0.005970482 0.1557053 0.1577722 -0.15398
0000d0 e7 e2 33 3b 9b 1f 28 3e aa cc 15 3d df fb ba bd
       0.0027448477 0.16418307 0.036572136 -0.09130072
0000e0 ea cd 94 bd 54 3e 16 be bb 94 0d be d0 73 1a 3d
       -0.072658375 -0.14672214 -0.13826267 0.037708104
0000f0 4f 31 0d bd dd a9 10 3e 7f da e2 bd 96 a1 b8 3d
       -0.034470852 0.14127298 -0.11076831 0.09015195
000100 e6 e1 67 3d fa 6f 32 3d f7 f3 31 3e ce d9 00 3d
       0.056611918 0.04356382 0.17378221 0.031457715
000110 00 08 2e be 61 40 f9 3d 4b be 07 3e 32 6e d9 bd
       -0.1699524 0.121704824 0.13256185 -0.10616721
000120 a6 85 70 3c b9 12 1c 3b d9 8e 2a be 98 84 ad 3d
       0.014680302 0.002381487 -0.16656055 0.08472556
000130 7b 4c 27 3e aa 25 20 be b4 df 04 3e 7c 7b 03 3e
       0.16337769 -0.15639368 0.12975961 0.12840074
000140 a5 1c a2 bd 29 e8 c8 bd 2e 5b 19 3e e2 bf ab 3d
       -0.0791562 -0.09809906 0.14976189 0.08386208
000150 a0 31 b6 bd 9b cf d2 bd 98 49 4b 3e 54 0a 1a 3e
       -0.08896184 -0.10293504 0.19852293 0.15043002
000160 08 f1 04 bd 46 38 1d 3e 4b 43 e6 3d 40 2a 3b bd
       -0.032456428 0.15353498 0.11243304 -0.04569459
000170 86 a9 09 3e 53 15 13 3e 1a 85 22 3e 9f e2 f0 3d
       0.13443574 0.14363603 0.15871087 0.117619745
000180 cb f0 08 3c e5 c0 c1 bd a4 0f d7 3d 0f ee 3d 3e
       0.008358191 -0.0946062 0.1050103 0.18547843
000190 11 3e 26 bb 64 86 c6 bd 34 da 3d bd 8d 87 d4 3c
       -0.0025366584 -0.09693602 -0.046350673 0.025943542
0001a0 c7 ec 53 be 48 b2 83 bd 58 77 d1 3d 2f 9f 19 be
       -0.20695792 -0.06430489 0.10227841 -0.1500213
0001b0 c8 a8 f2 bd d4 fe fd 3d f5 5a 2c bc 6a fd 8b 3d
       -0.11848599 0.1240212 -0.010519733 0.06835444
0001c0 ea eb 0f 3e 6d a2 bb bd bd 95 7b 3d 31 b9 b0 3d
       0.14054838 -0.0916184 0.0614221 0.086290725
0001d0 b2 0f c3 ba 4b cd 23 be fd 7e 10 be 64 48 19 be
       -0.0014881997 -0.15996282 -0.14110942 -0.14969021
0001e0 f0 65 5b bd 47 fe 37 3e b6 4e 01 3e 13 d1 e7 bd
       -0.053564012 0.17968093 0.12627682 -0.113191746
0001f0 dc 97 b5 3c 62 9b f5 bd 87 85 ea 3d 4e f2 9a 3d
       0.022167139 -0.119925275 0.114512496 0.07565747
000200 41 01 1b be 35 20 c4 bd fa d3 04 be 2f 1c 04 be
       -0.15137197 -0.095764555 -0.12971488 -0.12901376
000210 f4 ca a9 bd 58 16 1e 3e 2d 5d 04 be 4e ed 4d 3e
       -0.08290663 0.15438211 -0.12926169 0.20110056
000220 c2 e0 2c bd f6 89 0c ba 9a e8 0b 3e 92 ca 00 be
       -0.042206533 -0.0005361134 0.13662949 -0.12577274
000230 ac 09 09 3e 6b 86 22 be 23 86 fc 3d 57 51 1b 3e
       0.13382596 -0.15871589 0.12330272 0.15167747
000240 5c 16 43 bd b3 9e 55 bc 63 63 b3 3d ab c9 21 be
       -0.047628745 -0.013038325 0.08759191 -0.15799586
000250 46 65 f7 bd 3e 5c dc 3d c8 98 07 be ee 99 84 3d
       -0.12079863 0.10759781 -0.13241875 0.06474672
000260 8a a5 ea bd 36 21 eb bb 17 be 5f 3d 1c 52 22 3e
       -0.11457355 -0.00717559 0.054624643 0.15851635
000270 13 96 03 3e cd 1d a5 bd ac e7 33 be 06 65 0b be
       0.12850218 -0.08062325 -0.17568845 -0.13612756
000280 6c 32 95 3d ea a4 31 3d 54 03 0d 3e 13 fb bd bd
       0.07285008 0.043370165 0.13770801 -0.09276404
000290 dd 61 cb 3c bd 09 ff 3d a5 38 2e bc 0c 4a 35 3e
       0.024826938 0.12453029 -0.010633622 0.17704028
0002a0 75 d8 35 3e 06 41 33 bc 2c ac 0c be c8 b1 17 bd
       0.17758353 -0.010940796 -0.13737553 -0.03703478
0002b0 70 8b bd 3d 47 9e 25 be ec 82 42 bd 4e 26 1d be
       0.09255111 -0.1617366 -0.047488138 -0.15346643
0002c0 4a 58 a9 bd e3 f2 37 bd b3 1a a1 3c 1d 7a 0d be
       -0.08268793 -0.04490937 0.019666051 -0.13816114
0002d0 f0 06 c6 3b 3a 0d 87 bd 1f 6f 36 be fc 8c 98 3d
       0.0060433075 -0.0659432 -0.17815827 0.07448766
0002e0 57 b0 e6 3d cf c7 95 3d 94 67 10 be c1 d5 a0 3d
       0.11264103 0.07313501 -0.14102012 0.0785327
0002f0 1c 8e b0 bd 8b 72 94 bd 87 4a 09 3e f1 84 16 bd
       -0.08620855 -0.0724841 0.13407336 -0.036747877
000300 36 d9 3e be b0 21 38 bd 70 81 1d be 5f b5 6c bd
       -0.18637547 -0.044954002 -0.15381408 -0.057790156
000310 4e 0e 4e bd e5 e2 33 3d 8d 03 ca 3d 5d f5 4c be
       -0.05030661 0.043917555 0.098639585 -0.20015474
000320 c8 fb ef 3c c5 01 f9 bc d8 c9 12 be 50 4d 05 be
       0.029294863 -0.030396352 -0.1433481 -0.13017774
000330 b6 e2 63 bd a0 16 39 3e 5e 61 63 be e0 08 66 be
       -0.05563613 0.18075037 -0.22205111 -0.22464323
000340 dc d2 7c bd 2c b8 d4 3c 49 93 e1 bd 85 c3 ea 3d
       -0.06172453 0.025966726 -0.110144205 0.11463074
000350 dc fe 8a bd 35 e5 4b be 60 ce a1 3d 7c 42 ea 3c
       -0.06786892 -0.19911654 0.07900691 0.028596155
000360 7f 62 ed bd 61 2b f6 bd 6a 9d 7a bd 2c 58 31 3e
       -0.11591052 -0.120199926 -0.061185278 0.17318791
000370 e2 8d 36 be 0b 5d ad bd cb 5a 0f 3e 3b e4 04 be
       -0.17827561 -0.08465012 0.13999479 -0.12977688
000380 6c 72 fc 39 dc fa 7c bd ec 63 03 3d 1d 73 0e 3e
       0.00048150436 -0.061762676 0.032077715 0.139111
000390 d1 4d 52 3d 4f f6 1d 3e 04 20 2a bc 35 1e 14 3d
       0.051343743 0.1542599 -0.01038361 0.03616162
0003a0 71 80 d4 bc fa e4 e2 bc 64 67 c5 3d 61 c3 d2 3d
       -0.025940152 -0.027697075 0.09638861 0.10291172
0003b0 df 59 14 be ab ff 11 be e1 61 da bd 24 a9 07 be
       -0.14487408 -0.14257686 -0.106632 -0.13248116
0003c0 13 15 97 bd b8 c3 3b 3d 11 ec 1a 3e 9b 57 d8 3d
       -0.073770665 0.04584095 0.15129115 0.105635844
0003d0 a0 ab 75 ba 2a 35 f3 3b 10 e7 15 3e 87 6d c0 3d
       -0.00093715824 0.007422109 0.14638925 0.09395891
0003e0 de b6 60 3c e7 c1 9a bd b6 44 d1 3d 5c 80 14 be
       0.013715474 -0.07556515 0.10218184 -0.1450209
0003f0 6d fb 03 bd 95 9f d7 bd 2c fd 38 3e a9 f1 19 3d
       -0.0322222 -0.10528485 0.18065327 0.03758398

lin2.bias f4 [5]
000000 7e 62 b6 3b 2b ce 71 bd 9d 78 92 3c e9 52 d7 3b
       0.0055659404 -0.059034508 0.017879779 0.006571163
000010 70 d9 96 3d
       0.07365692

prop1.temp f4 [11]
000000 69 0a 82 3f b0 5c 8f 3f 47 0a 90 3f 7a 85 89 3f
       1.0159427 1.1200161 1.1253136 1.0743859
000010 06 1b 88 3f 22 39 87 3f 6c 12 86 3f 28 00 84 3f
       1.0633247 1.056431 1.0474372 1.0312548
000020 4c d9 7f 3f 1b 76 73 3f f7 b5 6b 3f
       0.99940944 0.9510209 0.9207453
