save_parameters/BernNet_BernNet_model.pt (torch, 538826 bytes, 5 tensors)

lin1.weight f4 [64, 2089]
00000000: 6e2b 183d 6263 473c 73f2 aab9 7762 623d
00000010: df70 debc c095 b4bd d1c9 81bc 3522 3bbd
00000020: a4b3 3ebd 98cf 1ebb acca d539 4100 51bc
00000030: d21a 423d 2323 66bd f366 883d d3c8 213c
00000040: 5af2 a6b7 b65c 013c 0645 2e3b c738 81bd
00000050: 5a78 8a3c cc4f 75b8 6daa 223d d34f 3ebd
00000060: 7ccd a23a ebe1 983c 4f0f 9dbd 4d26 af3b
00000070: a6ae 1ebd 65c7 ad3d 4795 a33b 7aea dd3a
00000080: 89f6 0abb 3cfd 213d 3c24 6abd 94f5 88bd
00000090: f165 083c 35d7 c137 0e4e a43d 1e34 4a3a
000000a0: c0ac cf3c dbae ecb8 2f7a 09bd ef4a 38bd
000000b0: 09dd bf3b 4e3d 39bd df83 a1bc dacb 8eb9
000000c0: b419 333c 7b60 31b9 0edc 413d 8756 0cbd
000000d0: 4ffd 16bd 2eef b53b aa23 a0ba 0c8f 7c3d
000000e0: c3dd 4a3c 39df 86bc f1ba 363d 62e6 79bb
000000f0: 4516 f3b8 40cb 8438 df67 783c 848f 16bd
00000100: 7ea2 a4bc 6359 9e3c 54c7 ebbb aab4 e3ba
00000110: 0544 c0bc 05a2 1c3b ab19 61bc 94c5 9cbd
00000120: cb22 75bd 43cf d13b 88d8 ce38 86d2 95ba
00000130: 245f 4b3d 0a71 ec37 fcb9 0c3d 40c6 d83b
00000140: 2c01 6738 7a84 69b8 3f40 2a37 160f a9bc
00000150: 65f5 0f3d f552 e7b8 1f3e 1d3c 54d8 6b3c
00000160: 25b3 3a3c 90c3 01bc a0b0 28bb 4cdd 88bd
00000170: 056e 883d 58fa 9ebb 5657 083d 29c0 79ba
00000180: ef27 953b 41c8 7f3b 2997 5d3b c7cd d8bd
00000190: fa32 243c 73f8 67bd 9003 cd3c fbe6 7cbc
000001a0: 0e44 96bc 810c 3dbd c389 8ebc eb27 813c
000001b0: cf09 9dbb d2f9 05bd 3edc bbbc db97 5dbd
000001c0: 0d45 e73c a045 783d 9d49 81b9 3fc7 6f3b
000001d0: 9e4f 92ba f9f5 fc3b cce2 6dbb dcdc 23bb
000001e0: e1cc b83d 3cf0 c3bd fb40 673b 1e09 74bd
000001f0: 7a3b a2bd 04c6 e839 367d 1cbd c0b3 6ebd
00000200: 4e97 fd3b 9c5c af3c 7c3a 9a3b 930d 10bd
00000210: 1178 4dbd 3281 97bc 8829 6b38 7a55 353c
00000220: 6cb7 cf3a 6726 9dbc 4711 243d d09c 57bd
00000230: f270 0abd d861 6ebc ff43 8f3c a8bc 7c39
00000240: a1b3 c63c fd80 dfbd fc09 ec38 7ac2 45bc
00000250: e864 44bd ed4f 4db9 6f1b cc3c 89a4 bdbd
00000260: 25bb 9fbc 02e3 9a3c 75be a8bc edac 4bbd
00000270: d6bf d4ba a0cf e83c d8ba b238 adaa 84bc
00000280: 0c64 5d3b e560 d1bc ef22 1939 acd4 0db9
00000290: bfbb 1e3a 0882 56bd 462f 5db9 5f39 383d
000002a0: 5bb6 01bd 16f7 673b 5c73 89bc 2e92 ce3c
000002b0: a8b4 e03b 24a7 0439 0008 85bb 8acc d33c
000002c0: d5b2 1f38 e4f6 493a a71d 56b9 f70f 85bd
000002d0: 2087 613d be32 b63d 88a0 773c ba41 f43c
000002e0: 20ae eb3c 2dd1 2d3b 4a03 943d 605c d6b6
000002f0: 32e3 21bd 8641 95bc 8452 1fbd f926 3d3c
00000300: 58b2 3839 ff19 79bd 3d92 163c 40f1 58b9
00000310: 82aa 2a3d c29b abbc 26b4 0dbb 72b9 853a
00000320: bd89 f638 d716 ebbb ef7a 353c 1c36 31bc
00000330: 543a f5bc 5227 5e3d 9b76 03bd 4752 043c
00000340: efa5 81bd e69d fbb8 302a e7ba aa8f d4b7
00000350: ac0e 653d dc55 c53c c050 02b9 7c8c e83c
00000360: 1201 123d 5029 23bd 4ded 543d 67fe 8c3d
00000370: 8101 7b3c 6cc7 08b9 16db c1bd 1819 86bc
00000380: 4232 723d 910a 163c 0c1b 1bb8 c352 173d
00000390: 1c6a 25bd f98e 82bc 0371 b13d f9c0 aabc
000003a0: 10ef 223d ab0b 92bd a888 ab3a e154 863c
000003b0: deb6 443d 6530 ea3c f48c 483c f063 30bc
000003c0: 59c3 023c e97e 04bd fa0c f1bc 174b 393d
000003d0: 626b 6fba 1359 1cbc e47f 21b9 619d c53a
000003e0: 8ee1 c838 c5e7 32bd d147 c3bd 8a66 92bd
000003f0: 983b 73bd e225 3a3b c86b febc 56fa 7c3c
0.037150793 0.012169691 -0.00032605566 0.055269685 -0.02715343 -0.08817625 -0.015843304 -0.04568692
-0.046558037 -0.0024232622 0.00040777528 -0.012756408 0.04738886 -0.056185853 0.06660261 0.00987454
-1.9901596e-05 0.007895639 0.0026591434 -0.063096575 0.016903091 -5.848687e-05 0.039713312 -0.046462845
0.0012420858 0.018662414 -0.076689355 0.005345142 -0.038740776 0.08485297 0.0049921605 0.0016930841
-0.0021204075 0.039548144 -0.057163462 -0.06687465 0.008325086 2.3107606e-05 0.080227 0.00077134545
0.025350928 -0.00011285926 -0.03356379 -0.044993337 0.005855207 -0.04522448 -0.019716201 -0.00027236232
0.010931421 -0.00016915977 0.047329 -0.034262206 -0.036862668 0.005552194 -0.001221766 0.061659858
0.012381974 -0.016463863 0.044611875 -0.0038131704 -0.00011591291 6.332109e-05 0.015161484 -0.03675796
-0.020097014 0.019329732 -0.0071953926 -0.0017372568 -0.023469934 0.0023900282 -0.01373903 -0.076548725
-0.059847634 0.0064028814 9.8631775e-05 -0.0011430539 0.04965128 2.818603e-05 0.034357056 0.00661543
5.5075783e-05 -5.5674907e-05 1.0147748e-05 -0.020637076 0.035146136 -0.0001103039 0.00959733 0.014394838
0.01139525 -0.007920161 -0.0025740042 -0.06682834 0.066616096 -0.0048516206 0.033286415 -0.000952723
0.0045518796 0.0039029273 0.0033812022 -0.10586124 0.010021919 -0.056633424 0.025026113 -0.015435929
-0.018342998 -0.046154503 -0.017399674 0.015766105 -0.004792429 -0.03270895 -0.022932168 -0.0540999
0.028231168 0.060613275 -0.00024659644 0.0036587266 -0.0011162644 0.007719752 -0.0036298512 -0.0025003469
0.090234526 -0.095673054 0.0035286534 -0.059579007 -0.079215005 0.0004439802 -0.038205348 -0.05827689
0.007738984 0.021406464 0.004706679 -0.035169195 -0.050163332 -0.018494222 5.6067045e-05 0.0110677425
0.0015847511 -0.01918335 0.04005554 -0.052639782 -0.03379912 -0.014549695 0.017488478 0.00024102873
0.024255576 -0.109132744 0.00011255217 -0.012070293 -0.047947794 -0.00019580098 0.024915425 -0.09259898
-0.019498417 0.018907074 -0.02059863 -0.04972546 -0.0016231488 0.028419316 8.522504e-05 -0.016194666
0.0033781556 -0.025558898 0.00014604231 -0.00013526034 0.0006055198 -0.0523701 -0.00021093813 0.04497659
-0.03166805 0.0035395077 -0.01677864 0.025216188 0.0068574734 0.00012650766 -0.0040597916 0.025854368
3.8075104e-05 0.0007704331 -0.00020419677 -0.06497186 0.055060506 0.08896397 0.015113957 0.029816497
0.028769553 0.0026522384 0.0722719 -6.388451e-06 -0.03952331 -0.01821972 -0.038897052 0.011544936
0.00017614046 -0.060815807 0.009190139 -0.00020689238 0.041666515 -0.020948295 -0.002162227 0.0010202362
0.0001175585 -0.0071743536 0.011076673 -0.010816123 -0.02993504 0.054236718 -0.032095533 0.008076257
-0.063304774 -0.000119980235 -0.0017636474 -2.5339268e-05 0.055922195 0.024088793 -0.00012427848 0.0283873
0.035645552 -0.03983432 0.05198412 0.06884461 0.015320183 -0.00013044261 -0.094656155 -0.016369388
0.05912996 0.009157793 -3.698007e-05 0.036944162 -0.040384397 -0.015937315 0.086641334 -0.02084397
0.03977877 -0.07131132 0.0013086991 0.016397895 0.04802596 0.02858753 0.012240637 -0.010766014
0.007981145 -0.032347593 -0.029425133 0.045237627 -0.0009133128 -0.009542721 -0.000154018 0.001507681
9.578756e-05 -0.043678064 -0.09535182 -0.07148464 -0.059383005 0.0028403928 -0.031057253 0.015440544

lin1.bias f4 [64]
00000000: 31c9 383d 1b62 1d3d ff96 8c3d 4e7b 193d
00000010: 6b23 a73c f420 143d 0f99 b93c 0849 233d
00000020: 120c f33c faf9 233d bf5b 903c a879 c4bb
00000030: 8b64 2b3d 6f87 213d 09a6 e23c dbc6 a83c
00000040: fa0d 1d3d fbcc 903d 7f41 b23c a3a5 183d
00000050: a85c 023d 3cc7 0a3d 46cd 033d 6083 1d3d
00000060: 93f1 e93c 284b 183d 7613 d23c edfd 6f3d
00000070: 6f02 e73c 74b6 1a3d b046 c33c 3b14 283d
00000080: 1bd9 f93c 383e 803c 23f7 fa3c 259b 9a3d
00000090: 955e 1a3d 6687 9c3d 8663 0d3d c889 5d3d
000000a0: cc3e 1d3d c6b9 403d def0 063d c45f 463d
000000b0: e0c9 1f3d a994 3d3d 1172 093d 6c11 3f3d
000000c0: caa0 003d 8e9e 2b3d e924 353d 95e6 093d
000000d0: 224b 353d e731 3d3d 4873 293d 0bcc d13c
000000e0: 4840 183d 6781 3b3d b2db ac3c a904 d53c
000000f0: e228 2c3d c866 833d 951b cf3c f452 643d
0.045113746 0.03842364 0.06864738 0.03747111 0.02040263 0.03616424 0.022655992 0.03986457
0.029668842 0.040033318 0.017621873 -0.005995948 0.041843932 0.0394358 0.027667062 0.020602634
0.038343407 0.07070347 0.021759747 0.03726734 0.031826645 0.03388141 0.032178186 0.038455367
0.028557574 0.03718105 0.025644045 0.058591772 0.028199403 0.037771657 0.023837417 0.04103492
0.030499032 0.015654668 0.030635422 0.07549123 0.037687857 0.07643013 0.03451874 0.054086477
0.038389966 0.047052167 0.032944553 0.048431173 0.039010882 0.04628435 0.033556048 0.046647474
0.03140334 0.041899256 0.044224653 0.033667166 0.044261105 0.04619017 0.041369706 0.02560999
0.03717068 0.045777705 0.021100853 0.026003199 0.042031176 0.06416088 0.025281707 0.055743173

lin2.weight f4 [5, 64]
00000000: 2d6f 7a3e 3b34 c83e 118e 05be 61e4 b6be
00000010: 0bf4 143e 2ea1 c03e f2a2 603e 0857 a53e
00000020: e520 64be d885 92be 4f23 ca3d 7b25 13bb
00000030: 96f7 9d3e 0ae3 843e 7028 6dbe e442 87be
00000040: faa9 aebd dbbd 5fbe 25aa 7c3e d6f0 5abe
00000050: 9842 2abe d40d 9a3e 9fc8 623e 9d66 a93e
00000060: bc29 9dbe 0de3 aa3e 665f a53e 9e85 70be
00000070: 4e8b 94be 0b61 b7be 627f 23be 6822 b13e
00000080: d463 8fbe a012 2dbb 01c3 2c3e d7d2 a0be
00000090: 87ea aebe 13a8 54be a85d b4be 2668 a33e
000000a0: 8abb 943e 0242 b73e b63d edbd 52d6 8b3e
000000b0: 0244 6cbe 34cf bc3e a5d8 a83e 5213 b8be
000000c0: 0e34 acbe 4cc9 b8be fa50 cc3e d546 ac3e
000000d0: 882a be3e 7ecb 7dbe 0aaa a13e 2af9 82be
000000e0: 09d5 913e 1d3b b53e 8a1c bb3d 3a62 77be
000000f0: ebaa b6be c5a2 973e e145 a43e dd41 2cbd
00000100: 4599 4d3e de2b aabe b642 d2bb 5a3d 843e
00000110: 2bd2 26be 5240 853e 91c0 873e 3820 09bd
00000120: e018 3bbe e5ad 833e bc14 38be 0075 983a
00000130: 51a2 bdbe 8089 55be a168 9e3e b148 713e
00000140: 162f b23e ed86 6f3e 972c 40be bdd6 ad3e
00000150: d5f2 633e bbb0 9bbe c9ca 8e3e 5d16 b33e
00000160: e2df b13e e646 9e3e 4233 8abe f19c 78be
00000170: b4df 833e efc4 513e 6e26 a73e c8b5 c03e
00000180: c61a 9abe 5c09 03be 0ff3 2a3e 4ad4 383e
00000190: 6dc6 4c3e 447e 67bb cbce b33e 07ac 81be
000001a0: e0bd f23d 66bb 853e 1647 bcbe f48e 9e3e
000001b0: 1971 a0be 469d 793e 556f 883e 5383 9bbe
000001c0: 00aa 913e 103d 81be d279 abbe bced 9bbe
000001d0: fec0 84be b7a7 37be 7ca9 b43e c71c 663e
000001e0: ce98 b63e fe97 af3e 5c16 6e3e 5f50 8c3e
000001f0: 351d 53be 8b80 97be bcc5 14be 4a50 55bd
00000200: 2899 9dbe 549e 673e 5c91 15be 2990 3e3e
00000210: a6a3 e03d 41c5 d43d 7380 733e 891d a7be
00000220: f8b4 d33d 3375 b53d f04d 4b3e 56d5 10ba
00000230: b3b9 5a3e d6be 1bbe 1035 aa3e 02cf 933e
00000240: dba0 bcbe 6660 94be 45be 603d 8e8f a23e
00000250: 3c11 073e c034 bd3e e493 6e3e 7246 61be
00000260: 8a06 8a3e b6cd 92be 527d a43e dc80 7f3e
00000270: 6cf3 b83e 5681 283e 33dd a33e 191c bdbe
00000280: 7f6f 7a3e 98e7 783e 925f bd3e 3a16 06be
00000290: 4bfe 703e 3698 083e bc0e 4b3e d2ad 5ebe
000002a0: 93fc 43be 3935 b3be 5170 953e d458 90be
000002b0: 7dee c93e 5614 b3be b42d 48be 5450 693e
000002c0: 28c4 9a3e 02a0 7c3d 3e56 99be f770 82be
000002d0: 31f1 903e b693 b6bc c817 6cbe a606 1f3e
000002e0: 7823 a8be 4f49 b8be acf4 313e d4b5 9c3e
000002f0: d5a7 a73e 8490 9fbe b9ec 993e 1848 42bd
00000300: 0273 99be 8810 bdbe b0cf 363e 1f64 613e
00000310: d46d 0abe 4c64 9cbe 1087 99be 3402 bdbe
00000320: 3810 be3e a0de b13e 43c6 21be 23f4 0dba
00000330: cd88 833e 02cc a63e ea34 c4be 4faf 7dbe
00000340: 231f aabe 4543 c23e 44f8 bfbe acf6 89be
00000350: ac4d ac3e 0c48 42be 024c bebe 0230 34be
00000360: 5fd9 e7bd f52a c5be a691 9fbe d6d2 653e
00000370: b738 a2be 2f4e 193e 793b a7be 5002 bfbe
00000380: 60ef 013d c102 4cbe e84b a5be 6bfe 973e
00000390: b2e2 513e ac3a 773e 8250 a2be 6e3b 99be
000003a0: b651 a83e 06d5 a1be f0d5 8cbe c065 8cbe
000003b0: 38e0 abbe 9155 62be 9289 57be e048 813e
000003c0: 66e6 97be ee94 123e 3f4d 863e 47bc 4fbd
000003d0: c895 c2be 06ba 6fbe ba13 b6be 93e8 dabc
000003e0: 9efd 71be fb42 58be ce7e 923e ed19 b8be
000003f0: 3f2e 813e 275c 1abd ebae 703d 321c e23c
0.24456473 0.3910235 -0.13042475 -0.35721114 0.1454622 0.3762297 0.21937159 0.32292962
-0.22278173 -0.2861774 0.09870016 -0.002245276 0.30852956 0.25954467 -0.23159957 -0.2641822
-0.08528514 -0.21849768 0.2467428 -0.21380934 -0.16626966 0.30088675 0.22146843 0.330861
-0.30695903 0.3337635 0.32299346 -0.23488471 -0.2901253 -0.35816225 -0.15966561 0.34596562
-0.2800585 -0.0026408806 0.16871263 -0.31410858 -0.34163305 -0.2076724 -0.35227704 0.31915396
0.2904933 0.35792547 -0.11584036 0.2731195 -0.23072818 0.36876833 0.32977787 -0.3595224
-0.33633465 -0.36091077 0.3990553 0.3364779 0.37141824 -0.24784657 0.31575042 -0.25580722
0.28482845 0.35396662 0.09136303 -0.24158564 -0.35677275 0.2961637 0.32084563 -0.042055
0.20077999 -0.33236593 -0.006416644 0.25828058 -0.1629111 0.26025635 0.26514104 -0.03347799
-0.18271208 0.25718608 -0.1797666 0.0011631548 -0.370379 -0.20853233 0.309392 0.23562886
0.3480155 0.23391314 -0.1876701 0.33952895 0.22260602 -0.30408272 0.27889088 0.34978
0.34741122 0.30913466 -0.26992232 -0.24278618 0.2575661 0.2048528 0.32646507 0.37638688
-0.30098552 -0.12796539 0.16694282 0.18049732 0.19997568 -0.0035323063 0.35118708 -0.2532656
0.11852622 0.26119536 -0.36772984 0.3096844 -0.31336287 0.24376401 0.2664744 -0.3037363
0.28450012 -0.252419 -0.3349138 -0.30454814 -0.2592849 -0.17935072 0.35285556 0.22471915
0.35663456 0.34295648 0.23250717 0.27405068 -0.2061661 -0.29590258 -0.14528555 -0.052078523
-0.3078091 0.22618991 -0.14606231 0.1860968 0.109687135 0.10389186 0.23779468 -0.3263972
0.103372514 0.088602446 0.1985395 -0.00055249536 0.21359901 -0.15209517 0.33243608 0.28868872
-0.36841473 -0.28979796 0.054868955 0.3175015 0.13190168 0.36954308 0.23298603 -0.21999529
0.26958114 -0.2867257 0.32126862 0.249515 0.36123216 0.16455588 0.320047 -0.369355
0.24456595 0.24307096 0.36986977 -0.13094416 0.23534505 0.13339314 0.1982984 -0.21745995
-0.19139318 -0.35001543 0.29187253 -0.2819277 0.39439765 -0.34976453 -0.19548684 0.22784549
0.3022778 0.061676033 -0.2994861 -0.2547681 0.28309014 -0.022287231 -0.23055947 0.1552988
-0.3283956 -0.3599343 0.17378491 0.30607474 0.32745233 -0.31164944 0.30063418 -0.047432035
-0.29970556 -0.36926675 0.17852664 0.2201085 -0.13518459 -0.3054527 -0.29985857 -0.36915743
0.3712175 0.34740162 -0.15798287 -0.00054151024 0.25690308 0.3257752 -0.3832162 -0.24773906
-0.3322688 0.37941948 -0.374941 -0.26946008 0.3365301 -0.18972796 -0.37167364 -0.17596439
-0.11320757 -0.38509336 -0.31165808 0.22443709 -0.31683895 0.14971231 -0.32662562 -0.37306452
0.031722426 -0.19922926 -0.32284474 0.29686293 0.20496634 0.24143475 -0.31702048 -0.29928154
0.3287484 -0.31607836 -0.2750697 -0.2742138 -0.33569503 -0.22102953 -0.21048573 0.25250912
-0.29667968 0.14314625 0.2623081 -0.050716665 -0.380049 -0.23410806 -0.35561925 -0.026722228
-0.23631904 -0.21119301 0.2861237 -0.3595728 0.25230595 -0.03768554 0.058760565 0.027601335

lin2.bias f4 [5]
00000000: 8131 3bbc d81d d9bd 3595 1abe e3af 193d
00000010: 6d0c 163e
-0.011425377 -0.10601395 -0.1509598 0.037521254 0.14653178

prop1.temp f4 [11]
00000000: b97f 623f e926 9a3f b3c8 9f3f 64b8 a23f
00000010: 8bb3 a33f 3abd a33f bd20 a33f 4b4c a13f
00000020: 6bd1 9c3f 4beb 903f 0afb 663f
0.8847614 1.2043124 1.2483124 1.2712522 1.2789167 1.2792122 1.2744366 1.2601408
1.2251409 1.1321806 0.90226805
