save_parameters/BernNet_model_0324_1040.pt (torch, 599324 bytes, 5 tensors)

lin1.weight f4 [64, 2325]
00000000: 12b1 4dbd 9215 56bc ac15 e6bb d0c6 d7bc
00000010: f7d4 c6bc 4689 66bd 481f 373b 9162 17bd
00000020: f78e b2bd 8e3e 063b a30b 063d a0fa 743c
00000030: add9 b73b 9cc6 de3c f8c1 af3c d66d 30bd
00000040: 3b57 823a d2a2 1ebb 3838 323c 427b 84bd
00000050: 2187 87ba eb29 57bd 110e a6bd 3e60 623c
00000060: fe39 84bc 9b20 05bd 6e14 7abb 7fb4 0fbc
00000070: 4aa2 8e3d 333f 2ebc 9e95 0aba 2c4d 4d3b
00000080: e0a9 e7bc 4d88 80bd b508 9bb8 4a59 183d
00000090: 12cf 9a3c 8466 3d3d 99cd 98bc 96b4 9a3b
000000a0: e85a 35bd 6840 a0bd 6c1f 89bd 547f 14bd
000000b0: 474b eb3c ffb8 693d 7c0a e83c a629 a1bb
000000c0: cc20 103b 288b 9fbd 50b9 c6bd 9944 28bd
000000d0: b7f4 f1bb 7890 e13a f242 163b 52ce b83d
000000e0: fa84 acbd 1eff c03a 0a16 82bd 6806 873c
000000f0: bd9c 35bc 5a4f 593c 2151 023c 1e45 62bd
00000100: 8c50 f7ba 437f 853c dee7 b63b 2ebd 0d3b
00000110: 29e4 c63b 2055 eebb 67df 5a3c 0393 983b
00000120: f037 3c3a 1e88 85ba b548 d63c 6fb9 173c
00000130: 2008 783c 9334 80bd c716 4e3c 5684 523c
00000140: 7446 5bbb 0951 b33c 9cba 1f3b a658 efbb
00000150: 277c 92bb 3bf3 93bd c384 4c3b f070 ce3a
00000160: e3f7 893d 43c9 a03b 7e4a 78bd a296 a83c
00000170: c41b f43c acaa 343c c6d0 e1ba 297d 823c
00000180: 10aa 7c3d c678 86ba aa6d 133d e367 8dbd
00000190: 7c67 f1ba 58ef 843c 7f40 a33d daff 8b3c
000001a0: 12e6 e7ba 44f7 a8ba cb58 a03b e308 70bd
000001b0: 8862 043d ae80 70bc 73bd f63b 405e d3b7
000001c0: 8436 7d39 c576 593c b78f 773a d3d9 78bd
000001d0: 4ae7 5ebd da0d 443a e752 b33d 7a05 9b3c
000001e0: 812d e03c 0e38 0e3c fb08 14bd a7be 8abd
000001f0: 3db3 d2bd be40 213d 2444 423c 61a9 233c
00000200: 44ad 49bd 406f 173c 5c50 02bb ae94 1e3b
00000210: daf1 5fbd 91da bbbc 725a 5c3b b69c a6bb
00000220: fa00 12bd 9a81 8938 a8aa c5bb 86bd 26bc
00000230: 26c2 143d 6012 99bb 50dd afbc 57d6 3d3d
00000240: 5cef b4ba 20fe 1dba f06e fa39 77bd 193b
00000250: 6824 08bd d8c5 53bd 5725 6d3b acf2 5839
00000260: 7dde 033d cc34 b63d c94e f8bb f5d8 313d
00000270: 0200 0b3b dfa8 90bc c63e 6539 d6c0 36bd
00000280: baa3 653b e627 413c 441c 383b 5145 d43d
00000290: 1961 cc3b 85cf 033d c840 1f3b 2024 8b39
000002a0: e2f4 a13d 265a c23b 31da 7a3c 8b43 173c
000002b0: 28f9 cb3b 3bbe 153d 8ec4 84bd 1dd0 22bc
000002c0: df34 48bb b8c6 db3b bba5 83bd 493b b23c
000002d0: c752 29bc 7652 8bbd 077d 1b3c 80bb d53b
000002e0: 16a5 40bd 05c1 453b 04cd efba 8431 26ba
000002f0: 2040 b23a 3c70 29b8 6595 1f3d b3cd cc3d
00000300: 0f3a c03b 0e2f f13c e059 0f3b 0438 b3ba
00000310: 9f80 063b 0ee4 bb3a 7cd6 023c e3e1 503c
00000320: 8b80 c8bc fe8b d8bc c992 a23d 8f90 2e3c
00000330: 522a c13c d9a4 55bb 15fb b63b d82b b23d
00000340: f189 263c 7acd 063c 615a 4abd 3feb 023c
00000350: a5bc 0d3a 26bc f83a 2f41 70bd 9acb b53b
00000360: da62 a439 507a 3dbd 9c60 c53d 2b66 2ebb
00000370: d06a 90ba 5a8b 333c 1a9c 333c 51ad 143d
00000380: acc5 3bbd d092 bfb9 d09a e43b e4ad 56bd
00000390: 8667 863a 4250 47ba 52d6 103b a5e4 873b
000003a0: b8bc 7e3b 2d83 753c c17d d8bb b18d e83c
000003b0: 6598 91ba e0ce 8fbd 2bc4 9cbd af92 bfbd
000003c0: 96f3 063c 5529 48bb 4118 cb3c 50f6 30bd
000003d0: cf16 a53d ae63 243b 156d b53b 7d06 55bd
000003e0: 97e9 fc3b 308a 81bb b948 23bc d24c 21bc
000003f0: ccf1 693b eb0b b33c 9820 aaba 2201 933b
-0.050217696 -0.013066666 -0.0070216265 -0.026339918 -0.024271471 -0.056283258 0.002794223 -0.036959235
-0.08718675 0.0020484063 0.03272594 0.014952332 0.005610666 0.027194314 0.021454796 -0.043073498
0.000994421 -0.0024205935 0.010877661 -0.06468822 -0.0010339954 -0.05253021 -0.08108152 0.013816891
-0.016140934 -0.032501798 -0.003815915 -0.008771061 0.06964548 -0.010635185 -0.0005286577 0.0031326516
-0.028279245 -0.06275997 -7.392598e-05 0.037194528 0.018897567 0.046240345 -0.018652724 0.0047212346
-0.044276148 -0.078247845 -0.06695446 -0.036254242 0.028722418 0.05706119 0.028325312 -0.004918295
0.0021992205 -0.07790214 -0.09703314 -0.041081045 -0.0073839086 0.0017209193 0.0022928086 0.090237275
-0.08423801 0.0014724468 -0.0635186 0.016482547 -0.011084733 0.013263548 0.007953913 -0.055241697
-0.0018868609 0.016296035 0.00558184 0.0021627652 0.0060696793 -0.0072733313 0.013358927 0.004656197
0.0007179966 -0.0010187661 0.026157716 0.009260519 0.015138656 -0.06260028 0.012578673 0.012848934
-0.0033458741 0.021889227 0.0024372702 -0.007304269 -0.0044703665 -0.07224127 0.0031207062 0.0015750211
0.06736734 0.0049068048 -0.060617916 0.02057964 0.029798396 0.0110270195 -0.0017228357 0.015928822
0.06168562 -0.0010259382 0.035993256 -0.069045804 -0.0018417682 0.01622741 0.07971286 0.017089773
-0.0017692468 -0.0012891074 0.0048933974 -0.058602225 0.03232053 -0.014679117 0.0075299083 -2.5197049e-05
0.00024148269 0.013272946 0.00094437174 -0.06075461 -0.054419793 0.00074788707 0.08756047 0.01892351
0.027365448 0.008680357 -0.036141377 -0.06774645 -0.10288093 0.039368384 0.011857066 0.009989114
-0.049237505 0.009242833 -0.0019884324 0.0024197507 -0.054674007 -0.022931369 0.0033623246 -0.0050845994
-0.035645463 6.556809e-05 -0.0060323067 -0.010177022 0.036317967 -0.00467138 -0.021467835 0.04634699
-0.0013804245 -0.0006026942 0.0004776637 0.0023458877 -0.033237845 -0.05170235 0.0036185586 0.00020689768
0.032194603 0.08896789 -0.0075777513 0.043419797 0.0021209721 -0.017658649 0.00021862527 -0.044617496
0.0035040216 0.011789298 0.002809302 0.103647836 0.006237161 0.032180328 0.0024300087 0.0002653906
0.07908036 0.0059311567 0.01531081 0.009232412 0.00622477 0.03655837 -0.06482802 -0.009937313
-0.0030549092 0.0067070387 -0.06428095 0.021756785 -0.010334677 -0.068028376 0.009490258 0.006522596
-0.04703244 0.0030174863 -0.0018295352 -0.0006339776 0.0013599433 -4.0397266e-05 0.038960833 0.100001715
0.005866296 0.029441383 0.0021873638 -0.001367331 0.0020523441 0.0014334933 0.007985707 0.012749168
-0.024475357 -0.026433941 0.07938153 0.010654583 0.02357975 -0.0032599478 0.0055841305 0.08699769
0.010164724 0.0082277 -0.0494026 0.007990657 0.00054068334 0.0018976971 -0.058655914 0.005547953
0.00031354168 -0.046259224 0.096375674 -0.002661119 -0.0011018161 0.010958517 0.0109625105 0.0362981
-0.04584281 -0.00036539743 0.006976463 -0.05241193 0.0010254241 -0.0007603207 0.00221004 0.0041471296
0.003886981 0.014984888 -0.006606788 0.028387876 -0.0011108039 -0.0702188 -0.076546036 -0.093541496
0.008236786 -0.0030542214 0.024791839 -0.043203652 0.08060991 0.0025083828 0.005536685 -0.05200814
0.0077182758 -0.003953241 -0.009966069 -0.009844976 0.00356971 0.021856269 -0.0012979684 0.004486219

lin1.bias f4 [64]
00000000: f6e7 5d3d 5345 4e3d ccb0 893d 1f81 a43d
00000010: 3df0 6d3d 7c2b 273d 8da7 abbc a352 8f3d
00000020: e338 c53d cb31 bcbc 26fc 9a3d c59c d4bc
00000030: 8c15 c73d bbe9 023d 2845 213d 3dd0 6b3d
00000040: af2e 783d 376f d5bc 379a 943d 3d1c 873d
00000050: e8bf 6e3d 01c7 a73c bb0b 7f3d 1701 8cbc
00000060: d4e6 963d e865 883d d340 363d 214e 6e3d
00000070: 3425 073d 7c8c 7a3d 5d88 9e3d 44f7 013e
00000080: fc1b 4f3d b12c 8d3d 783f 473d 69b8 923d
00000090: 7780 283d a7b3 063d 1102 643d 2f0b d33d
000000a0: b534 363d 56f2 99bc 35e3 1e3d 2ada 3c3d
000000b0: 04b9 d2bc 0821 873d d99e 8d3d 6c19 6b3d
000000c0: 6270 553d 3614 9bbc a5bb 863d ec95 5d3d
000000d0: 0735 9f3d 1e97 483d 3b37 373d 05cc 453d
000000e0: b0e6 773d 611b 303d 8a5d ce3d 0f07 a13d
000000f0: 6c34 be3d 1324 173d c66e a53d 95c7 783d
0.054176293 0.05035908 0.067231745 0.080324404 0.058090437 0.040812954 -0.020953918 0.069981836
0.09629991 -0.022972962 0.07567625 -0.02595366 0.097209066 0.031961184 0.039372593 0.05757164
0.060591396 -0.026054008 0.07255977 0.06597183 0.058288485 0.020480635 0.062267046 -0.017090363
0.07368246 0.06660062 0.044495415 0.05817998 0.032994464 0.061169133 0.07740853 0.1269198
0.050563797 0.0689329 0.048644513 0.0716408 0.04113814 0.032886174 0.055666033 0.103048675
0.04448386 -0.018792313 0.0387909 0.046106495 -0.025722988 0.06598097 0.069150634 0.05739729
0.05210913 -0.018930536 0.06578759 0.054098055 0.07773786 0.04897224 0.044730406 0.04829027
0.060522735 0.04299486 0.10076435 0.078626744 0.092873424 0.036899637 0.08077769 0.06073721

lin2.weight f4 [5, 64]
00000000: 24da 043d 9f1b 1abe d644 b6be ea29 0fbe
00000010: 0ea3 73be b7ad 6bbe 068c 13b7 6b5e 283e
00000020: f5f8 6fbe 194f 9538 f1f3 6c3e a4ec efb9
00000030: 7c83 563e 7155 1f3e 9fe8 ccbd 6384 623e
00000040: f0a3 8fbe f54d db38 663d 6e3e 026b 35bd
00000050: 219d 183e edfd 71bd de2b 99be e6fd c8bb
00000060: ed90 413e ec9c 25be 1f12 1dbe 6f56 6c3e
00000070: c340 00be 9d98 afbc 9f87 493e 57e6 533e
00000080: 609c 32bd ea04 1abe 362e 2e3e 6fd2 0c3e
00000090: 54de 913d ac01 81be 968d a8be c8fa 3a3e
000000a0: 01e9 6e3d 1881 fb35 05e4 6fbe 9984 82be
000000b0: 6a9e b6bc 35d2 f3bc 9dc0 263e 0946 65be
000000c0: 6da6 39be 71d0 5e39 61a6 513e 1fc6 34be
000000d0: 5b11 8bbe 5279 87be fbab 5fbe dd47 333e
000000e0: 8e0e 9cbe 7afe 783e cf42 5dbe 08ca 463e
000000f0: a264 33be 5be1 b8bd 4cb0 76be 715b a6bd
00000100: 13ef 003e 9aed 26be 2d9c 533e 0a16 93be
00000110: fb99 1c3e 3fd6 5e3e a0c6 8737 3f0e 0d3e
00000120: 0108 68be f73c f1bb b522 71be f730 49bc
00000130: 44f3 ddbd c126 13be e0e2 57bc 59bf 5ebe
00000140: 7900 153d efe6 fc39 e3c8 75bd 3948 3a3e
00000150: 41d7 a8be c8a0 6d3d a19b 0d3d c81f efb9
00000160: 58e2 5f3e f8ed 7d3e 81b5 a43e 3668 27be
00000170: 0d89 68be 5d4d 903e 03f3 8c3e c68d 0fbe
00000180: 73a7 9e3e 62c7 1f3e 92ca 8abe 1e7e 9d3e
00000190: 90a5 17be 5019 043e 86a2 8f3e e39b 95be
000001a0: 4a3b 94be e9fe e0b7 fb29 18bd cf84 3fbe
000001b0: 0211 2ebd da22 aabe b2fd 5dbe 788d 96be
000001c0: 6765 033e 51b8 3a3b 5c29 123e 702a 873e
000001d0: 405e a8be d755 7c3e 08d1 d13d 8458 8fbe
000001e0: cd6f ba3d dfae 19be beb7 0e3e 3c43 663e
000001f0: 9be3 57be de42 90be 7c3c 753e 112d 6a3e
00000200: 2cf1 903e 4480 49be b781 053e e3c9 9abe
00000210: d52f 333e 5f6a 12be 9cde 1238 05f1 68be
00000220: 3859 333d 104a b7b8 07ff 8d3d 8e96 173a
00000230: e3ca 96be f0e2 3ebe 84a7 6dbe cdb8 4f3e
00000240: 8ad0 463e f8ac 1536 abce 98be 61c7 91bd
00000250: e15b 263e 80ab f13d f13b 6e3d b0e2 e838
00000260: 1fa2 abbd 850b cc3d dd09 0abe 5c21 783e
00000270: 2e17 913e 6789 60be f14c 1e3e 1c55 9bbe
00000280: 2f33 3bbe b312 2e3e 56b8 7ebe 14d0 59be
00000290: bb23 25be ef52 043e 6bb3 aebe 485b 8ebe
000002a0: 0677 dd3d 2750 06bc dc3a 913e 3f14 6d3e
000002b0: 0087 abbc 4b46 5b3e 38b6 683e c8be 903e
000002c0: 04ba 7a3e 939c 073a 6e4c 363e 3cd1 833d
000002d0: 5bc9 d93d 14d4 8a3e 6a00 7d3e ea50 593e
000002e0: 3716 4f3e 1c1d 7cbe f06f a3be aa63 82be
000002f0: 58ea 87be ec90 823e 051b 96be e3c1 0cbe
00000300: a146 96be c347 833e 4606 b6be d555 8d3e
00000310: 232e 193e 15b8 b4bd f8f8 c3b8 abf0 003e
00000320: faca 453e 387a bcb8 afe3 943e ad76 88b8
00000330: 4819 3cbe 67b1 c1bd 0034 583e bf17 aabe
00000340: 86a9 8e3e 2cd5 393b 2bb5 9ebe fe1f 843e
00000350: 3208 a3be 642e 38be 9681 9f3e c943 1d39
00000360: 1ef2 adbe 7f14 613e c912 93be c7c6 91be
00000370: 7394 65be c9dd f0bd 0dc5 31be 31ca 363e
00000380: 199d 37be c9a9 7b3e c9b0 8fbe 0915 b1be
00000390: 2e16 01be 8c96 04be ad53 95be 81e6 6a3e
000003a0: 70ef a7be 16ba 7cb9 16d4 87be ba90 79be
000003b0: 8194 05bc a72f 8b3e 88d9 7e3e 6731 133e
000003c0: 5757 89be db6c 8cb9 ce2c 98be 531d adbe
000003d0: c014 e93d 657e b5be 4a9a 9ebe 2ac7 aabe
000003e0: 6b92 81bd c64f 50be 4179 813d 8994 543e
000003f0: 6c33 843e d778 80be d84c 3abe fe47 3e3e
0.032434598 -0.15049599 -0.35599393 -0.13980833 -0.23792669 -0.23015486 -8.7944845e-06 0.16442268
-0.23434813 7.119607e-05 0.23139931 -0.00045761943 0.20948595 0.15559937 -0.100053065 0.22120814
-0.28054762 0.000104572544 0.23265609 -0.044291504 0.1490369 -0.059080053 -0.2991628 -0.0061337827
0.18902941 -0.16173142 -0.15338944 0.23079847 -0.12524705 -0.021435076 0.19680642 0.20693336
-0.043606162 -0.15040937 0.17009816 0.13752149 0.07122484 -0.25196588 -0.32920521 0.18259728
0.05832768 1.8738529e-06 -0.23426826 -0.2549179 -0.022292335 -0.02976332 0.16284414 -0.22389998
-0.18129893 0.0002124922 0.20473625 -0.17653702 -0.2716168 -0.26459748 -0.21842949 0.17507882
-0.30479854 0.24315825 -0.21607517 0.19413006 -0.17518857 -0.09027358 -0.2409069 -0.0812291
0.125912 -0.16301575 0.20665045 -0.28727752 0.15293114 0.21761416 1.6185746e-05 0.13774966
-0.22659303 -0.007362004 -0.23548396 -0.012279741 -0.10837415 -0.14370252 -0.01317665 -0.21752681
0.036377404 0.00048237244 -0.060006034 0.18191613 -0.32976726 0.05801466 0.034572247 -0.0004560931
0.21863687 0.24797809 0.32169726 -0.16348347 -0.2270853 0.28184023 0.27529153 -0.14018926
0.3098713 0.15603402 -0.27107674 0.30760282 -0.14809251 0.12900281 0.28053683 -0.29220495
-0.28951484 -2.6821583e-05 -0.03714941 -0.18703006 -0.04249669 -0.33229715 -0.21678808 -0.29404807
0.1283165 0.0028491209 0.1427359 0.26399565 -0.32884407 0.2464212 0.10244948 -0.2799722
0.091033556 -0.15008114 0.1393728 0.22486585 -0.21082918 -0.28176016 0.23948854 0.22868754
0.28309 -0.19677836 0.13037764 -0.30232152 0.17498715 -0.1429839 3.5016434e-05 -0.22748192
0.043786258 -8.739915e-05 0.06933408 0.0005782627 -0.29451665 -0.18641257 -0.23208433 0.2028534
0.19415489 2.2303411e-06 -0.29845175 -0.07118107 0.16245987 0.11800289 0.058162633 0.00011104846
-0.083805315 0.09963135 -0.13480325 0.24231476 0.28337997 -0.21927415 0.15459038 -0.3033837
-0.18281244 0.1699932 -0.24875006 -0.21270782 -0.16126911 0.12922262 -0.3412126 -0.27804017
0.108137175 -0.008197821 0.2836522 0.23152255 -0.020938396 0.21413533 0.22725761 0.28270555
0.24485022 0.00051731727 0.17802593 0.06436393 0.10634109 0.27114928 0.24707189 0.21222273
0.20223318 -0.2462048 -0.3192134 -0.25466663 -0.26545978 0.25501192 -0.2931749 -0.13745837
-0.2935076 0.25640687 -0.3555166 0.27604547 0.14959006 -0.08824173 -9.3446986e-05 0.12591808
0.1931571 -8.9873036e-05 0.2907996 -6.5070904e-05 -0.18369019 -0.09457665 0.21113586 -0.33221242
0.2786371 0.002835582 -0.30997595 0.25805658 -0.3184219 -0.17986447 0.31153554 0.00014997939
-0.33973783 0.21980475 -0.2872527 -0.28471968 -0.2241991 -0.11761052 -0.17360325 0.17850567
-0.17931022 0.24576487 -0.28064564 -0.3458636 -0.12606117 -0.12948054 -0.29165402 0.22939493
-0.32799864 -0.00024101915 -0.26528996 -0.24371615 -0.008153082 0.27184793 0.24887669 0.14374314
-0.26824448 -0.00026783985 -0.29721683 -0.33811435 0.11380911 -0.35447994 -0.30977088 -0.33355075
-0.06326755 -0.20342931 0.063219555 0.20759787 0.25820482 -0.25092193 -0.18193376 0.1858215

lin2.bias f4 [5]
00000000: 2a44 433d b09b 823c 60e0 e7bc 5e9a 18bc
00000010: ce50 883d
0.04767243 0.015943378 -0.028305233 -0.009314148 0.06656037

prop1.temp f4 [11]
00000000: a30e 4e3f e8af 983f c786 9e3f 53ac a13f
00000010: 14a8 a23f bdbc a23f 86ff a13f 9d63 9f3f
00000020: 73d4 993f 470b 913f 0bb6 883f
0.80491084 1.1928682 1.2384881 1.2630714 1.2707543 1.2713848 1.2656105 1.2452275
1.2017959 1.1331567 1.0680555
