save_parameters/BernNet_model_0324_1043.pt (torch, 599324 bytes, 5 tensors)

lin1.weight f4 [64, 2325]
0	0x38ae0495	8.29782e-05
1	0x3d950255	0.072758354
2	0xbd097646	-0.03356006
3	0xbcb60d77	-0.022223217
4	0x3d239ba9	0.03994337
5	0xbcfc0182	-0.030762438
6	0xbd4a7a4f	-0.04943305
7	0x3a9f1a62	0.00121386
8	0x3ce9bd89	0.02853276
9	0x3a87d4e3	0.0010363128
10	0xbd0e8527	-0.034794953
11	0x39eab043	0.00044763283
12	0x3b2ef661	0.0026697146
13	0x38816290	6.169558e-05
14	0x3b511e05	0.0031908762
15	0x3d17ff46	0.037108682
16	0xbbc57b9e	-0.006026699
17	0x3c8dc334	0.017304994
18	0x3bb6d872	0.0055800015
19	0xbd21dd94	-0.039517954
20	0xb8da966c	-0.00010423068
21	0xbd5b72be	-0.053576224
22	0x3a065363	0.000512412
23	0x3b02a704	0.0019935975
24	0xbc0b81dc	-0.008514848
25	0x3cd74bf2	0.02628133
26	0xbb74b7d8	-0.0037341025
27	0x3929942e	0.00016172297
28	0x3bb70b49	0.005586062
29	0xbac1d196	-0.0014787193
30	0xb7fcd3d0	-3.0139374e-05
31	0x3ac8b74d	0.0015313417
32	0x3d63966b	0.05556337
33	0x3c7b95fe	0.015355585
34	0xba473d0d	-0.0007600345
35	0xbd102937	-0.035195556
36	0xbd22b3ea	-0.03972236
37	0x3cf4b587	0.029871715
38	0xb9c60784	-0.00037771103
39	0xba83e1dd	-0.0010061819
40	0xba077cd8	-0.00051684445
41	0x3d1172d8	0.035509914
42	0x3bcf04dd	0.0063177184
43	0xbc87b93e	-0.016567823
44	0x3a8bc54b	0.0010663656
45	0xbd2d662c	-0.042333767
46	0xbb93dbe2	-0.004512296
47	0x3d9130dc	0.07089397
48	0x3c8401f2	0.016114209
49	0xbbd59754	-0.006518284
50	0xbd12be13	-0.0358258
51	0xbbac5993	-0.0052597015
52	0x3d6aeef2	0.057356782
53	0x3bff2352	0.007786193
54	0xba0937f0	-0.00052344706
55	0x3c2814cc	0.010258865
56	0xbd13aeea	-0.036055483
57	0x3841311e	4.606053e-05
58	0xbd5b8f84	-0.053603664
59	0xb9082da7	-0.00012986978
60	0x3b810a21	0.003937975
61	0xb81d1d00	-3.7458725e-05
62	0xb9fa556e	-0.00047747366
63	0xbd462a78	-0.048380345
64	0x39dc1930	0.00041980436
65	0xbbdf1ecf	-0.0068090926
66	0x3d26d94c	0.040734574
67	0xbacfc9f8	-0.0015853038
68	0x3a1e5865	0.00060403935
69	0x3b1e7525	0.002417871
70	0x3b556ba6	0.0032565384
71	0x3a9762c5	0.0011549821
72	0x389b6f64	7.411724e-05
73	0xbad0cadc	-0.0015929597
74	0x3d2fa64e	0.04288321
75	0x3a477f9e	0.0007610264
76	0xbb48a930	-0.0030618422
77	0x39e3f781	0.0004348122
78	0x3d6145c3	0.05499817
79	0x3b6aa66a	0.0035804757
80	0xbbcf6ddc	-0.006330235
81	0x3b118ecc	0.0022210358
82	0xbaa2ba8e	-0.0012415217
83	0xbd5b6afd	-0.05356883
84	0x3bfb7d33	0.007674837
85	0xbd4110e1	-0.047135238
86	0x3b8a3015	0.0042171576
87	0xb94f3ad4	-0.00019762974
88	0x3a6ba3e2	0.0008988959
89	0x3abd3c5b	0.0014437543
90	0x3d884563	0.066538595
91	0xbd37fde9	-0.044919882
92	0x3d2a3c2b	0.041561287
93	0x3ca98a2a	0.020695765
94	0xbb8cc818	-0.004296314
95	0xbbad19ac	-0.0052826013
96	0x3bb9ee33	0.0056741475
97	0xba210508	-0.00061424123
98	0xbd23d6c7	-0.03999975
99	0xbd9c6dee	-0.07638155
100	0xbbb8d4c1	-0.0056405966
101	0xbb1309f9	-0.0022436364
102	0xb88d01a8	-6.7237124e-05
103	0x3b19967a	0.0023435638
104	0xb9116ae8	-0.00013868103
105	0x3c2cb9d0	0.010542348
106	0x3b4e171d	0.0031446882
107	0x3a065e2a	0.0005125726
108	0x3bdd61d1	0.0067560454
109	0x3af5ad80	0.0018743724
110	0xbd60cb5e	-0.054881446
111	0xb940e3b2	-0.0001839537
112	0x38388f26	4.4002336e-05
113	0x3c139a52	0.009008961
114	0x39c41931	0.00037402802
115	0x3d1fa0b1	0.038971607
116	0xb94e7054	-0.00019687536
117	0xbd0083a2	-0.031375535
118	0xbadfa8c3	-0.0017063845
119	0x3b406e7f	0.0029362736
120	0x3c6af397	0.014340303
121	0x3b402f54	0.0029325085
122	0x39eda180	0.0004532449
123	0x3b823885	0.003974023
124	0x3d7495a9	0.05971304
125	0x3acd01f4	0.0015640841
126	0xbb435f46	-0.0029811426
127	0xb9e56c37	-0.0004375891
128	0xbabc819b	-0.0014381887
129	0x3c255c44	0.010092799
130	0xb9318eda	-0.00016933252
131	0x3da84dd3	0.08217969
132	0xbd3cf526	-0.04613223
133	0x3ace3da0	0.0015734918
134	0x3bda4319	0.0066608307
135	0xba130908	-0.0005608951
136	0xbc8a8e48	-0.016913548
137	0x39fee5be	0.00048617827
138	0x3d5de085	0.054169197
139	0xba92ea17	-0.001120868
140	0x3cae97f7	0.021312697
141	0xbbce5259	-0.0062964377
142	0xbd562f80	-0.052291393
143	0x3ce99fbf	0.028518556
144	0xbb3f6bbe	-0.0029208506
145	0xbba8450a	-0.005135183
146	0x3d7c0343	0.061526548
147	0x3958d8d6	0.00020680143
148	0xba74fd6f	-0.0009345626
149	0x3d500847	0.050789144
150	0x3ab9dd56	0.0014180343
151	0x3b670432	0.0035250303
152	0x3bac9aa5	0.0052674585
153	0x3d9fe56d	0.07807431
154	0xbcd6967d	-0.026194805
155	0x3daf936e	0.08573042
156	0x395c3324	0.00020999886
157	0xbc2594df	-0.010106294
158	0x3974f6a1	0.0002336153
159	0x3b23b0f5	0.00249773
160	0xba8f15b3	-0.0010916501
161	0xbd1d893c	-0.038460955
162	0x3996226d	0.0002863588
163	0xbd171ed4	-0.036894634
164	0x3d757960	0.059930205
165	0x3bc598f6	0.0060301973
166	0x3aeb3bbc	0.0017946879
167	0x3b7271d4	0.0036994116
168	0x3bae5017	0.005319606
169	0x39e8acab	0.00044379136
170	0xbda7431f	-0.08167099
171	0x3a4966bc	0.000768285
172	0x3a36aa52	0.0006968129
173	0xbd46e301	-0.04855633
174	0xbb028fb4	-0.001992208
175	0xbd64a050	-0.05581695
176	0xbc28bd28	-0.010299005
177	0xbd86c3d9	-0.06580324
178	0xbd3b05b4	-0.045659736
179	0x3b904c66	0.0044036387
180	0xbd32a004	-0.043609634
181	0xba880398	-0.0010377048
182	0x3b528fb8	0.003212912
183	0xba6f0dda	-0.00091191905
184	0xb8c9ace6	-9.616632e-05
185	0x3bb878fe	0.005629658
186	0xba74e37a	-0.0009341758
187	0x38f965c4	0.000118922006
188	0xbb1e8386	-0.002418728
189	0x3875ad30	5.8573845e-05
190	0xbd2826a6	-0.041052483
191	0xbd412168	-0.047151
192	0xba8d274f	-0.0010769161
193	0xbb026d8e	-0.0019901725
194	0x37f8265c	2.9581766e-05
195	0x3b7aa495	0.0038245071
196	0xbb33d2fa	-0.0027438984
197	0x397c7336	0.00024075512
198	0xbb58be53	-0.0033072426
199	0xbd8a5de2	-0.06756188
200	0x3d61481b	0.055000406
201	0xbc50e74d	-0.012750459
202	0x3d17c594	0.03705366
203	0x3ac743cd	0.0015202701
204	0xbcdc8b2d	-0.026921833
205	0xbb979a3f	-0.004626542
206	0xbd1e41d6	-0.038637005
207	0x3d2b89aa	0.041879334
208	0x3a51c34a	0.00080018176
209	0x3ad736a0	0.0016419478
210	0x3a72c4b6	0.00092608796
211	0xbc03e8db	-0.008051123
212	0x39ec21fb	0.00045038745
213	0xbd2c49fe	-0.042062752
214	0xbc0a2ad5	-0.0084330635
215	0xbd24557c	-0.040120587
216	0xb67fd300	-3.812078e-06
217	0xbd26fa13	-0.040765833
218	0x3c96852b	0.018374046
219	0x38115ea2	3.4658828e-05
220	0xb7117f50	-8.672316e-06
221	0x3c271dd8	0.010199986
222	0xb9187569	-0.00014539588
223	0x3b6d6e3e	0.003622904
224	0xbd75f9ef	-0.06005281
225	0xbc0fa74d	-0.008767915
226	0xbcd41f03	-0.025893694
227	0xbb4f0e00	-0.0031594038
228	0x39a4b1ba	0.00031412934
229	0xbb9caa78	-0.0047810636
230	0x3d8692b7	0.065709524
231	0xba34bfa2	-0.00068950106
232	0xb9d38011	-0.00040340473
233	0xbd5e372c	-0.054251835
234	0xbd5040ed	-0.050843168
235	0xbd4a19fb	-0.049341183
236	0xbb584768	-0.0033001546
237	0xbd505bb8	-0.05086872
238	0xbce871f6	-0.028374653
239	0x3acb8bac	0.0015529296
240	0x3b5984c2	0.0033190702
241	0x3b6f0378	0.0036470573
242	0xbb07ac21	-0.0020701962
243	0xbd05c85a	-0.032661773
244	0x3b37d7bb	0.002805217
245	0xb962c128	-0.00021624996
246	0xbba4d399	-0.005030107
247	0x3abccfac	0.0014405153
248	0xbc24d0df	-0.010059564
249	0x3bb16a43	0.0054142787
250	0xbb84c81b	-0.0040521747
251	0xb9d9ecec	-0.00041565986
252	0x393329ce	0.00017086344
253	0xbbce52ff	-0.006296515
254	0xbb5b8862	-0.0033498039
255	0xbb20c886	-0.0024533584

lin1.bias f4 [64]
0	0x3d6957f7	0.056968655
1	0x3d4faaf7	0.050700154
2	0x3d158673	0.036505174
3	0x3d230991	0.039804045
4	0x3d5d0c87	0.053967025
5	0x3d797dfa	0.060911156
6	0x3d387777	0.045035806
7	0x3d0e84d5	0.034794647
8	0xbc98c5c4	-0.01864899
9	0x3d6639b3	0.05620737
10	0x3d47c93b	0.048775893
11	0x3d6de24d	0.058077145
12	0xbc99763b	-0.018733134
13	0x3d3f35ee	0.04668229
14	0x3d22318e	0.03959804
15	0x3d83ef2e	0.06442104
16	0xbcdc50d0	-0.026894003
17	0x3d8b8599	0.06812591
18	0x3d498758	0.04920134
19	0x3d37b88b	0.04485373
20	0x3d7c901e	0.06166088
21	0x3d31046c	0.043217108
22	0x3d6a17af	0.057151493
23	0xbb37201e	-0.0027942727
24	0x3d3df097	0.046372022
25	0xbce427f9	-0.027851092
26	0x3d437c49	0.04772595
27	0x3d871720	0.065962076
28	0x3d1cd68d	0.03829055
29	0x3d94ce01	0.072658546
30	0x3cf6d4e7	0.030130817
31	0x3d353395	0.044238646
32	0x3d1a5278	0.037676305
33	0x3d397e68	0.045286566
34	0x3d5c2b91	0.053752486
35	0x3d4a57c2	0.0494001
36	0x3d081bae	0.033229522
37	0x3dadccd9	0.08486337
38	0x3d51c63f	0.051214453
39	0x3d159cbc	0.036526427
40	0x3d209d02	0.039212234
41	0x3d646cce	0.055767827
42	0x3d773d3c	0.060361132
43	0x3d809c8d	0.0627986
44	0x3d93fc23	0.07225826
45	0x3d64bc98	0.05584392
46	0x3d3cc860	0.04608953
47	0x3d593f4d	0.053038884
48	0x3d450873	0.04810376
49	0x3cd31b79	0.025769936
50	0x3bfdb6de	0.0077427467
51	0x3d08e696	0.03342303
52	0x3d44f70c	0.048087165
53	0x3d3c079a	0.045905687
54	0x3d1a1de3	0.03762616
55	0x3d4fb4bb	0.050709467
56	0x3d69ec8c	0.057110354
57	0x3d362f05	0.044478435
58	0x3d81b08d	0.063325025
59	0x3d2124aa	0.039341606
60	0x3cecf958	0.02892749
61	0x3d3972d1	0.045275513
62	0x3cd69a2e	0.026196565
63	0x3ccc3322	0.024926726

lin2.weight f4 [5, 64]
0	0xbe34dec2	-0.176631
1	0x3e6c328a	0.23066154
2	0xbdcebc84	-0.1009455
3	0x3dda815f	0.10669207
4	0x3e5f5aec	0.21812028
5	0x3cc9838a	0.024598856
6	0xbdd79f84	-0.10528472
7	0xbd96ab09	-0.07356841
8	0xbcd25672	-0.025675986
9	0xbe115165	-0.14191206
10	0x3e449392	0.19196919
11	0xbe20f484	-0.15718275
12	0x3b19138c	0.0023357598
13	0x3deb23c4	0.11481431
14	0xbdccc741	-0.09998942
15	0xbd44ef2f	-0.048079666
16	0xbc96593c	-0.018353097
17	0xbe086627	-0.13320218
18	0xbdcdb5dc	-0.100444525
19	0xbe30d3a3	-0.17268233
20	0x3cd160d3	0.025558865
21	0x3d84f0e5	0.064912595
22	0xbe22c1d2	-0.15894249
23	0xbd88dfe2	-0.06683327
24	0x3e57111e	0.21002623
25	0xbb239c53	-0.0024965003
26	0x3e28a4c5	0.16469105
27	0xbd94ccd5	-0.07265631
28	0xbe0f12a0	-0.13971949
29	0xbe4a3163	-0.19745402
30	0xbe311f01	-0.17296983
31	0x3d4d516d	0.05012648
32	0xbe2750f5	-0.16339476
33	0x3df3b791	0.11900247
34	0xbe71508b	-0.23565881
35	0xbdfc6bcc	-0.12325248
36	0xbe5abc3e	-0.21360871
37	0xbe14a777	-0.14517008
38	0xbdf5aeaa	-0.11996205
39	0xbdee6939	-0.116411634
40	0x3e401daa	0.18761316
41	0xbe1db55e	-0.15401217
42	0xbe0cf53d	-0.13765426
43	0x3e49b8ef	0.19699453
44	0x3d54cfa4	0.051955834
45	0x3df92438	0.12165111
46	0x3e4e6bb7	0.20158277
47	0xbe63be0e	-0.22240469
48	0xbe0b90bd	-0.13629432
49	0xbe0e8953	-0.13919573
50	0xbe0c2234	-0.13684922
51	0x3e5b1fe1	0.2139888
52	0xbe5dc78a	-0.2165815
53	0x3e2fbcef	0.17161916
54	0x3e446af7	0.19181429
55	0xbe2adcc3	-0.16685776
56	0x3e3b81a1	0.18311168
57	0xbe0a8430	-0.13526988
58	0x3e271ea0	0.16320276
59	0xbe793825	-0.24337824
60	0x3ccff6d5	0.025386253
61	0xbe2ff022	-0.17181447
62	0x3d60bf6e	0.05487006
63	0x3d6a5bb6	0.05721637
64	0x3e54d1a5	0.20783098
65	0xbe273264	-0.16327816
66	0x3e5fbaee	0.21848652
67	0xbe12d4af	-0.14338945
68	0xbd532c91	-0.051556174
69	0xbe7bdbf4	-0.24595624
70	0x3e107f22	0.14110997
71	0x3dd295d2	0.10282482
72	0x3cbe78b5	0.023250917
73	0xbd4024b0	-0.046909988
74	0xbdac31a2	-0.08407904
75	0x3d8eb6a1	0.069684274
76	0x3cb175e9	0.02166267
77	0x3e343f4c	0.17602271
78	0x3e17bd57	0.14818321
79	0xbe527738	-0.20553291
80	0xbc0a1acf	-0.008429243
81	0x3c635d4c	0.013877224
82	0x3e4b12ba	0.19831362
83	0x3e17b25e	0.14814135
84	0xbe74b1ea	-0.23895994
85	0x3dee44f1	0.11634243
86	0x3dc2682d	0.09492526
87	0xbdaf7c76	-0.08568661
88	0xbe70a176	-0.23499092
89	0x3d2948f6	0.041329347
90	0xbc961a69	-0.01832314
91	0xbddf5961	-0.109057195
92	0x3e63b336	0.22236332
93	0x3d364009	0.044494662
94	0x3de120a5	0.109925546
95	0xbe29bc66	-0.16575775
96	0xbe4a402e	-0.19751045
97	0x3e4c7e2a	0.19970003
98	0xbe3ff58b	-0.18746011
99	0xbdd2a114	-0.102846295
100	0x3e363e26	0.17797145
101	0xbdf07249	-0.11740548
102	0x3e1ed4da	0.15510884
103	0xbe3a93c3	-0.18220429
104	0x3e23d5af	0.15999483
105	0x3e455380	0.19270134
106	0x3dc91676	0.09818737
107	0xbe76bd06	-0.24095544
108	0xbdad96e5	-0.084760465
109	0xbd4aad82	-0.049481876
110	0xbd56f628	-0.052480847
111	0x3c97f697	0.0185502
112	0xbdd4ded7	-0.10394066
113	0xbe36457d	-0.17799945
114	0x3d3fee66	0.046858214
115	0xbe05b926	-0.1305891
116	0x3e207991	0.15671374
117	0x3e2973ac	0.16548032
118	0xbe3b721a	-0.18305245
119	0x3e557460	0.20845175
120	0xbde1e93a	-0.110308126
121	0xbe0dd8b4	-0.13852197
122	0xbe123b91	-0.14280535
123	0x3df8a0c7	0.12140041
124	0x3e1e29c8	0.15445626
125	0x3e5fc55c	0.2185263
126	0x3df27a4c	0.118397325
127	0x3e2f37ce	0.17111132
128	0xbe3aa2d6	-0.1822618
129	0xbe44aab6	-0.19205746
130	0xbdd1e2e5	-0.10248355
131	0x3c9c3de3	0.019072479
132	0x3e1552fc	0.14582437
133	0x3da93480	0.08261967
134	0xbdb3e2fb	-0.087835275
135	0xbdc26b16	-0.09493081
136	0xbd1bc014	-0.038024977
137	0x3e2165e1	0.1576152
138	0x3e227c59	0.15867747
139	0xbde143f5	-0.1099929
140	0x3be93693	0.0071171015
141	0x3a3a9d8e	0.00071188144
142	0x3e41a3a6	0.18910083
143	0x3e122b3c	0.14274305
144	0xbc00fede	-0.007873265
145	0xbe1c192d	-0.15243979
146	0xbd16908f	-0.036758956
147	0x3e1d89aa	0.15384546
148	0x3e585b96	0.21128687
149	0x3e31d17b	0.17365067
150	0x3dc72a5d	0.09724877
151	0xbd734cb6	-0.05939933
152	0x3dc62e03	0.09676745
153	0x3c6e993e	0.014562903
154	0xbe606b53	-0.21915941
155	0xbdd318c5	-0.10307459
156	0x3e643f72	0.22289827
157	0xbe196a91	-0.14982058
158	0xbd2f7bab	-0.04284255
159	0x3e6c0651	0.23049285
160	0x3e55f6de	0.20894954
161	0xbe736a4b	-0.23771016
162	0xbca65f71	-0.020309182
163	0x3e5eb8ed	0.21750231
164	0xbe0ccc50	-0.13749814
165	0x3df8f095	0.121552624
166	0x3e5ee46f	0.21766828
167	0xbdc8dab6	-0.09807341
168	0xbe12bf58	-0.14330804
169	0x3d8f5565	0.069987096
170	0xbe077c55	-0.13231023
171	0xbd7c2d40	-0.06156659
172	0x3e237ce0	0.15965605
173	0xbe63fa6d	-0.22263499
174	0x3d9d8390	0.07691109
175	0xbe5836c7	-0.21114646
176	0x3e3dc358	0.18531549
177	0x3df7c913	0.12098899
178	0x3d1cf94b	0.03832368
179	0xbe3d8f77	-0.18511759
180	0x3e5ae270	0.21375442
181	0xbddc124d	-0.10745678
182	0x3e0bc56b	0.13649528
183	0xbe2e10f3	-0.16998653
184	0xbdc3e252	-0.095646515
185	0xbe4a6c66	-0.19767913
186	0xbde1388b	-0.10997113
187	0x3e24b699	0.1608528
188	0xbe4c78b8	-0.19967926
189	0xbe59f73f	-0.21285723
190	0xbdcce1a6	-0.100039765
191	0x3dce56b0	0.10075128
192	0x3e4eae2f	0.20183633
193	0x3e72cc74	0.23710805
194	0xbe34346c	-0.17598122
195	0xbdc4b68b	-0.0960513
196	0x3e13d5e3	0.1443706
197	0x3da316f8	0.07963365
198	0x3e027ff5	0.12744124
199	0x3de8b1ab	0.113620125
200	0xbcf23f61	-0.029571237
201	0xbe048027	-0.12939511
202	0xbe15dfdb	-0.14636175
203	0x3e6051a3	0.21906142
204	0xb95bb252	-0.00020951897
205	0xbe35220b	-0.17688768
206	0xbdb28274	-0.08716288
207	0xbd208de0	-0.039197803
208	0xbc07815b	-0.008270587
209	0x3e55eb7c	0.20890611
210	0x3e4a7bd2	0.19773796
211	0xbe185519	-0.14876212
212	0xbc88f9ea	-0.01672073
213	0xbe62c856	-0.22146735
214	0x3e0de7e6	0.13857993
215	0x3d4b5d42	0.049649484
216	0xbe859331	-0.2608886
217	0x3d50c9be	0.050973646
218	0x3e4db982	0.20090297
219	0x3e5055d4	0.20345241
220	0xbe295ef6	-0.16540131
221	0x3e16b878	0.14718807
222	0xbe5a1475	-0.21296866
223	0xbe1f8a6c	-0.15580148
224	0xbe64e2f2	-0.22352198
225	0x3e5f7919	0.21823539
226	0x3dbd0636	0.092297
227	0xbde77d1a	-0.11303158
228	0xbba2849d	-0.0049596564
229	0x3e22d59c	0.15901798
230	0xbe517d96	-0.20458063
231	0xbe494a14	-0.19657165
232	0xbc76f933	-0.015074062
233	0xbe1b9112	-0.15192059
234	0x3e30f2d6	0.17280135
235	0x3db6cde4	0.08925989
236	0x3e540e75	0.2070864
237	0x3e463c3f	0.1935892
238	0xbe057b72	-0.13035372
239	0x3e0c7994	0.13718253
240	0xbe1ab754	-0.15108997
241	0xbd248acd	-0.040171433
242	0xbda809ac	-0.0820497
243	0xbe64b67a	-0.22335234
244	0xbe539cde	-0.20665309
245	0xbdd8de9e	-0.10589336
246	0xbe560547	-0.2090045
247	0x3e059bf2	0.1304777
248	0x3e452216	0.19251284
249	0x3e727f3d	0.2368135
250	0xbde875f9	-0.113506265
251	0xbe67c8dc	-0.22635216
252	0x3d6533c8	0.055957586
253	0xbd228d1f	-0.039685365
254	0xbe5983a6	-0.21241626
255	0xbe56b4c6	-0.20967397

lin2.bias f4 [5]
0	0x3d3f07ad	0.04663818
1	0x3be767f3	0.0070619523
2	0xbd35af28	-0.044356495
3	0xbd19ab07	-0.03751662
4	0xbd588cac	-0.05286853

prop1.temp f4 [11]
0	0x3f6f9810	0.93591404
1	0x3f83ca0b	1.0296034
2	0x3f8c6638	1.0968695
3	0x3f8ed138	1.1157598
4	0x3f8f7009	1.1206065
5	0x3f8fc4ef	1.1231974
6	0x3f906dde	1.1283529
7	0x3f921f76	1.1415851
8	0x3f94db8a	1.1629498
9	0x3f925198	1.143115
10	0x3f8050b5	1.002463
