save_parameters/BernNet_model_0324_1031.pt (torch, 599324 bytes, 5 tensors)

lin1.weight f4 [64, 2325]
-3.8094287e-05 0.04129827 0.0004985433 -0.042296126 -0.06498097 0.00057128933 -0.00072153367 0.076039754
0.085788526 -2.2025051e-05 -0.0009975315 0.029152995 0.069094494 0.06158483 -8.9546666e-05 -0.0034200074
-0.0039330916 0.007598063 0.08108905 0.08317848 -0.00052973063 0.010709452 0.07189535 -0.00025888265
-0.0026592936 0.119035035 0.009184895 0.031769264 -0.0039573167 0.0026849192 -0.0007650822 0.00017229994
0.023210997 0.015188051 -1.1773023e-05 -0.01705139 -0.007735331 0.0034964916 -0.0021544902 0.02680715
-0.0005498316 0.041116692 -0.0067740707 0.15728848 -0.008396527 -0.06302938 -0.015439579 -0.0024337203
0.019954398 -0.018569969 -0.008739749 -0.0040974542 -0.0059650727 -0.007158605 5.2926636e-05 -0.0030295565
-0.08448386 -0.0019151445 0.068982676 -0.005601758 0.07441544 -0.0023051023 0.00047609035 -0.0029073749
0.00066502567 -0.0021438985 0.00013245773 -0.00024659335 0.00017846863 -0.0033966363 -0.004504396 -6.420124e-05
-7.1584116e-05 -0.0008357592 0.09821638 0.00042618878 -0.0044538146 -0.0027703138 -0.004781056 -0.003267442
-0.002381732 -0.004097366 0.12574881 0.046351537 0.0029494897 -0.011920934 -0.00017652591 -0.0031599812
-0.0009925824 -0.0023708 0.09018536 -0.004210554 -0.0052100285 -0.015507799 -0.005533129 0.02174445
0.05623252 -0.00029455908 -0.019483343 0.051058337 -0.0039224927 -7.578387e-05 -0.071932204 -0.0027629177
0.004069654 0.106678 -0.00095246773 -0.004809224 -0.006398713 0.0122385565 6.460614e-05 0.00019120335
-0.00031848293 -0.0029109807 0.0024916818 -0.005748832 -0.0010994065 0.000651738 -0.0023394632 -0.0054080565
-0.013228026 0.00025219942 -0.027869875 0.07727478 0.06298944 0.07958694 -0.0010470182 -0.0021436722
0.0024255896 -0.002422357 0.00048499997 -0.00020265038 -0.0013716201 -0.0011853699 -0.0005359945 0.0010393697
0.072572 6.42059e-05 -0.0024783714 0.0048188725 0.032967087 -0.0040128687 0.041787628 -0.00043467007
-0.0070869285 -0.006076575 -0.0011211236 2.5392073e-06 -0.0024018004 0.009747477 0.0011848974 -0.001286347
0.09629411 -0.02266166 0.08645943 0.087753356 -0.00024707854 0.06734787 -1.2117591e-05 0.08191323
-0.0006167006 -0.0035271072 -0.00046869973 0.025726119 -0.016179653 -0.02794954 -0.00095425115 0.07253155
-0.00406354 -0.018752944 -0.0005492589 -0.0012923933 -0.00090028497 -0.0035731914 0.0005911828 -0.0014232667
-0.008780796 -0.008869974 -0.0023661875 -0.009320772 -0.0009745886 -0.0031336 -0.001394946 -0.0034810617
-0.003145801 -0.010034692 0.0007062833 -0.00061911833 -0.0032537775 0.0003303471 -0.0052368687 0.056565173
-0.00079582474 0.06265619 0.00044894157 -0.0023443787 0.0004207954 -0.00074298814 0.02903059 0.07284447
0.08813769 0.06925294 0.057387352 -0.00010213425 -0.005426887 -0.005033735 -0.0012566184 0.01175583
0.0005764948 -1.4334626e-05 0.045998413 -0.0048181484 0.0020052968 -0.010069294 -0.0013429836 -0.0014880206
-7.108717e-05 -0.0064888704 -0.0073707933 0.00059743685 -0.00016775874 0.0040811594 -0.003871891 0.059808828
-0.011060627 0.0053250343 0.00052305707 0.0038096528 0.003133731 -0.0024019605 0.06050646 -4.0333834e-06
0.0004642452 -0.0027590375 -0.0014780294 -0.0006840763 -0.0013461706 -0.048036408 0.029189242 0.024311364
-0.0046953447 -0.0011349316 0.09016408 0.04663218 -0.0075933207 -0.0019411811 -0.00320165 -0.009303457
-0.002236715 -0.009687948 -0.0032746242 0.0022140965 -0.0013725364 0.13238202 -0.0021717572 0.04218261
00000000: 6ec7 1fb8 6028 293d adb0 023a b43e 2dbd
00000010: be14 85bd 94c2 153a 4e25 3dba bbba 9b3d
00000020: e5b1 af3d 70c2 b8b7 9abf 82ba 43d2 ee3c
00000030: 6a81 8d3d 6040 7c3d 00cb bbb8 3422 60bb
00000040: 2ae1 80bb 2cf9 f83b 0412 a63d 7b59 aa3d
00000050: 9fdd 0aba b376 2f3c df3d 933d a4ba 87b9
00000060: 8b47 2ebb a4c8 f33d 3e7c 163c 7d20 023d
00000070: 61ac 81bb 78f5 2f3b cc8f 48ba 6aab 3439
00000080: fd24 be3c 4ed7 783c c084 45b7 5baf 8bbc
00000090: a978 fdbb 6525 653b 5932 0dbb ab9a db3c
000000a0: 9322 10ba fa69 283d 06f9 ddbb 3b10 213e
000000b0: 9691 09bc 8c15 81bd 4af6 7cbc 0d7f 1fbb
000000c0: 6877 a33c 0c20 98bc 2a31 0fbc f043 86bb
000000d0: a876 c3bb bb92 eabb 8bfd 5d38 868b 46bb
000000e0: e005 adbd 9605 fbba ca46 8d3d f48e b7bb
000000f0: 1f67 983d 3311 17bb c49b f939 a889 3ebb
00000100: 1e55 2e3a a680 0cbb 5ae4 0a39 3349 81b9
00000110: 4f23 3b39 1a9a 5ebb 9d99 93bb c7a3 86b8
00000120: 6e1f 96b8 da16 5bba ab25 c93d 1772 df39
00000130: 4ef1 91bb 278e 35bb 68aa 9cbb 9522 56bb
00000140: d516 1cbb 3243 86bb 4cc4 003e 1cdb 3d3d
00000150: 3a4c 413b 0550 43bc d019 39b9 b017 4fbb
00000160: 8a19 82ba 6c5f 1bbb 1ab3 b83d b0f8 89bb
00000170: e3b8 aabb 6c14 7ebc 404f b5bb 6b21 b23c
00000180: 1254 663d 0d6f 9ab9 889b 9fbc 8c22 513d
00000190: 4188 80bb 28ee 9eb8 3151 93bd 1112 35bb
000001a0: bb5a 853b ff79 da3d 07af 79ba b296 9dbb
000001b0: 4cac d1bb 3a84 483c 287d 8738 c27d 4839
000001c0: 0efa a6b9 27c6 3ebb 7c4b 233b b360 bcbb
000001d0: f619 90ba 66d9 2a3a ae51 19bb 1136 b1bb
000001e0: 5dba 58bc a239 8439 5d4f e4bc 3d42 9e3d
000001f0: 9c00 813d 7afe a23d 1a3c 89ba da7c 0cbb
00000200: a4f6 1e3b 68c0 1ebb 9847 fe39 8c7e 54b9
00000210: efc7 b3ba 6a5e 9bba fb81 0cba 763b 883a
00000220: a1a0 943d 48a6 8638 2c6c 22bb a2e7 9d3b
00000230: 7f08 073d 627e 83bb 8129 2b3d 6ee4 e3b9
00000240: 7739 e8bb 011e c7bb aaf2 92ba 4067 2a36
00000250: 8667 1dbb e2b3 1f3c 8f4e 9b3a a59a a8ba
00000260: d935 c53d f2a4 b9bc a411 b13d 08b8 b33d
00000270: 528a 81b9 aeed 893d a84c 4bb7 20c2 a73d
00000280: 14aa 21ba 0a27 67bb d0bb f5b9 95bf d23c
00000290: 318b 84bc 6ff6 e4bc b626 7aba 6c8b 943d
000002a0: 7227 85bb c69f 99bc 24fc 0fba 8665 a9ba
000002b0: 1a01 6cba 342c 6abb 9bf9 1a3a e88c baba
000002c0: 54dd 0fbc 5e53 11bc 0a12 1bbb 27b6 18bc
000002d0: 897b 7fba 165d 4dbb 9fd6 b6ba 8622 64bb
000002e0: c829 4ebb 8c68 24bc df25 393a 544c 22ba
000002f0: 543d 55bb 7032 ad39 0a9a abbb e2b0 673d
00000300: e59e 50ba e351 803d eb5f eb39 26a4 19bb
00000310: 349e dc39 17c5 42ba 8fd1 ed3c 7b2f 953d
00000320: 8981 b43d 7cd4 8d3d 000f 6b3d e830 d6b8
00000330: 07d4 b1bb 08f2 a4bb 1eb5 a4ba 869b 403c
00000340: e91f 173a c07e 70b7 d568 3c3d 8fe1 9dbb
00000350: 4c6b 033b aef9 24bc 0d07 b0ba b009 c3ba
00000360: a214 95b8 97a0 d4bb b286 f1bb 4f9d 1c3a
00000370: 65e8 2fb9 3fbb 853b 8dbf 7dbb 1afa 743d
00000380: a237 35bc a07d ae3b c41d 093a 5eab 793b
00000390: 485f 4d3b 366a 1dbb 9fd5 773d 8056 87b6
000003a0: f065 f339 f8d0 34bb 70ba c1ba 9553 33ba
000003b0: fd71 b0ba d3c1 44bd 471e ef3c a028 c73c
000003c0: 68db 99bb fcc1 94ba f2a7 b83d 6301 3f3d
000003d0: 64d1 f8bb 3b6f feba c6d2 51bb 876d 18bc
000003e0: da95 12bb 33ba 1ebc 149b 56bb 601a 113b
000003f0: aee6 b3ba 278f 073e 0a54 0ebb acc7 2c3d

lin1.bias f4 [64]
0.097576804 0.065223 0.0742047 0.092885904 0.0687575 0.05540621 0.034117855 0.06897413
-0.037324734 0.09049993 0.082596354 0.063747436 0.055952575 0.08374528 0.08817592 0.065302715
0.048479807 0.07999885 0.05069787 0.081214905 0.09029373 0.08482596 0.09364988 0.06808025
0.06883679 0.043236397 0.07542224 0.07828629 0.0420638 0.08269604 0.068676434 0.07525359
0.05965098 0.06960028 0.082993045 0.007258006 0.10250044 0.068372004 0.08715762 0.067467205
0.049676564 0.07188365 0.0703284 0.058418903 0.053692874 0.07680478 0.09197136 0.089579135
-0.018982185 0.07064098 0.065467864 0.04716285 0.044032693 -0.0360617 0.069995284 0.06378601
0.049099814 0.063669726 -0.02157753 0.065637015 -0.022989206 -0.020360377 0.09113701 0.08913637
00000000: 59d6 c73d a393 853d a2f8 973d f73a be3d
00000010: bbd0 8c3d 9ff1 623d 2abf 0b3d 4f42 8d3d
00000020: d2e1 18bd 0758 b93d 4728 a93d 048e 823d
00000030: 872e 653d a582 ab3d 9495 b43d 6ebd 853d
00000040: c392 463d 70d6 a33d 92a8 4f3d 0054 a63d
00000050: ebeb b83d 3cb9 ad3d 82cb bf3d a86d 8b3d
00000060: 4efa 8c3d a618 313d fa76 9a3d 9054 a03d
00000070: 174b 2c3d 8b5c a93d 3ba6 8c3d 8e1e 9a3d
00000080: 9654 743d 978a 8e3d 42f8 a93d 91d4 ed3b
00000090: c0eb d13d 9f06 8c3d b27f b23d 3f2c 8a3d
000000a0: a779 4b3d bc37 933d 5608 903d a948 6f3d
000000b0: 0fed 5b3d d34b 9d3d 7b5b bc3d 4475 b73d
000000c0: 8780 9bbc 38ac 903d 0414 863d d52d 413d
000000d0: a05b 343d 6fb5 13bd b059 8f3d 3da2 823d
000000e0: e31c 493d 4665 823d 5cc3 b0bc b36c 863d
000000f0: dc53 bcbc ceca a6bc 0aa6 ba3d 218d b63d

lin2.weight f4 [5, 64]
-0.0022620365 -0.12367565 -0.3003432 -0.16096038 0.19947582 -0.31619877 0.18607543 0.23075572
-0.06372157 0.22763743 0.29064447 -0.2589136 0.028249469 -0.26566502 -0.21027516 0.17186037
0.0695138 0.22963487 0.15886329 0.2622906 0.17851807 -0.20073216 0.23282167 0.23492058
-0.35318857 -0.27615383 0.19814523 0.2624082 -0.26097152 -0.23907699 0.2267458 0.30481473
-0.12438 -0.26585558 0.14122084 -0.07593985 0.17970212 0.18416065 -0.22179346 0.217558
0.014794391 -0.14367524 -0.27660525 -0.23126423 -0.3206422 -0.3176945 -0.222109 -0.21211526
-0.00032810727 0.17670716 0.13780148 -0.15204683 -0.07804259 0.0003367239 0.29966018 -0.32046476
-0.18870938 0.18902281 -0.023876717 -0.37176397 0.0006218924 -2.1348216e-05 0.08656803 0.25489134
-0.36940816 0.2060014 -0.21023527 -0.29255104 -0.06584284 0.07940251 -0.10461161 0.18513533
-0.010513346 -0.31980237 0.072718136 0.20595443 -0.366586 -0.3412989 -0.29886186 0.12281968
0.26869315 0.06932931 0.2285458 0.29621553 -0.34049028 0.26140612 0.20547591 0.20623422
0.16880818 0.14898711 -0.2332175 0.13975742 0.17124046 0.1457055 -0.2680491 0.14928347
0.19715531 -0.24402267 0.04443248 -0.056053948 0.2113698 0.043079957 -0.31269127 -0.19251975
0.3069521 0.2580033 0.23814894 0.14692274 0.27822116 0.19928423 -0.28284314 0.09195851
-0.00024828484 0.27044684 -0.3044771 0.25811347 -0.17376043 -0.03038137 0.14271432 0.27667013
0.21018696 -0.13923866 -0.001912235 0.200973 -0.025774427 -0.004478211 -0.27092898 -0.23045458
0.0667882 0.2589662 -0.35510185 0.3321415 -0.24598964 0.08178486 -0.29327822 -0.2522912
-0.004052423 -0.3789702 -0.27217886 0.19106212 0.22246392 0.242267 0.147879 0.2476142
-0.3083774 -0.407148 -0.2614531 -0.26896018 0.19753723 -0.25588492 -0.26698348 0.13337332
0.14456409 -0.24911615 -0.25621426 0.30917624 0.23030037 0.20013894 0.2402836 0.087310866
0.28915787 0.19786032 -0.3611175 -0.09214417 -0.35888684 0.17572087 0.21284957 0.20099671
-0.31223407 0.24576265 -0.27754614 0.33509016 0.24278517 -0.39019525 0.24190682 -0.05561236
0.0027605793 -0.23901652 -0.24199034 -0.29262775 0.14911695 1.7929191e-05 -0.28566572 0.27831244
-0.27690586 -0.22020546 6.488646e-05 -0.37237823 0.00016874998 0.005619378 0.21850814 -0.31821728
0.23549144 -0.3225425 0.29024255 -0.3301963 0.1547718 0.19895959 -0.2564145 0.04656526
-0.019466795 0.20854938 0.21031483 0.23244375 0.23892224 0.15824217 0.0841566 -0.3619732
-0.203892 -0.41248804 -0.2987654 -0.24130724 -0.032635976 -0.30458775 0.1538092 -0.31209877
0.22647335 0.21801367 0.26803595 -0.3640186 -0.14992711 -0.3121778 -0.28847083 -0.3242397
-0.27860612 0.30081186 0.27431148 0.08995206 -0.08898853 -0.36249223 0.26484412 -0.25971293
-0.32343972 -0.3056899 0.24015523 -0.11150144 -0.30049312 0.040031925 0.049986344 -0.24019596
-5.2709867e-05 -0.156199 0.28861895 -0.292725 0.24176434 0.0007549614 -0.27904522 -0.22297694
0.04396333 0.07810838 1.3483972e-05 0.25044897 -9.081753e-05 0.00055688556 -0.37172785 -0.32205454
00000000: ad3e 14bb a949 fdbd 95c6 99be ccd2 24be
00000010: 6443 4c3e cee4 a1be 8f8a 3e3e 3a4b 6c3e
00000020: 7480 82bd c919 693e 5acf 943e 5390 84be
00000030: 6e6b e73c 3f05 88be 5f52 57be 2afc 2f3e
00000040: 405d 8e3d 6725 6b3e 0fad 223e f44a 863e
00000050: 71cd 363e bb8c 4dbe ce68 6e3e 058f 703e
00000060: 22d5 b4be 0964 8dbe 95e6 4a3e 5e5a 863e
00000070: 0f9e 85be 99d0 74be 0d30 683e ad10 9c3e
00000080: f1ba febd 391e 88be 329c 103e 5a86 9bbd
00000090: d503 383e 9c94 3c3e d31d 63be 86c7 5e3e
000000a0: 2c64 723c 9a1f 13be 349f 8dbe 88d0 6cbe
000000b0: 372b a4be daa8 a2be 8b70 63be be34 59be
000000c0: d005 acb9 b9f2 343e d51b 0d3e 2ab2 1bbe
000000d0: cbd4 9fbd 518a b039 0f6d 993e f513 a4be
000000e0: 083d 41be 328f 413e 1b99 c3bc d957 bebe
000000f0: 7e06 233a f214 b3b7 944a b13d 1e81 823e
00000100: 1123 bdbe 08f2 523e ea47 57be 40c9 95be
00000110: 9cd8 86bd c89d a23d 9d3e d6bd 1e94 3d3e
00000120: 2b40 2cbc 23bd a3be 3fed 943d b8e5 523e
00000130: 29b1 bbbe bbbe aebe 6c04 99be e288 fb3d
00000140: 2692 893e 86fc 8d3d e907 6a3e 90a9 973e
00000150: be54 aebe 06d7 853e 4768 523e 102f 533e
00000160: 0ddc 2c3e 1490 183e 91d0 6ebe 921c 0f3e
00000170: a959 2f3e d333 153e bb3d 89be c4dd 183e
00000180: 15e3 493e 14e1 79be d5fe 353d d398 65bd
00000190: 5371 583e 9c74 303d 1219 a0be e623 45be
000001a0: d328 9d3e 0219 843e 51dd 733e ea72 163e
000001b0: 0173 8e3e 2a11 4c3e d1d0 90be be54 bc3d
000001c0: 3a2c 82b9 0278 8a3e 6ce4 9bbe 7327 843e
000001d0: 41ee 31be 5ae2 f8bc b423 123e b5a7 8d3e
000001e0: 403b 573e 9494 0ebe f6a3 faba decb 4d3e
000001f0: e424 d3bc f5bd 92bb 34b7 8abe 49fc 6bbe
00000200: 40c8 883d 3897 843e e9cf b5be 730e aa3e
00000210: b5e4 7bbe d27e a73d 9028 96be 502c 81be
00000220: 30ca 84bb 6208 c2be 075b 8bbe caa5 433e
00000230: 95cd 633e d714 783e 986d 173e 948e 7d3e
00000240: a4e3 9dbe b475 d0be 2edd 85be 26b5 89be
00000250: 3347 4a3e 5903 83be 0fb2 88be 0493 083e
00000260: 9c08 143e 4e18 7fbe 842e 83be 594c 9e3e
00000270: dcd3 6b3e 39f1 4c3e e70c 763e 0ad0 b23d
00000280: 800c 943e e59b 4a3e 65e4 b8be 15b6 bcbd
00000290: 04c0 b7be 2cf0 333e 3df5 593e 15d2 4d3e
000002a0: 25dd 9fbe 34a9 7b3e 871a 8ebe f090 ab3e
000002b0: ad9c 783e acc7 c7be 6cb6 773e c9c9 63bd
000002c0: d6ea 343b bfc0 74be 51cc 77be 4ed3 95be
000002d0: 1db2 183e a566 9637 c742 92be f87e 8e3e
000002e0: 9bc6 8dbe 8a7d 61be a713 8838 5ca8 bebe
000002f0: 7af2 3039 c222 b83b 99c0 5f3e 60ed a2be
00000300: ab24 713e 4a24 a5be ac9a 943e 7d0f a9be
00000310: 807c 1e3e 10bc 4b3e c348 83be 37bb 3e3d
00000320: d478 9fbc f88d 553e c55c 573e bc05 6e3e
00000330: 08a8 743e 3c0a 223e 4c5a ac3d 8d54 b9be
00000340: 10c9 50be a231 d3be c7f7 98be 3f19 77be
00000350: 4dad 05bd edf2 9bbe 2980 1d3e 69cb 9fbe
00000360: a1e8 673e fa3e 5f3e 023c 893e a560 babe
00000370: 7e86 19be c5d5 9fbe 73b2 93be bf02 a6be
00000380: 76a5 8ebe 0304 9a3e 8e72 8c3e c938 b83d
00000390: 9e3f b6bd 9598 b9be a699 873e 18f9 84be
000003a0: e499 a5be 6383 9cbe 41eb 753e de5a e4bd
000003b0: 3cda 99be 84f8 233d 7bbe 4c3d eef5 75be
000003c0: ca14 5db8 a1f2 1fbe ddc5 933e 0de0 95be
000003d0: 1291 773e 9ae8 453a 04df 8ebe 1154 64be
000003e0: e512 343d 49f7 9f3d 3839 6237 d93a 803e
000003f0: 4a75 beb8 f5fb 113a 1d53 bebe 55e4 a4be

lin2.bias f4 [5]
0.008654164 -0.07470569 -0.035699986 0.015524184 0.08743447
00000000: 32ca 0d3c 4cff 98bd 263a 12bd 2659 7e3c
00000010: d810 b33d

prop1.temp f4 [11]
1.1630784 1.2679604 1.3229996 1.3266698 1.3239746 1.3210791 1.316432 1.3033599
1.2880951 1.2224501 1.0426102
00000000: c1df 943f 874c a23f 0d58 a93f 51d0 a93f
00000010: 0078 a93f 1f19 a93f d880 a83f 7fd4 a63f
00000020: 4de0 a43f 3f79 9c3f 4074 853f
