save_parameters/BernNet_BernNet_model_photo.pt (torch, 195530 bytes, 5 tensors)

lin1.weight f4 [64, 745]
0.089336835 -0.009146295 0.10537474 0.08307704 0.24538879 0.018657407 -0.09565583 0.12612571
0.05660731 0.05565941 -0.03519404 -0.022733873 0.05753336 0.03138222 -0.17575213 0.026204277
-0.10983072 -0.06531361 -0.040962566 0.08692004 -0.028918654 -0.003884419 -0.023950562 -0.1492713
0.06861511 -0.13203605 -0.06836633 0.13223906 0.0045372336 0.022127936 0.03847521 -0.0097881425
-0.01304073 0.28811088 -0.011609109 0.17025675 0.07741327 0.03746325 0.17056882 -0.08829247
-0.095615976 0.19574185 -0.028363217 0.12398766 -0.122653134 0.05597595 0.050116736 0.13847719
0.06417756 -0.18973655 0.06932869 -0.1461007 -0.22842064 0.010066772 -0.16156669 -0.064596936
0.017427806 -0.19800843 0.03461652 -0.13106006 0.013126704 -0.0073154746 -0.12343339 -0.0008926002
0.10789113 0.0063952133 0.11243707 0.08181323 -0.15668182 0.30890322 0.32749912 0.16260931
-0.11618961 -0.20961224 -0.080837846 -0.100535266 -0.10641809 -0.110408664 -0.028900076 -0.08898083
0.048289496 -0.097791724 -0.06220627 -0.0934498 -0.0075706774 -0.0057356637 -0.12504575 0.3306296
0.084138475 0.16604239 -0.11492655 0.32286546 0.32092085 -0.09939679 0.0772916 -0.18290888
-0.079325736 0.0020478661 -0.10109696 -0.047928244 -0.031561796 0.010090984 0.13112897 0.061498582
0.0019200986 -0.0063133347 0.055308778 -0.11140449 0.314692 -0.009806577 0.11940226 0.29587656
0.086398594 0.08340031 -0.12714963 -0.04710152 0.14991686 -0.040034942 -0.10495844 -0.022148376
0.13375813 -0.060337123 -0.084241465 -0.10530366 0.043516587 0.35923418 0.060255963 0.0022920426
-0.06480767 0.18855765 -0.03370407 0.042752583 -0.07982653 -0.016849443 -0.08460236 0.018496508
-0.23083608 -0.07231798 0.052402023 0.018221185 -0.10016336 -0.07581678 -0.042702205 0.10280219
-0.140746 0.22256741 0.04726268 0.028953021 -0.10450966 -0.004073224 0.008130904 -0.07396853
-0.011247864 0.12370333 0.021437056 -0.074311405 0.020322157 -0.08199851 0.049761344 -0.08028506
-0.005233607 0.006432804 -0.101778656 -0.15151079 0.035038184 -0.010665547 0.17856283 0.05250318
0.06943005 -0.3937086 -0.057538055 -0.04806772 -0.15512244 0.30267945 -0.05852627 0.005792288
-0.07652633 0.19888131 0.055156477 0.1587211 0.116001114 -0.05212922 -0.04538067 0.098295756
0.005702718 -0.16492096 0.024782175 -0.0148304915 0.15414432 0.0068094847 0.058872554 0.12076268
-0.096005514 0.027622933 -0.055915516 0.13246746 -0.043307383 -0.015510678 -0.01612416 -0.17904592
0.04725517 -0.10309222 0.035086915 -0.06315958 -0.005792278 -0.02343095 0.106487714 -0.121725276
0.088325396 0.01598586 -0.0035706297 0.07359414 -0.09205999 -0.18037538 -0.09970781 -0.36579996
-0.04342566 -0.05705874 -0.013465769 0.21349546 0.14930134 0.049072623 0.06795671 0.03980901
-0.07953816 -0.19612916 0.06011025 -0.00629242 -0.015947377 -0.019378973 -0.021800753 -0.13381204
-0.030609252 -0.03963217 0.29900005 0.02625624 0.049470194 0.065897465 -0.19009547 -0.58046484
0.25245282 -0.1537301 -0.036141265 0.10612702 -0.5471942 -0.14004852 -0.11681245 -0.16169867
0.56720054 0.45951706 -0.36898482 0.085701674 0.085691564 -0.04215717 0.0063471072 -0.0063364296
00000000: 3bf6 b63d 57da 15bc b6ce d73d 4c24 aa3d
00000010: 3347 7b3e 6bd7 983c 34e7 c3bd 1927 013e
00000020: 11dd 673d 1ffb 633d a027 10bd 633c babc
00000030: 1aa8 6b3d a58a 003d 5ef8 33be 5aaa d63c
00000040: eeee e0bd 24c3 85bd 5dc8 27bd 2203 b23d
00000050: d0e6 ecbc bd91 7ebb f833 c4bc 93da 18be
00000060: 1486 8c3d 7534 07be a503 8cbd ad69 073e
00000070: 13ad 943b a545 b53c 2f98 1d3d 725e 20bc
00000080: c9a8 55bc 4583 933e 2234 3ebc c957 2e3e
00000090: d98a 9e3d 1173 193d 98a9 2e3e afd2 b4bd
000000a0: 4fd2 c3bd 8d70 483e fa59 e8bc 3eed fd3d
000000b0: 9131 fbbd 0a47 653d 3547 4d3d f7cc 0d3e
000000c0: 866f 833d 4c4a 42be 33fc 8d3d 6c9b 15be
000000d0: 1ae7 69be 1aef 243c bd71 25be 664b 84bd
000000e0: c2c4 8e3c b9c2 4abe 0dca 0d3d 9c34 06be
000000f0: 6311 573c a6b6 efbb a5ca fcbd 63fd 69ba
00000100: 06f6 dc3d f08e d13b 6845 e63d b28d a73d
00000110: 3371 20be 9028 9e3e f7ad a73e 0e83 263e
00000120: d1f4 edbd 97a4 56be 508e a5bd 6fe5 cdbd
00000130: baf1 d9bd f01d e2bd dabf ecbc 953b b6bd
00000140: 35cb 453d 0747 c8bd 00cc 7ebd 9c62 bfbd
00000150: 7213 f8bb 3cf2 bbbb fe0b 00be 4848 a93e
00000160: cb50 ac3d 0407 2a3e 9c5e ebbd 9f4e a53e
00000170: bd4f a43e 8b90 cbbd 0f4b 9e3d 774c 3bbe
00000180: 8875 a2bd 7e35 063b ec0b cfbd 6850 44bd
00000190: f146 01bd a854 253c ac46 063e f0e5 7b3d
000001a0: d1ab fb3a 17e0 cebb 758b 623d 0a28 e4bd
000001b0: 4f1f a13e c4ab 20bc 2c89 f43d 227d 973e
000001c0: bff1 b03d c8cd aa3d 8333 02be 86ed 40bd
000001d0: ce83 193e aefb 23bd 73f4 d6bd 8370 b5bc
000001e0: e4f7 083e 0f24 77bd ca86 acbd 72a9 d7bd
000001f0: 733e 323d 8bed b73e f5ce 763d 1836 163b
00000200: e2b9 84bd 4215 413e 470d 0abd 551d 2f3d
00000210: 177c a3bd d807 8abc 0144 adbd fd85 973c
00000220: 4b60 6cbe 731b 94bd 81a3 563d 9844 953c
00000230: 7322 cdbd d445 9bbd 82e8 2ebd f489 d23d
00000240: b81f 10be b6e8 633e 8396 413d e32e ed3c
00000250: 2909 d6bd ae78 85bb 7c37 053c d07c 97bd
00000260: f648 38bc 2c58 fd3d c49c af3c 9430 98bd
00000270: a77a a63c d6ee a7bd 8dd2 4b3d 7e6c a4bd
00000280: ad7e abbb 45ca d23b 5471 d0bd a525 1bbe
00000290: 3384 0f3d 8cbe 2ebc 2dd9 363e 930d 573d
000002a0: 5831 8e3d 2c94 c9be 06ad 6bbd a8e2 44bd
000002b0: 6bd8 1ebe cdf8 9a3e 3eb9 6fbd 3ccd bd3b
000002c0: d6b9 9cbd 8ba7 4b3e c2eb 613d c987 223e
000002d0: fe91 ed3d 7385 55bd 15e1 39bd 494f c93d
000002e0: dedd ba3b 0ae1 28be fd03 cb3c 97fb 72bc
000002f0: 02d8 1d3e 1922 df3b 5924 713d 6d52 f73d
00000300: 8a9e c4bd 7d49 e23c ab07 65bd 8da5 073e
00000310: 1563 31bd 8020 7ebc d016 84bc d057 37be
00000320: a38e 413d 0422 d3bd 4cb7 0f3d cf59 81bd
00000330: 26cd bdbb 43f2 bfbc 3b16 da3d 1a4b f9bd
00000340: f2e3 b43d c7f4 823c 3a01 6abb 86b8 963d
00000350: f389 bcbd 53b4 38be 9c33 ccbd 224a bbbe
00000360: 1bdf 31bd 6db6 69bd 879f 5cbc 8e9e 5a3e
00000370: 73e2 183e 6000 493d e32c 8b3d c60e 233d
00000380: e7e4 a2bd 15d6 48be 2a36 763d a530 cebb
00000390: 13a4 82bc a7c0 9ebc 7e97 b2bc 0606 09be
000003a0: 41c0 fabc 5855 22bd 8916 993e 5417 d73c
000003b0: 42a1 4a3d 40f5 863d 63a8 42be 5899 14bf
000003c0: 7f41 813e 6c6b 1dbe dd08 14bd 2059 d93d
000003d0: eb14 0cbf e168 0fbe 5e3b efbd 5694 25be
000003e0: 0e34 113f d245 eb3e 94eb bcbe 5c84 af3d
000003f0: 0f7f af3d ffac 2cbd 65fb cf3b d3a1 cfbb

lin1.bias f4 [64]
0.06715941 0.054146584 0.068270825 -7.9630885e-10 0.04431753 0.03201923 0.017516738 0.03958828
0.111498915 0.037352376 0.05768415 0.037594434 0.059200224 0.050874922 -6.098095e-05 0.049576674
0.03004076 0.0339511 0.036317125 0.036483824 0.035808682 0.054131173 0.03127821 0.025765808
0.054411434 0.051354133 -4.849807e-15 0.057058066 0.03519107 0.049725253 0.05815752 0.060164917
0.03846381 0.053333394 0.048153017 0.030735005 0.059153616 0.032575034 0.063118495 0.038440883
-7.613996e-07 0.055254266 0.064158954 0.047176033 0.03881535 0.12031799 0.039369363 0.049667757
-2.1635526e-06 -5.742443e-07 0.041801043 0.041013125 0.059217274 0.054739084 0.033065934 0.05307347
0.039204527 0.044131022 0.049575694 0.026472747 0.06028581 -4.231152e-09 0.050072845 0.027200071
00000000: df8a 893d cfc8 5d3d 93d1 8b3d 41e3 5ab0
00000010: 4c86 353d 9926 033d 437f 8f3c 5227 223d
00000020: 8b59 e43d cefe 183d 3746 6c3d 9ffc 193d
00000030: ef7b 723d 3962 503d ccc5 7fb8 e910 4b3d
00000040: 0a18 f63c 4f10 0b3d 44c1 143d 1070 153d
00000050: 20ac 123d a6b8 5d3d 951d 003d d112 d33c
00000060: 86de 5e3d b658 523d 93bb aea7 b8b5 693d
00000070: 8324 103d b5ac 4b3d 9436 6e3d 7d6f 763d
00000080: 3a8c 1d3d 1e74 5a3d 193c 453d fac7 fb3c
00000090: 104b 723d 666d 053d 4544 813d 3074 1d3d
000000a0: fb62 4cb5 4c52 623d c565 833d a83b 413d
000000b0: d8fc 1e3d 4769 f63d c541 213d 6b70 4b3d
000000c0: 8d31 11b6 c525 1ab5 9237 2b3d 61fd 273d
000000d0: d08d 723d 1736 603d 2570 073d 9163 593d
000000e0: ed94 203d bbc2 343d e20f 4b3d 60dd d83c
000000f0: 41ee 763d 9b61 91b1 2f19 4d3d afd2 de3c

lin2.weight f4 [8, 64]
-1.4094802 0.808322 -1.3440088 7.155288e-14 1.2685646 -1.2179912 1.3859959 -1.2616128
-0.5888735 1.0017023 -1.334497 -1.3006955 -1.3229461 1.2451315 -0.0002291229 1.1886169
-0.78885585 1.2858299 -1.2999823 1.3137255 0.9889424 1.0701946 -1.4110404 1.343563
-1.0952786 0.87208706 -5.5675206e-16 -1.3773711 1.4864031 -1.488208 0.8134453 0.97458935
-1.274798 0.91009563 1.0963218 -1.3255401 1.0097291 1.349536 -1.3058213 -1.4097985
1.6892838e-07 1.0427964 -1.2842784 1.2571226 -0.8478287 -0.4925965 -1.3944024 -1.3183696
-8.6706006e-24 -3.9963286e-08 -1.2009039 1.4031351 -1.3914632 1.1595099 -1.2077937 0.90911907
-1.3014427 0.43092299 1.2462302 1.4023113 -1.2709097 1.9354265e-10 -0.8435304 1.1864417
0.9578191 0.92019063 1.0845634 -1.1464336e-13 0.26612058 -1.7736548 -1.6211194 -1.9449382
0.115025505 -0.9055081 1.2141522 -1.25301 0.8348503 -0.0079318015 5.0100003e-05 0.833682
-1.5726306 -1.4495351 -1.5666988 -0.8417396 -0.8649316 0.77933234 -1.4306629 -1.3453426
0.6923028 1.302433 3.338958e-16 1.4781266 -1.4101416 -0.51713353 0.20320453 0.2788711
-1.2672449 1.3452309 0.92599744 -1.6566777 1.5868969 -0.94110006 1.6556796 -1.1121515
-6.0586046e-08 1.001129 1.3280263 1.5749786 -1.3879516 -0.15203312 -1.1544402 -0.24266051
-6.5189604e-26 -8.854746e-08 -1.7533478 -0.34695965 0.08331159 0.72387755 -1.2943448 0.7096758
-1.2524765 -0.5493641 0.37581822 -1.4569212 1.2320967 1.4389563e-10 1.3532134 -1.661639
0.83849406 -1.4809301 0.7305212 -2.2377026e-13 -1.4461507 0.6880465 -1.1846262 1.0092046
-0.07002492 -1.3630881 1.2508963 1.3774135 -1.3596108 1.0458863 0.00021092343 -1.4786162
-0.07858045 1.4003063 -1.3273973 -1.2738372 -1.3967407 -1.2920244 1.1686177 1.3460134
-0.20858727 -1.4495518 -1.6603888e-15 -1.304601 -1.3595176 -1.4783497 -1.4577755 0.60519755
1.2375672 1.1630939 -1.3003677 0.41266945 0.7898866 -1.3381095 1.440211 -1.4328377
-7.626004e-08 1.2693859 -1.4313575 -1.4151744 1.4410173 -0.14343014 1.3546287 -1.4241005
-1.0256364e-25 1.9118119e-07 1.1962581 1.4460849 -1.4975045 -1.5648243 1.4590892 0.80357367
1.2601924 0.8095362 1.1875231 1.4488865 0.91909635 1.3641445e-10 -0.58332056 -1.2740023
1.0566623 -1.5933795 0.3930585 2.1513468e-14 1.3680915 1.3039345 -1.1113138 1.190385
-0.31623375 1.2110436 1.1406804 -1.5289153 0.3830955 1.1804072 -0.0004627316 1.2516094
-1.4151882 -1.1821505 0.9021489 -1.3257349 -0.01301767 -1.4741906 -1.5125453 -1.4510205
-0.19441035 -1.7218008 3.840863e-15 -1.5418442 -0.00024166 -1.6226388 1.2948724 0.6921667
-1.4077972 -1.3481965 -1.7430687 -1.4332974 -1.6866679 -0.83054996 1.1358001 -1.4683647
-7.414253e-07 1.2189846 0.5292091 -0.8328314 1.6383979 0.121760644 -1.607474 0.80678546
-8.424505e-25 -1.5711187e-07 1.3384715 1.560583 0.81509686 1.39987 -1.4005138 -0.51918584
-1.4689234 0.5688729 1.3271588 -1.6267987 0.32941687 -2.7281155e-10 -0.75851554 -1.2223278
00000000: d969 b4bf 31ee 4e3f 7b08 acbf 6d1f a129
00000010: 5360 a23f 23e7 9bbf 5068 b13f 877c a1bf
00000020: 6ac0 16bf c837 803f ccd0 aabf 317d a6bf
00000030: 4c56 a9bf 7860 9f3f b640 70b9 9924 983f
00000040: 75f2 49bf 1396 a43f d265 a6bf 2828 a83f
00000050: 542b 7d3f 23fc 883f f99c b4bf dff9 ab3f
00000060: 1732 8cbf 1941 5f3f 0d79 20a6 b24d b0bf
00000070: 7542 be3f 9a7d bebf f43d 503f b07e 793f
00000080: 952c a3bf 07fc 683f 4654 8c3f 4cab a9bf
00000090: ce3e 813f 98bd ac3f 2725 a7bf 4774 b4bf
000000a0: ae62 3534 5a7a 853f 3c63 a4bf 65e9 a03f
000000b0: 4d0b 59bf 9c35 fcbe c77b b2bf 56c0 a8bf
000000c0: bcb6 2799 19a4 2bb3 38b7 99bf ee99 b33f
000000d0: 771b b2bf d26a 943f fc98 9abf 07bc 683f
000000e0: ad95 a6bf f0a1 dc3e 7984 9f3f f07e b33f
000000f0: 2bad a2bf 6acd 542f 9cf1 57bf 52dd 973f
00000100: a233 753f 9d91 6b3f f9d2 8a3f b313 01aa
00000110: f540 883e 1f07 e3bf d780 cfbf bcf3 f8bf
00000120: 7e92 eb3d 61cf 67bf 5769 9b3f a262 a0bf
00000130: c0b8 553f 63f4 01bc 7822 5238 2f6c 553f
00000140: f64b c9bf 5e8a b9bf 9689 c8bf 3f7c 57bf
00000150: 286c 5dbf 5382 473f f61f b7bf 3034 acbf
00000160: c23a 313f 20b6 a63f 537a c025 4133 bd3f
00000170: 857f b4bf dd62 04bf d914 503e 31c8 8e3e
00000180: 1535 a2bf 8730 ac3f 2b0e 6d3f 040e d4bf
00000190: 701f cb3f efeb 70bf 4fed d33f fb5a 8ebf
000001a0: 881b 82b3 ff24 803f c4fc a93f e698 c93f
000001b0: 66a8 b1bf 92ae 1bbe b2c4 93bf ff7b 78be
000001c0: d266 a195 7b27 beb3 b36d e0bf b2a4 b1be
000001d0: 449f aa3d 0a50 393f 17ad a5bf 50ad 353f
000001e0: 2651 a0bf 20a3 0cbf 3f6b c03e 657c babf
000001f0: 58b5 9d3f 0537 1e2f 1936 ad3f 96b0 d4bf
00000200: 8ca7 563f 1e8f bdbf 7003 3b3f 63f1 7baa
00000210: 771b b9bf d123 303f d5a1 97bf 9e2d 813f
00000220: 3a69 8fbd ac79 aebf 5f1d a03f 164f b03f
00000230: ba07 aebf 9adf 853f 542b 5d39 4c43 bdbf
00000240: c9ee a0bd 3d3d b33f 28e8 a9bf 190d a3bf
00000250: 66c8 b2bf 0e61 a5bf 4495 953f 2b4a ac3f
00000260: e797 55be ea8a b9bf 8949 efa6 2afd a6bf
00000270: ac04 aebf 903a bdbf 6398 babf 3aee 1a3f
00000280: 9a68 9e3f 43e0 943f 7372 a6bf 6949 d33e
00000290: 0236 4a3f 2c47 abbf d658 b83f 3a67 b7bf
000002a0: 66c4 a3b3 3d7b a23f b936 b7bf 6f24 b5bf
000002b0: 4173 b83f 5adf 12be 7964 ad3f ed48 b6bf
000002c0: 6eef fd95 7c47 4d34 fc1e 993f 4f19 b93f
000002d0: 3aae bfbf 2a4c c8bf 6fc3 ba3f 01b7 4d3f
000002e0: fc4d a13f c43d 4f3f c200 983f 1d75 b93f
000002f0: e649 6b3f 41fd 152f 7f54 15bf 8212 a3bf
00000300: b640 873f dcf3 cbbf f73e c93e aec6 c128
00000310: 9f1d af3f 53e7 a63f 883f 8ebf 895e 983f
00000320: 64e9 a1be 7a03 9b3f d101 923f 7fb3 c3bf
00000330: 1825 c43e 9517 973f c99a f2b9 bd34 a03f
00000340: e324 b5bf b550 97bf 3bf3 663f aeb1 a9bf
00000350: 1148 55bc 47b2 bcbf 169b c1bf 0abb b9bf
00000360: 8213 47be f863 dcbf b561 8a27 275b c5bf
00000370: 1d66 7db9 a1b2 cfbf 61be a53f d631 313f
00000380: b332 b4bf b491 acbf e01c dfbf 4a76 b7bf
00000390: bce4 d7bf ec9e 54bf e661 913f 60f3 bbbf
000003a0: 5c06 47b5 b007 9c3f 3f7a 073f 7034 55bf
000003b0: 06b7 d13f a55d f93d b5c1 cdbf 7e89 4e3f
000003c0: e75c 8297 95b2 28b4 0953 ab3f 2fc1 c73f
000003d0: 30aa 503f f12e b33f 0944 b3bf 5de9 04bf
000003e0: af05 bcbf a8a1 113f 57e0 a93f f13a d0bf
000003f0: 54a9 a83e d0fa 95af 132e 42bf 3d75 9cbf

lin2.bias f4 [8]
-0.45196575 -0.06073263 -0.40896636 -0.08769287 -0.21006677 -0.4065139 -0.17020978 -0.3285401
00000000: 0e68 e7be c7c2 78bd 0a64 d1be 5298 b3bd
00000010: be1b 57be 9722 d0be 794b 2ebe 6836 a8be

prop1.temp f4 [11]
3.2220829 3.192339 2.8834727 -0.012449491 -0.017883424 -0.015365339 -0.00967872 0.14558412
1.5180155 1.7776321 0.15044712
00000000: 9b36 4e40 484f 4c40 d18a 3840 f3f8 4bbc
00000010: 4280 92bc e7be 7bbc 7e93 1ebc 0114 153e
00000020: 554e c23f 7389 e33f cf0e 1a3e
