save_parameters/BernNet_model_0324_1035.pt (torch, 599324 bytes, 5 tensors)

lin1.weight f4 [64, 2325]
0.0031648215 0.0053756726 -0.0007180592 -0.015340111 0.0006816264 -0.0028451215 -0.0029846528 -0.0023344993
-0.0010058945 0.0004302028 0.0021665408 -0.0038190475 -0.0026480025 0.0033697025 -0.0044851634 -1.4838937e-05
0.005125811 -0.0012076013 -0.002771538 0.0041435766 0.0011479239 0.00011159346 0.0035487674 -0.0040233186
-0.0021770753 -0.005140394 0.0018381096 0.018195359 0.0032090144 -0.0010771304 -0.0006828379 0.003356092
-0.0033870148 0.0023935928 0.002088157 0.004609829 0.001637029 -0.006190615 -0.0009137439 -0.00032462156
-0.005247704 0.0021838949 0.003529777 -0.0006539742 -0.00054849434 -0.00024876127 0.0022611674 0.0020521353
-0.021061195 0.00048769615 -0.0022134045 0.0045000287 0.003293729 0.0013520665 0.00087459665 -0.0029961565
0.0058750985 0.003253449 0.0005981554 -0.008240496 0.0011479604 -0.0008050586 0.0035581498 -0.0005670574
-0.008236662 0.0035330085 -0.002154199 0.01801493 -0.0017286423 0.0028709373 0.0012213507 -0.0008317893
-0.0022628012 0.0031350225 -0.006862944 -0.0026234412 0.018549215 -0.0023956327 0.0010289818 -0.0043576676
0.017043084 -0.00023294945 0.0008167778 0.0014985166 0.0030755643 -0.0074618566 0.0025892006 -0.0040958836
-0.00065604795 0.00040645973 -0.00035600096 0.0056409724 -0.0028788203 0.000433058 0.021188775 -0.005725508
0.004845068 0.0016567151 0.008019783 0.0016051219 0.011549323 0.0020968139 -0.0022145994 0.00075341767
-0.0029995842 0.02389329 0.00569846 -0.0024296846 -0.00036691438 -0.003245664 0.005897921 -0.002667734
-0.002631412 -9.5395895e-05 -0.00081310346 -0.0029099751 0.006846625 -0.0046016676 -0.0033883238 -0.013439936
-0.003676396 -0.0007133051 0.0038077557 0.0009151022 -0.003378769 -0.00079584785 0.0011642769 -0.000572519
-0.0015975051 0.0016177518 0.0036479845 -0.00038280187 0.01890031 -0.0007968561 0.0052454034 -0.0009964773
-0.0021169754 -0.0006054683 -0.0050937417 0.00060553104 0.005583239 -0.0020975752 0.0011179611 -0.0029741987
-0.0019206624 -0.015440758 0.0009334866 -0.0023564145 0.0017184635 0.0044294633 -0.0010920168 -0.005238213
0.0032255931 -0.0019566123 -0.003457634 -0.002018695 0.003324483 -0.0029575112 0.0021440438 -0.0012376732
-0.0030918422 -0.0008761615 0.00059569476 6.574558e-05 -0.0032799756 -0.0025157942 0.0011308538 0.003165435
-0.003327269 0.008354511 0.001655771 -0.0033028165 0.0041573364 -0.0021105479 0.008411891 0.0032992885
0.0023808572 -0.0010136311 0.003455795 -0.00096374657 -0.0013503019 0.0012385792 -0.0034761045 0.0018253601
-0.0071932953 0.0038537642 0.0040798592 -0.0007408053 -0.001847438 -0.004657768 5.088729e-05 0.0028343317
-0.00032829342 0.004926247 0.0021271184 0.0005310175 -0.0041683437 0.0005868168 -0.003724642 -0.0076851575
-0.0010768498 -0.0019771177 -0.01740957 0.00531109 -0.0046403166 -0.003332923 0.005099016 -0.002726717
0.0005614204 0.011982558 0.008015223 -0.0050909747 0.0030865641 -0.0028555563 0.010939611 0.0007223941
0.0016002709 0.005728458 -0.0016970023 8.925877e-05 -0.0029948996 -0.0025501093 -0.0009958942 0.006516376
0.005434521 -0.0031963496 0.00090750365 0.0020592473 0.001208793 0.001401559 -0.00150805 0.002189384
-0.0030266733 0.0008437163 0.004565935 -0.0041497205 -1.7777144e-05 -0.00083567353 0.0042938543 0.001246061
0.008189171 -0.0040483368 -0.006965708 -0.0033627166 0.0027910427 -0.0053165946 -0.00010812719 -0.0005299698
0.0009719688 0.0029720864 -0.0051280293 -0.001432424 -0.00062223116 -0.0035589477 -0.00025118922 -0.003503373
00000000: e568 4f3b 6926 b03b 233c 3cba 1755 7bbc
00000010: 2caf 323a 3875 3abb 2a9a 43bb 66fe 18bb
00000020: 38d8 83ba d88c e139 86fc 0d3b fc48 7abb
00000030: 1c8a 2dbb 3ad6 5c3b 47f8 92bb c0f4 78b7
00000040: 6bf6 a73b 6048 9eba b1a2 35bb d7c6 873b
00000050: ef75 963a 4807 ea38 7092 683b 0bd6 83bb
00000060: 43ad 0ebb c070 a8bb b9ec f03a 6f0e 953c
00000070: 544e 523b 802e 8dba 7a00 33ba e1f1 5b3b
00000080: aef8 5dbb d3dd 1c3b 76d9 083b 0c0e 973b
00000090: 9491 d63a a4da cabb 5188 6fba f831 aab9
000000a0: eff4 abbb ad1f 0f3b d553 673b 776f 2bba
000000b0: d5c8 0fba 2c6c 82b9 1830 143b 1e7d 063b
000000c0: 8788 acbc 78b1 ff39 c40e 11bb fa74 933b
000000d0: 9adb 573b d337 b13a 3045 653a 2a5b 44bb
000000e0: e683 c03b d137 553b 88cd 1c3a 2503 07bc
000000f0: 2977 963a 910a 53ba d92f 693b 94a6 14ba
00000100: 10f3 06bc 0c8a 673b 762d 0dbb 0c94 933c
00000110: 9c93 e2ba 5626 3c3b bb15 a03a 6f0c 5aba
00000120: 814b 14bb f374 4d3b 8ce2 e0bb 0aee 2bbb
00000130: 86f4 973c 0c00 1dbb e6de 863a c4ca 8ebb
00000140: f09d 8b3c e443 74b9 081d 563a e069 c43a
00000150: 688f 493b 9782 f4bb 94af 293b c336 86bb
00000160: a2fa 2bba 1a1a d539 a4a5 bab9 e8d7 b83b
00000170: 97aa 3cbb 100c e339 1594 ad3c 0b9d bbbb
00000180: 60c3 9e3b 2226 d93a 6865 033c f462 d23a
00000190: 5f39 3d3c b36a 093b d022 11bb 0181 453a
000001a0: ac94 44bb dcbb c33c 26ba ba3b 583b 1fbb
000001b0: 6a5e c0b9 35b5 54bb 5943 c13b 26d5 2ebb
000001c0: c473 2cbb 480f c8b8 7326 55ba 48b5 3ebb
000001d0: a759 e03b 96c9 96bb a40e 5ebb 2d33 5cbc
000001e0: b1ef 70bb 18fd 3aba 8a8b 793b 78e3 6f3a
000001f0: 566e 5dbb 72a0 50ba a69a 983a 1a15 16ba
00000200: 6063 d1ba be0a d43a 0613 6f3b ccb2 c8b9
00000210: d3d4 9a3c 1ce4 50ba a2e1 ab3b 3b9c 82ba
00000220: f4bc 0abb 4ab8 1eba 67e9 a6bb 80bc 1e3a
00000230: 9af3 b63b 7977 09bb 8d88 923a c6ea 42bb
00000240: bcbe fbba 3cfb 7cbc 3ab5 743a 136e 1abb
00000250: 113e e13a 0825 913b 0122 8fba 51a5 abbb
00000260: 7964 533b 823a 00bb 7999 62bb 154c 04bb
00000270: 92df 593b ced2 41bb 1683 0c3b 6c39 a2ba
00000280: 81a0 4abb 34ae 65ba 6628 1c3a e4e0 8938
00000290: dcf4 56bb 06e0 24bb 2839 943a 3073 4f3b
000002a0: 500e 5abb 5ce1 083c 7506 d93a 1174 58bb
000002b0: 443a 883b 1e51 0abb 07d2 093c e038 583b
000002c0: 2808 1c3b d1db 84ba 9f7a 623b f0a3 7cba
000002d0: 9dfc b0ba d257 a23a 5bcf 63bb ec40 ef3a
000002e0: bcb5 ebbb 6f8f 7c3b 57b0 853b 9a32 42ba
000002f0: bc25 f2ba 31a0 98bb d06f 5538 32c0 393b
00000300: cc1e acb9 5b6c a13b 2067 0b3b fb33 0b3a
00000310: 9a96 88bb 9cd4 193a 2019 74bb c6d3 fbbb
00000320: 1525 8dba 8892 01bb 849e 8ebc a708 ae3b
00000330: cc0d 98bb 2b6d 5abb a515 a73b b8b2 32bb
00000340: 492c 133a 7e52 443c 4852 033c 31d2 a6bb
00000350: f447 4a3b 4924 3bbb 0e3c 333c 0c5f 3d3a
00000360: 2ec0 d13a cab5 bb3b f36d deba 7030 bb38
00000370: 1446 44bb bc1f 27bb aa88 82ba 5387 d53b
00000380: 1114 b23b d979 51bb 8ae5 6d3a 70f4 063b
00000390: 5d70 9e3a 84b4 b73a c3a9 c5ba c57b 0f3b
000003a0: 275b 46bb d82c 5d3a d79d 953b 61fa 87bb
000003b0: 2020 95b7 1a11 5bba 76b3 8c3b de52 a33a
000003c0: df2b 063c e9a7 84bb 9840 e4bb 0661 5cbb
000003d0: ede9 363b d436 aebb 58c2 e2b8 aced 0aba
000003e0: b9cb 7e3a 56c7 423b 0709 a8bb 2cc0 bbba
000003f0: 3a1d 23ba 3c3d 69bb 0cb2 83b9 d898 65bb

lin1.bias f4 [64]
0.0022011944 -0.01497747 0.0204598 -0.008295881 -0.0066841627 0.029723918 0.017702647 -0.00045000802
-0.01892603 -0.021319497 0.0025829216 0.009876824 0.0066760257 0.0066220057 0.006595169 0.0023351987
-0.0074839233 -0.022366438 0.001805206 -0.0086091785 -0.022213256 0.014969308 -0.013573274 -0.0049573914
-0.0038904082 0.0031104363 -0.006307021 0.006153423 0.017157923 -0.007449806 0.022213722 0.009346019
-0.0063728825 -0.008214082 -0.0066739228 0.010210113 -0.009922126 0.009492836 -0.018056218 0.0035320402
0.01355599 -0.012579627 0.01906928 -0.004136477 -0.0058686626 0.01776351 -0.016560348 -0.008463232
-0.011499399 -0.012770193 0.018374473 -0.0048582135 -0.02530906 0.016771846 0.0156058725 0.010539094
-0.013461926 0.0033004133 0.004578261 0.01295698 -0.003899064 0.019668262 0.015920687 -0.006445859
00000000: ea41 103b 1064 75bc 4f9b a73c 72eb 07bc
00000010: d206 dbbb 937f f33c 2405 913c 0eef ebb9
00000020: c30a 9bbc 3aa6 aebc 3c46 293b 67d2 213c
00000030: 90c2 da3b 69fd d83b 4a1c d83b 220a 193b
00000040: b33b f5bb d239 b7bc a99c ec3a 830d 0dbc
00000050: 93f8 b5bc d441 753c 7062 5ebc 9d71 a2bb
00000060: 38f6 7ebb 76d8 4b3b 20ab cebb a7a2 c93b
00000070: c68e 8c3c 811d f4bb 8df9 b53c 0b20 193c
00000080: 9dd3 d0bb 5b94 06bc ecb0 dabb 5148 273c
00000090: 6a90 22bc d787 1b3c a2ea 93bc cd79 673b
000000a0: f119 5e3c c81a 4ebc 2e37 9c3c 498b 87bb
000000b0: e94d c0bb c884 913c 91a9 87bc 5ea9 0abc
000000c0: fa67 3cbc 123a 51bc 1086 963c a631 9fbb
000000d0: f254 cfbc 1c65 893c c6af 7f3c 2aac 2c3c
000000e0: 698f 5cbc bf4b 583b 3d05 963b 8349 543c
000000f0: 7087 7fbb 561f a13c 1a6c 823c c937 d3bb

lin2.weight f4 [5, 64]
-0.06880244 0.004763179 0.12201545 -0.017171137 0.107692614 0.09235594 -0.070679024 -0.12268439
0.0861712 0.029253677 -0.022696085 -0.0189448 0.041415792 -0.11815952 0.086574264 0.007526163
0.01782017 0.030808343 0.0060750768 0.02068962 -0.07494977 0.039618354 -0.09186743 -0.05759164
0.08539506 -0.017681818 -0.03175141 -0.09638306 0.059635907 0.042205714 -0.044616964 0.057863917
0.061215933 0.059948925 0.0061583207 -0.034712687 0.094156824 -0.02664292 -0.08817954 0.10646604
-0.017989399 0.10285145 -0.028902352 0.06669804 -0.05663796 0.053073194 -0.10314163 0.017030323
0.0005025905 0.122115456 0.11351553 -0.10599881 -0.032986704 0.11187996 0.007953283 -0.035953946
-0.07227142 -0.104318656 -0.08068597 0.034966175 -0.023792943 0.11154175 -0.047971677 0.079184234
-0.018097382 0.021872245 0.096993774 -0.03841103 -0.109915264 0.10455536 0.07260563 -0.03710399
0.056305874 -0.031381868 -0.11881254 0.0143519705 0.11312353 -0.08491102 0.093188696 0.11447935
-0.029378196 -0.08218847 0.09886063 0.024315633 -0.073141314 -0.021582695 0.13183247 0.1113962
-0.0026273755 0.082885064 0.06269427 0.0112295505 0.060970277 0.06546678 0.091924705 0.05200716
0.04725407 -0.05936925 0.07245006 0.11327603 0.014047826 -0.046703223 -0.06513752 0.067563035
-0.11149197 -0.09431545 0.026849251 -0.08151941 -0.069898404 0.045738507 -0.043992117 0.02101166
0.09494046 -0.0600835 0.05325877 0.019324705 -0.016650558 -0.11016128 -0.0797066 -0.06266463
-0.0507032 0.10897741 0.047164712 -0.037132166 -0.03322537 -0.09662952 0.06819248 0.019477045
-0.07968935 -0.10417753 -0.051034756 -0.09856454 -0.040452704 0.12876797 -0.045416296 0.12942699
-0.064116076 0.001940157 0.07032967 -0.040864345 0.06841729 -0.0681031 0.100171976 0.1266154
-0.045065667 0.03226804 0.040756978 -0.0682524 -0.11190211 0.057355527 -0.07604254 0.093094625
-0.04337883 0.0061877803 0.06870305 0.107816815 0.07878747 -0.006617687 -0.087366804 -0.047109216
0.052138366 0.06457879 0.10750748 -0.014671157 0.057016924 0.09721332 -0.01762507 0.123032644
0.13326249 -0.030353777 -0.053139266 -0.024251444 0.044498682 -0.06951349 -0.029717125 -0.09367643
-0.038410988 -0.006090378 0.04427345 -0.069476865 0.05863545 -0.04259253 -0.08213086 0.06551513
0.118724845 0.021394247 -0.04929587 0.037741646 -0.10309445 -0.046583034 0.12027574 0.008927342
-0.11009125 -0.01739406 -0.060308587 -0.0011182167 0.006724349 0.052909844 0.04201805 -0.09408073
0.068962514 -0.10523996 -0.0741053 -0.04188356 0.018641707 0.10616182 -0.115871124 -0.121593475
-0.018934237 0.090496354 -0.014060009 0.07311405 -0.045919117 -0.104501896 0.1105628 0.06849332
-0.040438008 -0.038143802 -0.008785666 0.10544862 -0.08379656 -0.027935881 0.079101436 -0.032023467
0.047162026 0.0029327408 0.061515763 0.08663813 0.08967117 0.08104087 -0.03356077 0.07233855
0.036090028 -0.07610809 0.061140917 0.109609425 -0.061116144 -0.061756738 -0.10239341 -0.04745838
-0.009336255 0.08127635 0.118430875 0.082932025 0.0100448355 -0.014747742 0.08636595 0.057006218
0.04788872 -0.03170565 0.04180259 -0.055127565 0.023993338 -0.069645345 0.12963738 0.037405666
00000000: 4be8 8cbd 7114 9c3b 3ce3 f93d 7caa 8cbc
00000010: f28d dc3d 1c25 bd3d 2ac0 90bd f441 fbbd
00000020: 877a b03d 68a5 ef3c 24ed b9bc 2032 9bbc
00000030: 9ba3 293d 9efd f1bd d94d b13d 089e f63b
00000040: 9bfb 913c c761 fc3c 7011 c73b 477d a93c
00000050: 447f 99bd db46 223d fe24 bcbd 36e5 6bbd
00000060: 9be3 ae3d 76d9 90bc c40d 02bd 7b64 c5bd
00000070: c844 743d e6df 2c3d 47c0 36bd b702 6d3d
00000080: 8fbd 7a3d 018d 753d bdcb c93b e42e 0ebd
00000090: 4bd5 c03d 4142 dabc 7a97 b4bd de0a da3d
000000a0: 815e 93bc c8a3 d23d a0c4 ecbc fb98 883d
000000b0: 35fd 67bd 4763 593d eb3b d3bd 2d83 8b3c
000000c0: 47c0 033a ab17 fa3d d57a e83d e715 d9bd
000000d0: 111d 07bd 5221 e53d 7d4e 023c 7244 13bd
000000e0: 0a03 94bd 05a5 d5bd b03e a5bd b138 0f3d
000000f0: 6be9 c2bc 0070 e43d f37d 44bd 582b a23d
00000100: f640 94bc 6c2d b33c aca4 c63d e254 1dbd
00000110: 411b e1bd 1f21 d63d 43b2 943d 5afa 17bd
00000120: fda0 663d 468a 00bd fd53 f3bd 8724 6b3c
00000130: 4fad e73d d4e5 adbd b7d9 be3d 2674 ea3d
00000140: 8baa f0bc 6e52 a8bd 7177 ca3d 9431 c73c
00000150: 1dcb 95bd 31ce b0bc 17ff 063e b123 e43d
00000160: 0c30 2cbb a5bf a93d da65 803d 26fc 373c
00000170: f8bb 793d 7213 863d 0543 bc3d 7605 553d
00000180: 7c8d 413d 2c2d 73bd b260 943d 43fd e73d
00000190: da28 663c e14b 3fbd d266 85bd 7d5e 8a3d
000001a0: e755 e4bd 7528 c1bd f6f2 db3c a6f3 a6bd
000001b0: e526 8fbd 4d58 3b3d 1431 34bd a520 ac3c
000001c0: 2570 c23d 1e1a 76bd de25 5a3d d84e 9e3c
000001d0: c066 88bc 3d9c e1bd 373d a3bd 5056 80bd
000001e0: 29ae 4fbd 8c2f df3d c92f 413d e617 18bd
000001f0: 5317 08bd b3e5 c5bd 80a8 8b3d 538e 9f3c
00000200: 2c34 a3bd 075b d5bd d209 51bd 35dc c9bd
00000210: bcb1 25bd c0db 033e 7006 3abd 8288 043e
00000220: 4a4f 83bd de4c fe3a 0109 903d 5f61 27bd
00000230: 5d1e 8c3d a379 8bbd f726 cd3d 78a7 013e
00000240: c796 38bd 7e2b 043d caf0 263d eac7 8bbd
00000250: ef2c e5bd a1ed 6a3d 31bc 9bbd 65a8 be3d
00000260: 00ae 31bd ddc2 ca3b 2fb4 8c3d 10cf dc3d
00000270: 535b a13d 2fd9 d8bb 5eed b2bd 98f5 40bd
00000280: 0a8f 553d e241 843d e22c dc3d 4b5f 70bc
00000290: 948a 693d c717 c73d 7362 90bc 8af8 fb3d
000002a0: f675 083e 7ca8 f8bc 8fa8 59bd f7aa c6bc
000002b0: 4044 363d 175d 8ebd 5471 f3bc 6ed9 bfbd
000002c0: d754 1dbd cb91 c7bb 1458 353d e349 8ebd
000002d0: ba2b 703d 8175 2ebd 3934 a8bd cc2c 863d
000002e0: 0326 f33d fd42 af3c 77ea 49bd fc96 1a3d
000002f0: 2f23 d3bd dacd 3ebd 2153 f63d fc43 123c
00000300: 8577 e1bd fd7d 8ebc 2306 77bd 2091 92ba
00000310: ee57 dc3b feb7 583d 1e1b 2c3d 66ad c0bd
00000320: 383c 8d3d 0c88 d7bd 85c4 97bd 198e 2bbd
00000330: 7eb6 983c 5e6b d93d d74d edbd 0006 f9bd
00000340: f91b 9bbc 2756 b93d f45b 66bc d2bc 953d
00000350: af15 3cbd 1705 d6bd c06e e23d 3a46 8c3d
00000360: 53a2 25bd ad3c 1cbd c1f1 0fbc 72f5 d73d
00000370: 889d abbd cad9 e4bc efff a13d 0a2b 03bd
00000380: f82c 413d 3a33 403b f4f7 7b3d 556f b13d
00000390: 85a5 b73d c1f8 a53d 0577 09bd 3c26 943d
000003a0: 23d3 133d 8fde 9bbd e66e 7a3d e87a e03d
000003b0: ec54 7abd a2f4 7cbd a3b3 d1bd b863 42bd
000003c0: 17f7 18bc 3774 a63d e38b f23d 44d8 a93d
000003d0: 1893 243c 83a0 71bc a2e0 b03d 5a7f 693d
000003e0: f626 443d c9dd 01bd 3139 2b3d 71cd 61bd
000003f0: ad8d c43c 38a2 8ebd a9bf 043e af36 193d

lin2.bias f4 [5]
0.002638983 -0.07791977 0.056732308 0.01869038 0.10142004
00000000: caf2 2c3b 6694 9fbd 2360 683d 911c 993c
00000010: 4fb5 cf3d

prop1.temp f4 [11]
0.98562586 1.0154195 1.015276 0.9896542 0.9875684 0.9863508 0.98527676 0.9846913
0.9842676 0.98411113 0.9840933
00000000: fa51 7c3f 44f9 813f 90f4 813f fa59 7d3f
00000010: 48d1 7c3f 7c81 7c3f 193b 7c3f bb14 7c3f
00000020: f6f8 7b3f b5ee 7b3f 8aed 7b3f
