save_parameters/BernNet_model_0324_1025.pt (torch, 599324 bytes, 5 tensors)

lin1.weight f4 [64, 2325]
00000000: 4afa e5b8 9616 3839 385d 033b 2571 c73b
00000010: 19f7 b03b 6c30 baba fecf 8cba 0514 d539
00000020: e04a c439 0a31 d8ba ce97 3fba 0a3a 22bb
00000030: 8e3b 88b9 b4df ca3a db9b 4e3a 8ace b139
00000040: 905a ed3a 6dc2 11ba 1e17 693a 10b6 b1bb
00000050: 842c 80ba 19d4 caba 4c6e 003c d0d7 86ba
00000060: c53e 153a 7211 99ba cec9 7e3a b702 aa3a
00000070: ee6b 1d3a 4a5a 4a39 f93d 8fb9 247c bfba
00000080: d1f5 023a c026 753a f857 8e38 d1f2 fb3a
00000090: d455 063b ec4d d23a 7f4c d4ba 64ac 7eb8
000000a0: 995c da3a 5d8c 35ba 96ee 023a 8a0d 4b3a
000000b0: 467f 173a 55b1 963b 446a afb8 ee82 11b9
000000c0: 7326 acba e01a 2339 f762 f8ba 7c66 513a
000000d0: 2584 d639 1aa5 4a3a 96b2 e6b8 aa8b 7eb9
000000e0: d5e0 013b 1647 03ba a934 c3ba bc03 6f39
000000f0: 5288 d038 6813 e2b9 569b a73a a699 0039
00000100: 5fbf 3e39 f76c 8d3b 7446 5dba 6fe5 dd39
00000110: 2ab8 18b9 7ba0 263a c90d c3ba ec1e cb38
00000120: ff55 beba 23f6 c1b9 8135 163c af70 03ba
00000130: 5c5c dfb8 01ff eb39 7df2 df39 bd9a 5a39
00000140: f6df 233a 6687 0b3a baba 05bc 34c9 6cbb
00000150: c41d 5eba ad12 4f3b 8268 deb8 9b7c 98b9
00000160: aee8 0cba c898 d7ba cf22 fd38 f49e 8d3a
00000170: 5bfd 7239 968a 8639 fde9 baba 92e8 17bb
00000180: b3d3 5aba 704a 123a 60a6 61b8 c8ee 23bb
00000190: 4066 16b9 54dd 24b9 fa4b 4d3a 004d b337
000001a0: 6ddf e03a 5ef8 79bb 40b2 2839 8276 faba
000001b0: ddaa b83a 6373 643a 7c5d 673b 5449 3739
000001c0: c36d 77b9 7aee c53b 7aee 39ba d0d0 65ba
000001d0: 8fe3 05ba cc02 043b 980c 2d3a a058 0a3b
000001e0: e635 e2ba 52e3 c7ba 9875 d0ba 8a90 393a
000001f0: 8130 c03a 8cdb cb3a 61fc a1b9 62cd 8eb9
00000200: 7785 333a 712e 88b9 44fc cab9 a40b 9bb9
00000210: ff12 df3a f9f7 5dba 32d9 653a 7c8c 9eb9
00000220: 967c 503a 8d5b d4b9 d613 27ba c7cc 6b39
00000230: 60ed f9b9 9bbd d3b9 cc50 8c39 f490 21ba
00000240: e967 67b8 2f14 fdba 8fa0 d13a 0889 ca39
00000250: 3ff8 0abb 682b f93a 36d3 d2ba 464f 2939
00000260: 54b3 413b ac59 e3ba 0a56 cbbb 2e02 85ba
00000270: f418 9db9 190a 9fba 5b86 a2ba 1480 a439
00000280: 4f9f 52b9 20c3 b7ba 9fcd 1fba 4a4d f93a
00000290: e80f e638 46e4 a83b 515e daba 6ed4 5eba
000002a0: c488 e7b7 c831 063a 54b6 ceb9 0626 8c38
000002b0: fa17 1eb9 3d65 df39 8eae 7db9 bcf6 f8b9
000002c0: 0522 52ba a485 8d3a c4e9 e13a 74ae c1ba
000002d0: 255a 4d3a e66a 9cba 01f3 f939 362d 9439
000002e0: bfaf 1c3b f605 34b9 2886 05bb ea55 03ba
000002f0: 30f1 bb37 3410 a4bb fcc2 e1bb 76a0 deba
00000300: 5de9 453a 13e1 3d3b 2e26 d9ba 3157 ceba
00000310: 9b57 87ba 8ffc 02b9 5ccd a5ba 2f58 343b
00000320: 2b38 953b ad9e 8e3b 1870 893b 963c 593a
00000330: 7412 123a 304b c9b8 e023 2d3a afce db3a
00000340: 5560 81ba 368a dbba 2d0c 4f3a 46cf 1fb9
00000350: e825 033a 1cc3 ed39 c3fc e5b9 94b3 98ba
00000360: 3adb 0d3a e0e0 bbb9 793e a53b 53db 0339
00000370: 203e 61b8 c24a 163a c466 e339 0c22 73bb
00000380: 6854 dab9 bd8f 0d3a 40a8 8e3a 1a58 3fb9
00000390: 2b65 7739 77ba bdba ea7b a2ba c09c f838
000003a0: 1602 5e39 c46c 4eb8 2e91 9c3a 8a67 a43b
000003b0: 68ba e1b8 7a6d aebb 922d c3ba 068a 12b9
000003c0: d067 023b 90a9 5fb7 e236 34ba 7c24 853a
000003d0: 4a18 eeb9 b66f 65b9 344f f83a 8e07 2eba
000003e0: 88bf 783a b941 02bb bb2e bc3a 78d1 13bb
000003f0: e9db e438 7d69 df39 5c79 8b3a 4a3c 843a
-0.00010966191 0.00017556021 0.0020044576 0.006086486 0.00540055 -0.0014205105 -0.0010743139 0.00040641442
0.0003743982 -0.0016494107 -0.00073086924 -0.0024753832 -0.00025984313 0.0015478046 0.00078815006 0.00033913954
0.0018108655 -0.0005560283 0.00088916894 -0.005423315 -0.0009778892 -0.0015474587 0.007838797 -0.0010287706
0.00056932523 -0.0011678173 0.00097194023 0.001297078 0.00060051575 0.00019297856 -0.0002732126 -0.001460914
0.0004995736 0.00093517825 6.787473e-05 0.0019222145 0.0020497935 0.0016044951 -0.0016197114 -6.071887e-05
0.0016659676 -0.0006925518 0.00049946585 0.0007745853 0.0005779158 0.0045987763 -8.364444e-05 -0.00013877053
-0.0013134017 0.00015554903 -0.0018950392 0.00079879886 0.00040915716 0.00077302905 -0.00011000519 -0.00024275357
0.0019817848 -0.0005007846 -0.0014893013 0.00022794207 9.9436045e-05 -0.00043120538 0.0012787383 0.0001226427
0.00018191103 0.004315968 -0.0008440979 0.00042323346 -0.00014564456 0.0006356311 -0.0014881428 9.685554e-05
-0.0014521478 -0.00036995215 0.00916803 -0.00050140446 -0.00010650672 0.00045012686 0.00042714542 0.00020847745
0.00062513293 0.0005322605 -0.008162195 -0.0036130669 -0.00084730634 0.0031596825 -0.00010605251 -0.00029084538
-0.0005375248 -0.0016448731 0.00012070464 0.0010804818 0.000231733 0.00025661726 -0.0014260408 -0.0023179394
-0.00083475857 0.000558055 -5.379913e-05 -0.002501415 -0.00014343206 -0.0001572271 0.0007831451 2.1374319e-05
0.001715643 -0.0038142423 0.00016088132 -0.0019108804 0.0014089007 0.0008714704 0.0035303524 0.00017479557
-0.00023596645 0.0060403915 -0.0007092726 -0.0008766772 -0.0005107456 0.0020143269 0.0006601303 0.0021109954
-0.0017258495 -0.0015250242 -0.0015904186 0.0007078728 0.0014662893 0.0015553101 -0.0003089635 -0.00027237373
0.0006848196 -0.00025974543 -0.00038716395 -0.00029572577 0.0017019211 -0.0008467432 0.00087680214 -0.00030240777
0.0007953135 -0.00040504002 -0.00063735 0.00022487632 -0.0004766984 -0.00040386323 0.0002676308 -0.00061632623
-5.5171466e-05 -0.0019308383 0.0015993285 0.0003863054 -0.0021205095 0.0019010128 -0.0016084674 0.00016146628
0.002955635 -0.001734545 -0.006205325 -0.0010147744 -0.00029963965 -0.0012133747 -0.001239966 0.00031375943
-0.00020086508 -0.0014019944 -0.00060960086 0.0019020226 0.000109702174 0.0051541654 -0.0016660189 -0.00085002824
-2.7601032e-05 0.00051191123 -0.00039427227 6.6828026e-05 -0.00015076986 0.00042609303 -0.00024192987 -0.00047486078
-0.00080159336 0.0010797274 0.0017235805 -0.0014776723 0.0007833562 -0.0011933714 0.00047674033 0.00028262445
0.0023908464 -0.00017168358 -0.0020374153 -0.00050100556 2.2404449e-05 -0.0050068144 -0.006889699 -0.0016985077
0.00075497275 0.0028973266 -0.0016567165 -0.0015742538 -0.0010325791 -0.00012491852 -0.0012649703 0.0027518382
0.004553815 0.0043524117 0.004194271 0.0008286921 0.0005572208 -9.598432e-05 0.0006604772 0.001676997
-0.0009870628 -0.0016749564 0.00078982377 -0.00015240637 0.0005002902 0.0004534953 -0.00043866606 -0.0011650198
0.00054113904 -0.00035834964 0.0050428477 0.00012574838 -5.370204e-05 0.00057331857 0.0004337338 -0.003709915
-0.00041643088 0.0005400142 0.0010883883 -0.00018248 0.00023593444 -0.0014475127 -0.0012396548 0.000118547585
0.00021172347 -4.9215523e-05 0.0011945122 0.0050172256 -0.00010763557 -0.005323109 -0.00148909 -0.00013975063
0.0019898303 -1.3331315e-05 -0.0006874633 0.0010157968 -0.00045412994 -0.00021880757 0.0018944503 -0.0006638699
0.00094889896 -0.00198756 0.0014357188 -0.0022555273 0.00010912849 0.0004261247 0.0010641026 0.0010088768

lin1.bias f4 [64]
00000000: 8c06 403c b654 b43b 05c3 013d 3b19 2d3d
00000010: 2c9e a2bc 0c58 f83c b904 b73c 2af0 b93c
00000020: 0bc6 893c 5af4 ff3c 87d7 e5bc 0306 d33c
00000030: 2460 4ebc 8d3e aa3c a473 9339 72bd a83c
00000040: 25c0 483d dce0 99bc c93c b13c 8b72 283d
00000050: 405d d13c 4fac b73c 0c8e fc39 c1dc f23c
00000060: ed3b 263d c5f3 983c aa2a cf3b 78a7 98bc
00000070: 29c2 453d e0d5 e13c 7048 ba3c c1d3 f43c
00000080: 0424 bf3c 0073 67ba a32b 303c 854a d23c
00000090: 6048 a2bc 3968 033d 8de2 ba3c 4ba8 863c
000000a0: 902b 59bc e8b8 513d 04ca c8bc e261 ccbc
000000b0: 431e 013d 5960 1f3d 16e9 bbbc ce93 bc3c
000000c0: 69b0 db3c 272b 8e3c 71a6 933c 5bcd cf3c
000000d0: 3cb2 933c dc21 a83c 629d af3c ac5d bbbb
000000e0: 0101 2b3d ec53 ec3c 1025 cb3b 17d0 12bc
000000f0: 91d8 9a3c cf9f 9cbc 6e47 f53c 6a4d c03c
0.011720311 0.0055032624 0.031680126 0.04226039 -0.019850813 0.030315422 0.02234112 0.022697527
0.016818067 0.031244446 -0.028056873 0.025759703 -0.012596164 0.02078178 0.00028124184 0.020598147
0.04901137 -0.01878398 0.02163543 0.04112486 0.02555716 0.02242103 0.0004817102 0.02964628
0.040584493 0.018670926 0.0063222246 -0.018634543 0.04828087 0.027567804 0.022739619 0.029886128
0.023332603 -0.0008829087 0.010752591 0.0256703 -0.019809902 0.032081816 0.022813106 0.01643767
-0.013255015 0.05120173 -0.024510391 -0.024949018 0.031523 0.038910244 -0.022938292 0.023019698
0.026817517 0.017354561 0.018023701 0.025366476 0.018029325 0.020523958 0.02143735 -0.0057179537
0.041749004 0.02884861 0.0061994866 -0.008960745 0.018902095 -0.019119171 0.029941287 0.023474414

lin2.weight f4 [5, 64]
00000000: 155c 5e3d ccdc 83bd e41e 6e3d d53c ec3d
00000010: ea5c bdbd d9e0 85bd 5b18 933d bccc a4bc
00000020: 8d6c debc e91a 71bd 94ea 0a3b 905b babd
00000030: 6c32 803c 3b8a 1cbe 5db7 1a3e 7944 033e
00000040: bfe5 143e c676 45bd d723 fd3d f0d0 a53d
00000050: ddad b83c 45a8 433d 50b8 883d 9691 c33d
00000060: 37bf 213e 29df 0bbd cf04 65bd 30d1 0db9
00000070: 215e d43b 48f7 133e 22b3 acbd 959c e03d
00000080: b022 96bb f3e0 933d f843 043e 7a49 c2bd
00000090: c302 683d 0e9c e53d 5168 c2bd 14a0 09be
000000a0: bd90 58bb 4686 0bbe 5e25 20bb e443 10bd
000000b0: 3a6a dd3d e9ef aa3d b6b7 aabd 3987 a2bd
000000c0: 3dad ffbd 1b43 b63d 1aad e4bd 329b 013d
000000d0: dffe 863d 64f5 9ebd 2d16 c7bd 3a99 ddb9
000000e0: feee 2a3e 78ab a93d 954e 92bd b48c fcbc
000000f0: 56b9 d0bd 05cf 18bc 0366 dc3d b8e4 d83d
00000100: d18f c5bc d455 f23d a780 ddbd 1c50 f63d
00000110: b4d7 02bd 6fc1 593d e76c 6cbd f0ea 8dbd
00000120: d8c7 a7bd 8083 fa3c b4e4 cbb9 bbee 83bd
00000130: 868b 593d 8c0e c5bd 795a dabd 0b35 b2bd
00000140: 891f 0fbe d870 7d3b c8f5 1cbd 61b6 0bbe
00000150: cdc7 c73d 2f8f e0bd ec20 833d db38 9cbd
00000160: eee8 0ebe b297 c63d 983d 2fbd 23f7 043c
00000170: ed47 23be 2881 8bbd d50d 0abe bb1f 3bbe
00000180: 0e00 c1bd 6411 de3c 37b2 6f3d 3e75 a53c
00000190: 7ccc 42bd 3c8d 36be 7307 88bd dd51 13bd
000001a0: 710f 1bbd 3abd 22be 13d8 a2bc 8b6c 1bbb
000001b0: 04c2 b73d 1194 b03c 67dc e03b 8cd8 033e
000001c0: 2187 083e a8db d13d 664a 9f3d 8e59 103d
000001d0: f7c4 903d 9ff4 f03d ca43 fa3d fffb 2dbc
000001e0: be16 c83c 9a61 e7bd 27c5 cb3d fd35 b9bb
000001f0: 9255 083d 8d17 a4bc 6162 0fbe 1007 0ebe
00000200: 5a96 cabb 9096 b2bd aee3 2a3c 1b76 06be
00000210: 35a0 6f3d 92df 67bd f727 02be f979 61bd
00000220: a2bb 093e c714 313e c392 33bd 0ef6 843d
00000230: cc1f 3c3d 48ab 82bd 8b1f efbd 52ed e73d
00000240: d05f d63d ef0e eeba 2355 f43c e1b5 d83d
00000250: 5c49 d7bd ff46 ef3d 7e58 04be ef7d 023e
00000260: 479e efbc 4e58 0cbc 38a3 e93c b1e9 3fbd
00000270: 2082 ab3d a1dd 28be e9ad 023e d89f ee3c
00000280: 5409 123e f769 40bc e867 ce3d 14d4 133e
00000290: 50a9 9abc d07b ea3d 4533 233e 8d10 bc3c
000002a0: 1c7c 5e3c df28 ef3d be95 113d b97c c4b9
000002b0: 1c8b d63d 2e88 fc3d e9a6 5f3c a558 1a3e
000002c0: fad3 a5bd c13c acbc 7eac 823d 5e39 c63d
000002d0: ed0a 32bd 6055 28be f621 91bd 2e76 feba
000002e0: 06ac 073c 1dd0 03bd c770 823d 4416 993c
000002f0: eccc b23d fc16 3ebd de24 00be dad4 dbbd
00000300: e752 e13c 5cf9 99bc a71c 723d 7522 23bd
00000310: faf7 853c cef0 c73c ccb5 33bd 8a7c 073e
00000320: f779 01be 2851 23be 2571 b2bc 9260 223e
00000330: 288e 993d 636f b93d 6a92 77bd c552 86bd
00000340: ec3f 1f3d 76a3 333a 5178 78bd c6f1 e03d
00000350: 5616 d8bc f43d 03be 7062 80bd 0087 cc3d
00000360: 3a18 b43d 3c59 14be fbbc 6fbd d26c c73c
00000370: 1423 403d 1315 df3d d5b3 dfbd 6bfb f7bd
00000380: 7c71 a9bd be8b 333d f1bc 5b3d 59aa 0e3e
00000390: 88e4 0bbd fcd4 c73d 09ee f7bd 641a b23c
000003a0: bcfc 0b3d e2f6 c43d a6b0 a2bc 6844 383d
000003b0: 98d9 29be 5815 d93d b09a 5cbc ab02 be3d
000003c0: 67c7 1e3e 18ec ed3c e427 bf3d a78d 17be
000003d0: 828b 473d 3d55 05bc 6057 163e be16 9ebc
000003e0: 6d21 0d3e 6aa8 b83d 2328 63bd 5a7a d6bb
000003f0: fc96 21be 4de8 29bd ad23 03be 11be d1bd
0.054287035 -0.06438598 0.05813493 0.1153504 -0.092462376 -0.06537027 0.0718238 -0.020117156
-0.02715137 -0.058863554 0.0021196948 -0.090994954 0.015649043 -0.15287106 0.1510901 0.12819089
0.14540766 -0.048208974 0.123603515 0.08096492 0.022543842 0.047767896 0.0667578 0.09549253
0.15795599 -0.03414837 -0.05591279 -0.00013524736 0.0064809476 0.14449799 -0.08432604 0.10967366
-0.004581772 0.0722064 0.12916553 -0.09486671 0.05664326 0.11211406 -0.09492553 -0.13439971
-0.0033045255 -0.1362544 -0.0024436335 -0.035220996 0.10811277 0.083465405 -0.08335821 -0.07935948
-0.124842145 0.08899518 -0.11165829 0.031642146 0.065915816 -0.07761648 -0.097210266 -0.00042266567
0.16692731 0.08284658 -0.071438946 -0.030828811 -0.101916 -0.009326701 0.10761645 0.105905
-0.024116429 0.11832777 -0.10815554 0.120269984 -0.03194399 0.05316299 -0.057721045 -0.069295764
-0.08192414 0.030580282 -0.00038889574 -0.064420186 0.053111576 -0.09621915 -0.106617875 -0.087015234
-0.13976873 0.0038671996 -0.038320333 -0.13643791 0.09754906 -0.1096481 0.06402764 -0.07628032
-0.13956043 0.09696902 -0.04278335 0.008115563 -0.15945406 -0.06811744 -0.13481839 -0.18273823
-0.094238386 0.027107902 0.05851957 0.020197507 -0.047558293 -0.17827314 -0.06642046 -0.035966743
-0.037856523 -0.15892497 -0.019878423 -0.002371582 0.089725524 0.021554979 0.0068622115 0.12875575
0.13332798 0.10246974 0.07777862 0.035241656 0.07068818 0.11765408 0.12219961 -0.010619163
0.024424907 -0.11297913 0.09949713 -0.005652188 0.03328473 -0.020030761 -0.14002372 -0.13869882
-0.006182474 -0.08720124 0.01043026 -0.13130991 0.058502395 -0.056609698 -0.12710558 -0.055047963
0.13450482 0.17293082 -0.043841135 0.06492244 0.04592876 -0.063803256 -0.11675938 0.11324562
0.104674935 -0.001816241 0.029825753 0.10581566 -0.10512039 0.11683463 -0.12924382 0.12743352
-0.029250277 -0.008565975 0.028520212 -0.046853725 0.08374429 -0.16490795 0.12761654 0.029128954
0.14261371 -0.011744014 0.10078412 0.1443637 -0.018879563 0.114493966 0.15937527 0.02295711
0.013579395 0.116777174 0.035543196 -0.0003747696 0.10475752 0.12330662 0.013650634 0.15072878
-0.08097072 -0.021025063 0.063805565 0.09678911 -0.04346745 -0.16438818 -0.07086556 -0.0019413882
0.00828076 -0.032180894 0.06369167 0.018687375 0.08730492 -0.04640864 -0.12514064 -0.107339576
0.027505351 -0.018795662 0.059109356 -0.039827783 0.016353596 0.024406817 -0.043874547 0.13231102
-0.12644182 -0.15948927 -0.021782467 0.15857151 0.07497817 0.090544485 -0.060442366 -0.06558756
0.03887932 0.00068526657 -0.060661618 0.109836146 -0.026377838 -0.12816602 -0.062687755 0.09986687
0.08793683 -0.14487165 -0.058529835 0.024343882 0.046908453 0.108926915 -0.10922972 -0.12108501
-0.082735986 0.04383444 0.053646985 0.1393217 -0.03415349 0.097574204 -0.121059485 0.0217411
0.034176573 0.09617402 -0.019859623 0.044987112 -0.16586912 0.10599774 -0.013464615 0.092778526
0.15505753 0.029043242 0.093337804 -0.1480013 0.04871703 -0.008137998 0.14681768 -0.019297954
0.13782282 0.090164974 -0.0554582 -0.006545347 -0.15780252 -0.041481305 -0.12806578 -0.102413304

lin2.bias f4 [5]
00000000: 7837 2fbc b180 933d 6390 adbd 7fc5 833b
00000010: 8301 aa3d
-0.010694377 0.0720228 -0.08474805 0.004021346 0.083010696

prop1.temp f4 [11]
00000000: e0d1 6f3f 9aea 813f 3a09 7b3f 9653 7d3f
00000010: 7518 803f 56aa 803f 8536 803f 3213 7e3f
00000020: 38b6 7d3f 269c 873f 8fa3 893f
0.9367962 1.014972 0.98060954 0.98955667 1.0007464 1.0051982 1.0016638 0.9924804
0.9910617 1.0594528 1.0753039
