save_parameters/BernNet_model_0324_1042.pt (torch, 599324 bytes, 5 tensors)

lin1.weight f4 [64, 2325]
0.05343442 -0.07242293 0.002791411 -0.021597136 -0.08854826 0.068894885 0.006224286 -0.0774299
-0.08953862 0.07637602 -0.00037637874 -0.0053489227 -0.016339986 -0.08609037 -0.017399427 0.051660657
-0.004986018 -0.013669052 0.06736541 0.0646928 -0.0048572253 -0.01218809 -0.04924107 -0.012254475
-0.006819901 -0.0884211 0.00041194295 0.044794265 -0.06970913 -0.0074472697 -0.009346044 -0.009329017
0.08574679 -0.086258024 9.5530224e-05 -0.074414484 -0.016394712 0.043854892 -0.002877763 -0.0044886414
-0.0048276917 0.07769832 0.129504 0.032962885 -0.004073623 0.103096 0.056775805 0.0033781892
-0.095362596 0.08132573 0.0130456975 0.0007122243 -0.13045274 0.0047904165 0.0004935851 0.00420818
-0.01234018 0.0003576639 -0.073230825 0.054004427 -0.021330543 -0.022494586 -0.003894877 -0.005440994
-0.0042656446 -0.008838162 -0.09108949 0.0063030636 -0.0041881152 -0.0054611806 -0.022947598 -0.0028569072
-0.00019976003 -0.03304842 0.046945993 -0.010925368 0.0022373497 -0.007561186 -0.10585368 -0.021129724
-0.0038263388 0.014044226 -0.019389465 -0.019513378 -0.09437881 -0.01852826 -0.013381714 -0.008903698
-0.0038098637 -0.059485298 -0.008387027 0.07805739 0.026626918 -0.0022515422 -0.072332434 0.004134161
0.08037936 -0.0065350607 0.023822257 -0.042264506 -0.0009347018 -0.10307528 0.020093922 -0.013113455
-0.0022189517 0.09245775 -0.007881755 0.06147819 -0.033389267 0.0005857083 -0.013257725 0.001096595
-0.0014623499 -0.006395144 -0.0024998211 -0.030803313 -0.0039175954 0.00076912844 -0.020349864 0.04310144
0.07005715 -0.0050469534 0.132993 -0.023042275 0.112057075 0.056705423 -0.013820568 0.026906198
0.08729103 0.08668171 -0.00017831876 0.08250751 -0.0017283051 -0.076868266 -0.00822796 0.0017317347
-0.011693957 -0.004243481 0.09632798 -0.004869909 -0.003435473 -0.006336467 -0.086538196 0.10867889
-0.0038276853 -0.0038505867 0.005935545 0.07469778 0.0038224992 0.06187709 0.05458341 -0.009858341
-0.041919366 -0.044023324 0.08085512 -0.10179579 0.0073426543 -0.11651371 0.0011765707 -0.10850137
0.0017813881 -0.10074225 0.0022517752 -0.048050895 0.006376657 -0.14555117 -0.005428144 -0.003886199
0.05390532 0.055448458 -0.0036663997 0.0035139618 -0.00035584354 0.0907844 0.07033877 -0.019613383
-0.0030969023 -0.02435815 0.042704497 0.006350722 -0.0064074905 -0.019229492 -0.0029164152 -0.0074728653
0.07018844 -0.0049373107 0.00073328626 0.0010340977 -0.0026514842 -0.0014221543 -0.09182528 0.064901486
-0.010456321 0.046338562 0.0011137233 -0.001741098 -0.009697043 -0.00078937924 0.00616168 0.07955426
0.12261103 0.026697345 -0.10625163 -0.0063918238 -0.09986432 -0.0059694513 -0.0042172316 0.047336042
0.0020068155 -0.012086035 -0.008104638 -0.0037350713 -0.0030033442 0.055964 0.016434902 -0.010066419
-0.00041427527 -0.0049855825 0.10965102 -0.00049071317 -0.00216894 -0.08155236 -0.010600131 -0.0368532
0.07428246 0.0075012916 -0.0060460446 0.005483432 0.015461306 -0.004850635 -0.0033904044 0.00046176423
-1.5142898e-05 -0.029294416 -0.006154103 0.061558172 -0.0028608956 0.14187379 -0.08309402 -0.076680735
0.013843868 -0.0008064197 -0.0316497 0.09508864 -0.0501756 0.008209841 -0.0004976751 0.087307274
-0.0050536836 0.02183696 0.013169262 -0.0029612344 -0.0021982146 -0.07982003 -0.007665328 -0.0047714235
00000000: 0dde 5a3d 7952 94bd 1bf0 363b 7aec b0bc
00000010: ca58 b5bd c318 8d3d 18f5 cb3b 9193 9ebd
00000020: 0660 b7bd 086b 9c3d b354 c5b9 0446 afbb
00000030: 6fdb 85bc 2650 b0bd 3e89 8ebc 209a 533d
00000040: c061 a3bb 29f4 5fbc e0f6 893d a97d 843d
00000050: 5c29 9fbb 8eb0 47bc 01b1 49bd fec6 48bc
00000060: 7a79 dfbb 1f16 b5bd 0cfa d739 317a 373d
00000070: a9c3 8ebd 3a08 f4bb 2620 19bc bcd8 18bc
00000080: 039c af3d 0ca8 b0bd 6657 c838 9f66 98bd
00000090: 344e 86bc 30a1 333d da98 3cbb 7415 93bb
000000a0: 9d31 9ebb 4c20 9f3d b29c 043e 1704 073d
000000b0: 077c 85bb ff23 d33d bf8d 683d 9c64 5d3b
000000c0: 774d c3bd 1b8e a63d 9fbd 553c 90b4 3a3a
000000d0: 6795 05be edf8 9c3b ef63 013a c6e4 893b
000000e0: 772e 4abc d684 bb39 0bfa 95bd bf33 5d3d
000000f0: 64bd aebc 9146 b8bc 3141 7fbb 5e4a b2bb
00000100: d2c6 8bbb f0cd 10bc 208d babd ee89 ce3b
00000110: 753c 89bb b4f3 b2bb 9afc bbbc f33a 3bbb
00000120: ad76 51b9 c85d 07bd 714a 403d 5100 33bc
00000130: 80a0 123b d3c3 f7bb d0c9 d8bd 3e18 adbc
00000140: 50c3 7abb c119 663c a8d6 9ebc 85da 9fbc
00000150: ad49 c1bd 94c8 97bc fa3e 5bbc d1e0 11bc
00000160: e8ae 79bb dba6 73bd be69 09bc 8edc 9f3d
00000170: b220 da3c 9c8e 13bb 0723 94bd db77 873b
00000180: ef9d a43d 1024 d6bb e526 c33c 8c1d 2dbd
00000190: c706 75ba 2219 d3bd 029c a43c d1d9 56bc
000001a0: d56b 11bb 7d5a bd3d 7a22 01bc 8ed0 7b3d
000001b0: 2fc3 08bd 388a 193a ee36 59bc 9fbb 8f3a
000001c0: 52ac bfba 5b8e d1bb 0ad4 23bb 3b57 fcbc
000001d0: 2c5f 80bb 569f 493a c2b4 a6bc 238b 303d
000001e0: 207a 8f3d ea60 a5bb 512f 083e 27c3 bcbc
000001f0: 2e7e e53d f243 683d aa6f 62bc 636a dc3c
00000200: a4c5 b23d 2e86 b13d 14fb 3ab9 b3f9 a83d
00000210: 4c88 e2ba 1c6d 9dbd 91ce 06bc 60fb e23a
00000220: 0398 3fbc e60c 8bbb 9b47 c53d c293 9fbb
00000230: ac25 61bb 23a2 cfbb f03a b1bd 0a93 de3d
00000240: e7d9 7abb 205a 7cbb f67e c23b 26fb 983d
00000250: e582 7a3b d572 7d3d db92 5f3d e184 21bc
00000260: a4b3 2bbd cd51 34bd 5f97 a53d 507a d0bd
00000270: a69a f03b bd9e eebd 2937 9a3a f735 debd
00000280: 777d e93a f451 cebd 8592 133b 04d1 44bd
00000290: 47f3 d03b 5e0b 15be 92de b1bb 9aaf 7ebb
000002a0: d3cb 5c3d ec1d 633d fb47 70bb 7f4a 663b
000002b0: 8390 bab9 2ced b93d c60d 903d 3fac a0bc
000002c0: 66f5 4abb be8a c7bc e9ea 2e3d b819 d03b
000002d0: edf5 d1bb 2b87 9dbc 5421 3fbb f0de f4bb
000002e0: f5be 8f3d 2ac9 a1bb 023a 403a 908a 873a
000002f0: 86c4 2dbb 9467 baba e40e bcbd 12eb 843d
00000300: fd50 2bbc 81cd 3d3d 5afa 913a 8e35 e4ba
00000310: 59e0 1ebc 58ee 4eba ebe7 c93b 58ed a23d
00000320: 7e1b fb3d 64b4 da3c 749a d9bd 8172 d1bb
00000330: aa85 ccbd 639b c3bb b430 8abb 70e3 413d
00000340: c784 033b 8104 46bc 51c9 04bc 19c8 74bb
00000350: c1d3 44bb 823a 653d 7da2 863c 9fed 24bc
00000360: 1633 d9b9 195e a3bb b790 e03d 34a3 00ba
00000370: c624 0ebb ec04 a7bd 2cac 2dbc 62f3 16bd
00000380: 6721 983d 65cd f53b e61d c6bb 5dae b33b
00000390: 6b51 7d3c 13f2 9ebb 8c31 5ebb f218 f239
000003a0: 400e 7eb7 d8fa efbc 5ca8 c9bb 6c24 7c3d
000003b0: dd7d 3bbb 5d47 113e 332d aabd ca0a 9dbd
000003c0: 64d1 623c e965 53ba 1ea3 01bd d5bd c23d
000003d0: ee84 4dbd 9282 063c 6976 02ba 28ce b23d
000003e0: 5f99 a5bb 6de3 b23c e3c3 573c 4511 42bb
000003f0: ec0f 10bb af78 a3bd 6f2d fbbb 9a59 9cbb

lin1.bias f4 [64]
0.10826314 0.043511212 0.065249145 0.07363096 -0.012020042 0.07041582 0.08431836 0.06546373
-0.026014924 0.059688274 0.07189542 -0.013573347 0.0923256 -0.017824905 -0.01543778 0.060327407
0.073222056 0.076251596 0.077590846 0.08838177 0.08353174 0.07271354 0.05137218 0.08462108
0.08965256 0.077047944 -0.02873508 0.050149728 -0.01774473 0.054203823 0.06074665 0.07185219
0.08255885 -0.027663464 0.088501 0.081247516 0.087996356 0.074410215 0.057867143 0.10444468
0.07885706 0.075987235 -0.028805241 -0.016676832 0.09359661 0.07896716 0.089047804 0.075631395
0.0840478 0.05737284 0.0972844 0.077339895 0.06325519 0.0836809 0.054805692 0.07697121
0.09376779 0.084297076 -0.02281965 0.07951573 -0.0288698 0.09704243 0.08923696 0.099520676
00000000: 11b9 dd3d d038 323d 58a1 853d d4cb 963d
00000010: b6ef 44bc 2b36 903d 1baf ac3d d911 863d
00000020: 401d d5bc b17b 743d e83d 933d be62 5ebc
00000030: 3415 bd3d 8905 92bc beee 7cbc df19 773d
00000040: 72f5 953d cc29 9c3d f3e7 9e3d 8001 b53d
00000050: b012 ab3d d6ea 943d a36b 523d d14d ad3d
00000060: c39b b73d 50cb 9d3d d565 ebbc cd69 4d3d
00000070: 655d 91bc d404 5e3d 7bd1 783d 3e27 933d
00000080: 9d14 a93d 7d9e e2bc 0340 b53d 1965 a63d
00000090: 6f37 b43d 6264 983d 1906 6d3d 18e7 d53d
000000a0: cf7f a13d 329f 9b3d f8f8 ebbc da9d 88bc
000000b0: 94af bf3d 89b9 a13d b25e b63d a2e4 9a3d
000000c0: 4121 ac3d c8ff 6a3d 0b3d c73d 6164 9e3d
000000d0: f08b 813d e460 ab3d ef7b 603d 15a3 9d3d
000000e0: 5409 c03d f2a3 ac3d 46f0 babc 25d9 a23d
000000f0: 5c80 ecbc 2ebe c63d dec1 b63d 7fd1 cb3d

lin2.weight f4 [5, 64]
0.28150165 -0.27751687 -0.2182549 -0.23387048 2.7414103e-06 -0.3019932 0.26090246 -0.16179772
0.0011319107 -0.37301177 -0.24364221 -7.30475e-05 0.26184905 -5.559384e-07 0.00035981624 -0.3660041
0.22967234 -0.35757568 0.19068117 0.023705712 0.057450503 0.10420549 0.21291588 0.07403564
0.13766532 0.13156286 -0.0029712901 -0.35304528 5.8458518e-05 -0.2127819 -0.24272802 0.25547674
0.24966228 -0.0072322995 0.31736207 -0.21365175 0.2580401 -0.3529546 -0.19347036 0.21044151
-0.39636955 0.29259628 -0.00053792924 -1.0522135e-05 0.2133619 -0.17922004 0.24331681 0.3854965
0.27948865 -0.35822365 0.21146592 0.18538089 -0.37040362 0.17675045 -0.3101671 0.24230605
0.18654211 0.29477805 -3.6441654e-06 -0.20969467 1.9614901e-05 0.19339281 0.15323083 0.16330759
-0.27693284 -0.13211083 0.33317962 0.2482064 -0.009292648 0.24397239 0.23136012 0.3220595
-0.002875384 0.12613104 -0.23097375 -0.0014591217 0.14693508 -0.00067434757 1.2679649e-05 0.18061303
-0.33532342 0.26104015 -0.38351613 -0.35896647 0.17762047 0.15421377 0.109476455 -0.397294
0.2852037 -0.3915661 -0.018800342 0.19698541 -0.0034853392 0.24421865 -0.28804675 -0.26489794
-0.20216927 -0.045991663 0.17965502 -0.35631013 0.08101228 -0.10763756 -0.16726968 -0.31445056
-0.3132924 -0.2468355 -0.049072854 -0.0024930765 -0.30297518 0.34171888 0.22308336 -0.23191147
0.28380558 0.3019203 0.18391714 0.30724353 0.11296419 -0.37726077 0.2119148 -0.22613797
0.15892126 0.2532587 -0.010249241 -0.3581009 -0.011473489 -0.39155194 0.1924634 -0.18949337
0.24810235 -0.38475224 -0.0012905528 -0.37121648 -6.2976855e-05 0.35790682 -0.3936223 -0.24556723
0.00076240185 -0.38998553 0.3389424 0.0026006685 -0.27260035 8.4588166e-05 2.955154e-05 -0.35101944
-0.35352144 0.28735211 0.2635052 0.2798928 -0.37460262 0.110195175 -0.3650659 0.25198248
0.28037947 -0.43398714 0.0009891418 -0.30405423 1.9138857e-05 -0.27605182 -0.3967198 -0.37093043
0.3223803 -0.0019167578 -0.28386772 0.33171636 -0.37817797 0.27537242 0.0645403 0.27610233
0.27895486 -0.33525118 0.006122493 5.2564997e-06 0.29082048 0.29199445 0.29760197 -0.3189708
-0.41893974 -0.3524062 0.31482923 -0.3276305 0.17777216 -0.4194443 -0.2794058 0.3740707
-0.29691094 -0.32799128 -1.0335662e-05 0.3999625 -6.415179e-05 -0.3684022 -0.22920327 0.26947913
-0.4135824 -0.31471992 -0.17386821 0.25867054 -9.363406e-06 -0.23245944 0.17210025 -0.17653508
-0.0013315757 0.24189776 -0.3616368 0.00015903944 -0.44167742 1.4266024e-05 4.5860827e-05 0.15930648
0.30584246 0.16472922 -0.45706764 -0.31498903 -0.381275 0.0931916 -0.33873278 0.18785182
-0.38739285 0.29030547 8.664085e-05 -0.3733514 -6.01873e-05 0.08469974 0.31095716 0.2659562
-0.4624872 0.00065539137 -0.31242406 -0.27512276 0.2819869 -0.28788865 -0.19599485 0.28987193
0.16084439 0.33618402 -0.0020728705 5.0337047e-05 0.106841095 -0.34653884 -0.33941832 -0.29490554
0.069215156 0.2614062 -0.36334783 -0.324174 0.15790221 0.2877738 0.374324 -0.3803687
0.3158797 -0.12808983 -6.2467516e-05 0.34898365 -5.262145e-05 0.26135516 -0.45636782 0.030094588
00000000: fc20 903e b116 8ebe 367e 5fbe be7b 6fbe
00000010: 12f9 3736 da9e 9abe 0295 853e 4dae 25be
00000020: 9f5c 943a 66fb bebe 587d 79be 1431 99b8
00000030: 1411 863e cc3b 15b5 b8a5 bc39 e464 bbbe
00000040: 3a2f 6b3e 2914 b7be ed41 433e 7b32 c23c
00000050: 3851 6b3d b069 d53d 9f06 5a3e ff9f 973d
00000060: 23f8 0c3e 6ab8 063e fab9 42bb 5ac2 b4be
00000070: 5b31 7538 80e3 59be b28d 78be d9cd 823e
00000080: 78a7 7f3e edfc ecbb 487d a23e 86c7 5abe
00000090: d51d 843e 77b6 b4be 181d 46be fb7d 573e
000000a0: f3f0 cabe 2ecf 953e d203 0dba 3a88 30b7
000000b0: 8b7b 5a3e 7585 37be 0b28 793e cc5f c53e
000000c0: 2319 8f3e 1769 b7be 868a 583e 7dd4 3d3e
000000d0: 8ba5 bdbe 12fe 343e 39ce 9ebe 141f 783e
000000e0: e504 3f3e 26ed 963e 498e 74b6 33ba 56be
000000f0: ae8a a437 c408 463e 8be8 1c3e 1b3a 273e
00000100: 24ca 8dbe 1048 07be 8596 aa3e d229 7e3e
00000110: 3140 18bc e6d3 793e abe9 6c3e fce4 a43e
00000120: f070 3cbb 7f28 013e 6284 6cbe 0040 bfba
00000130: 2676 163e b3c6 30ba aeba 5437 9ff2 383e
00000140: 83af abbe 0ea7 853e 3a5c c4be 74ca b7be
00000150: 24e2 353e 37ea 1d3e 3135 e03d 1f6a cbbe
00000160: 3806 923e 5a7b c8be 2d03 9abc 8bb6 493e
00000170: 4a6a 64bb 7414 7a3e dd7a 93be b4a0 87be
00000180: 7605 4fbe c161 3cbd 7cf7 373e 486e b6be
00000190: c4e9 a53d 1571 dcbd be48 2bbe aaff a0be
000001a0: dd67 a0be 72c2 7cbe 9e00 49bd e262 23bb
000001b0: 901f 9bbe c7f5 ae3e f76f 643e 337a 6dbe
000001c0: f74e 913e 4c95 9a3e c654 3c3e 064f 9d3e
000001d0: c559 e73d 5328 c1be 3100 593e b690 67be
000001e0: 41bc 223e 20ab 813e 6fec 27bc 0059 b7be
000001f0: 4dfb 3bbc 7f79 c8be 2015 453e 8d0a 42be
00000200: 8b0e 7e3e 3ffe c4be c427 a9ba 1610 bebe
00000210: 7112 84b8 903f b73e dd88 c9be fa75 7bbe
00000220: ecdb 473a 2fac c7be dc89 ad3e fa6f 2a3b
00000230: 4692 8bbe ed64 b138 73e5 f737 d2b8 b3be
00000240: c300 b5be d11f 933e 27ea 863e 1c4e 8f3e
00000250: eacb bfbe 02ae e13d ebe9 babe d903 813e
00000260: e68d 8f3e 9033 debe 17a6 813a ffac 9bbe
00000270: 628c a037 aa56 8dbe dc1e cbbe 98ea bdbe
00000280: 080f a53e b83b fbba 1c57 91be bad6 a93e
00000290: 8ba0 c1be 9dfd 8c3e b42d 843d 495d 8d3e
000002a0: 2cd3 8e3e 0ba6 abbe 329f c83b fd60 b036
000002b0: 6ce6 943e 4c80 953e 495f 983e 2450 a3be
000002c0: 457f d6be 966e b4be 4c31 a13e 2fbf a7be
000002d0: e809 363e 67c1 d6be 470e 8fbe 3286 bf3e
000002e0: b604 98be 79ee a7be 5567 2db7 e3c7 cc3e
000002f0: 3b89 86b8 379f bcbe 43b4 6abe 2bf9 893e
00000300: 13c1 d3be f822 a1be 820a 32be 7770 843e
00000310: 8617 1db7 d909 6ebe 0c3b 303e 9dc5 34be
00000320: 4488 aeba 0cb4 773e 7528 b9be d3c3 2639
00000330: 8b23 e2be 1b58 6f37 b05a 4038 3d21 233e
00000340: 6297 9c3e c7ae 283e c504 eabe 3e46 a1be
00000350: 7a36 c3be 3ddb be3d 626e adbe 3a5c 403e
00000360: 5b58 c6be eba2 943e f4b2 b538 ea27 bfbe
00000370: 9f71 7cb8 0f77 ad3d c735 9f3e 692b 883e
00000380: 1fcb ecbe 92ce 2b3a 0cf6 9fbe e4dc 8cbe
00000390: 9660 903e 2466 93be e0b2 48be 186a 943e
000003a0: 64b4 243e 5020 ac3e ffd8 07bb fe20 5338
000003b0: 81cf da3d 8a6d b1be 3dc8 adbe dcfd 96be
000003c0: adc0 8d3d 09d7 853e ba08 babe 22fa a5be
000003d0: 1eb1 213e 1657 933e 65a7 bf3e b0bf c2be
000003e0: fcba a13e fb29 03be fe00 83b8 fcad b23e
000003f0: dab5 5cb8 58d0 853e 0ba9 e9be ed88 f63c

lin2.bias f4 [5]
-0.08894922 -0.049612768 -0.019762589 -0.061564423 0.08658437
00000000: 022b b6bd c236 4bbd 27e5 a1bc fa2a 7cbd
00000010: 2553 b13d

prop1.temp f4 [11]
0.6163547 0.9623665 1.2772676 1.33012 1.3533365 1.3593224 1.360909 1.3629522
1.3691496 1.3677543 1.2903337
00000000: 6cc9 1d3f a75d 763f 817d a33f 5f41 aa3f
00000010: 213a ad3f 47fe ad3f 4432 ae3f 3875 ae3f
00000020: 4b40 af3f 9312 af3f a829 a53f
