save_parameters/BernNet_model_0324_1046.pt (torch, 599324 bytes, 5 tensors)

lin1.weight f4 [64, 2325]
0	0xba34f862	-0.0006903467
1	0x3b4068f8	0.0029359441
2	0xb9f6c11d	-0.00047064657
3	0xbb6f74f6	-0.003653822
4	0xbd4463ca	-0.04794673
5	0x3984bfa0	0.00025319774
6	0x3df73c72	0.12072076
7	0x3a469266	0.00075749157
8	0x38df2aec	0.000106414635
9	0x3a291713	0.00064502767
10	0xbb4fd15b	-0.003171048
11	0x3b02a4c3	0.0019934631
12	0x3c31cab9	0.0108515555
13	0x3dccca87	0.099995665
14	0xbd86438c	-0.06555852
15	0xba3f1bfe	-0.0007290243
16	0x3dd65481	0.104653366
17	0xb891f7a0	-6.9602625e-05
18	0x3a97705e	0.0011553874
19	0xbdcbf588	-0.09958941
20	0x3bca96b4	0.006182516
21	0xbadda192	-0.0016909114
22	0xbd17d4f2	-0.037068315
23	0xb92d6f9e	-0.00016540146
24	0x3dc55ee3	0.09637239
25	0xbd1606dd	-0.03662764
26	0x3ad17b0a	0.0015982103
27	0xbd53bb95	-0.051692564
28	0xbd8dc106	-0.06921582
29	0x3bbc7313	0.0057510226
30	0xba3f3676	-0.0007294187
31	0x3ad914b2	0.0016561954
32	0xbd9c485d	-0.0763099
33	0xbd42dc76	-0.04757353
34	0xb901e25e	-0.00012386727
35	0x3af0e560	0.0018378906
36	0xbb8da3c9	-0.004322503
37	0xbdb59cbc	-0.08867785
38	0x3a527668	0.0008028508
39	0xb996e26e	-0.00028778933
40	0x3b2b58a6	0.0026145368
41	0xbc08043d	-0.008301792
42	0xba3f94cb	-0.00073082437
43	0xbd213325	-0.039355416
44	0x39a04f8d	0.00030576848
45	0x3dc4b9b3	0.09605732
46	0x3b2557a9	0.0025229251
47	0xbbb80060	-0.005615279
48	0x398e0e18	0.0002709485
49	0x3a82ef50	0.0009989534
50	0x3bbe8c32	0.0058150524
51	0x3deb78d3	0.11497655
52	0xbd983cc9	-0.07433469
53	0x3a548580	0.0008107051
54	0xbd3d0668	-0.046148688
55	0xbdabfe75	-0.08398143
56	0xbd897ba7	-0.06713038
57	0x3b35ead0	0.0027758367
58	0x3a7b7fb9	0.00095939223
59	0xbd85e42d	-0.06537662
60	0xbd776f63	-0.06040896
61	0xba9c4860	-0.0011923425
62	0xb97e7a16	-0.00024268808
63	0xbd91b04f	-0.07113706
64	0x394da0c7	0.00019610218
65	0xbdbb3443	-0.091408275
66	0x3acb2148	0.001549759
67	0xb9064a64	-0.00012806949
68	0xb8b4f8d9	-8.62942e-05
69	0x38543ef6	5.0603376e-05
70	0x3a1d19ce	0.000599292
71	0xbd80f8c7	-0.062974505
72	0xb840ed96	-4.5997636e-05
73	0xb9d3c226	-0.00040389708
74	0xbd9e4cf7	-0.07729524
75	0xbae1fab7	-0.0017240857
76	0x39a27649	0.00030987177
77	0xb888e628	-6.527855e-05
78	0x3b79c526	0.0038111894
79	0x3dc0dc03	0.09416964
80	0x3da24fb7	0.07925361
81	0x39b76622	0.00034980575
82	0xba3338c9	-0.000683677
83	0xbda344cf	-0.079721086
84	0xbb36dda3	-0.0027903102
85	0xbc1b7b74	-0.009489883
86	0xbb15d0d1	-0.002286006
87	0x3b8df1e8	0.004331816
88	0x3a4884b1	0.0007649167
89	0x3a3dfe01	0.00072476274
90	0xbd778eff	-0.060439106
91	0xbac40db8	-0.0014957702
92	0xba05873a	-0.00050936977
93	0x3b21547f	0.0024617014
94	0x3dca030c	0.098638624
95	0x3b108f36	0.0022058017
96	0x3a9db27e	0.0012031344
97	0x3aa18147	0.0012321853
98	0x3bdc04bc	0.0067144316
99	0x3b9218e9	0.004458536
100	0x3de43f09	0.111448355
101	0x3a81373c	0.000985838
102	0xb9a9efbe	-0.00032412814
103	0xbd9bdf13	-0.076109074
104	0x3b832dbc	0.0040032547
105	0xbdc0db5b	-0.09416839
106	0xbc5fbca3	-0.013655814
107	0xba032124	-0.0005002192
108	0x3defb694	0.11704746
109	0xbd91ef99	-0.07125778
110	0xbb4a3476	-0.0030854023
111	0x3a037bc1	0.0005015694
112	0x38b4dfea	8.624776e-05
113	0x3977705c	0.00023597613
114	0x3b894995	0.00418968
115	0xba6a76ea	-0.0008944111
116	0xbd0966cc	-0.0335453
117	0xb82fccec	-4.19141e-05
118	0xbbbda8ca	-0.0057879435
119	0x3b9f6f75	0.0048655816
120	0xbdc08a73	-0.09401407
121	0x3a84d14c	0.0010133176
122	0xbdce9993	-0.10087886
123	0xbcd8c865	-0.026462743
124	0xbd8bde85	-0.068295516
125	0xb9da74e4	-0.0004166729
126	0xbb6f9019	-0.0036554395
127	0xbd8374ce	-0.06418763
128	0x3dc16646	0.09443335
129	0x3a0cea0c	0.0005375452
130	0x39160062	0.00014305257
131	0x3903dde0	0.00012575788
132	0x3b654dbc	0.003498896
133	0xb9d0b6fb	-0.00039809183
134	0xbd5f52a2	-0.054522164
135	0xb9d05d6f	-0.00039742465
136	0x3bba5cfc	0.005687354
137	0x372b7706	1.0220107e-05
138	0xbba214ce	-0.004946328
139	0x3b3628e4	0.0027795369
140	0xba86c124	-0.0010280949
141	0xbbdea091	-0.0067940434
142	0x3db0ca79	0.086323686
143	0x3e19517f	0.14972495
144	0x3dcf7934	0.101305395
145	0xbc80c7bc	-0.01572024
146	0xbb2d6e9c	-0.0026463633
147	0x38b113e2	8.443721e-05
148	0x3a46b7f6	0.0007580513
149	0xbcd5635a	-0.026048351
150	0xb67d0300	-3.7701684e-06
151	0xbb5b3c84	-0.0033452818
152	0x3c8dc234	0.017304517
153	0x3b96e6df	0.0046051587
154	0x3dd59e39	0.10430569
155	0x3ad5aa9b	0.0016301455
156	0x3a2a9281	0.0006506816
157	0x3c4a56da	0.012349809
158	0x3a3c8f45	0.00071929797
159	0x3b9b19e0	0.004733309
160	0x3b82402c	0.003974935
161	0xb961a52a	-0.000215192
162	0xb8f9fc98	-0.000119202945
163	0x3ded605f	0.11590647
164	0xbd439ad9	-0.047755096
165	0x3c5bc2d3	0.013413149
166	0x38e38609	0.000108491695
167	0x38efbb5a	0.00011431305
168	0x393c9ccc	0.00017987489
169	0x3b3e413e	0.0029030587
170	0xbd3f7a73	-0.046747636
171	0xb9c5708b	-0.0003765862
172	0x386df090	5.6729245e-05
173	0xbd968574	-0.07349673
174	0xbabff1b8	-0.0014644181
175	0xbd9d9e7d	-0.07696245
176	0xbc7e70dd	-0.015529838
177	0x3b840306	0.0040286807
178	0x3c6bbf37	0.014388851
179	0x3ab19cac	0.001355072
180	0x3b7b4da6	0.0038345843
181	0xbd5c7539	-0.05382273
182	0xba345a26	-0.0006879888
183	0x394c4989	0.0001948235
184	0x3b3bbb46	0.002864556
185	0xbac1fcd3	-0.0014800079
186	0x3b528278	0.0032121222
187	0x3a8d3eeb	0.0010776197
188	0xbbafd815	-0.005366335
189	0xba9dc984	-0.0012038206
190	0xbb8dba60	-0.004325196
191	0x3abec7aa	0.0014555354
192	0x3bb78e7f	0.0056017037
193	0x3c04083c	0.008058604
194	0xb90acfc4	-0.00013238104
195	0xbdc496c1	-0.095990665
196	0xbab5c62e	-0.0013868266
197	0x38c1b0fe	9.2359245e-05
198	0xbdb2b06d	-0.08725057
199	0xbcf17f54	-0.02947966
200	0x3df782e9	0.12085516
201	0x3ca7848b	0.020448944
202	0x3d82ee23	0.06393077
203	0x3ab6db16	0.0013950791
204	0x3deb288b	0.11482342
205	0xbc047e3f	-0.00808674
206	0x3a64add6	0.00087234133
207	0x3df300f3	0.118654154
208	0x3cc38be3	0.023870414
209	0x3ae77128	0.0017657625
210	0x3e033404	0.12812811
211	0xb8133c98	-3.5103963e-05
212	0xbae10e92	-0.001717048
213	0x3b34e8dc	0.0027604615
214	0x3aac99c4	0.0013168384
215	0xbd63e5c2	-0.055639036
216	0xba65bd1c	-0.0008763836
217	0xba14b3b4	-0.000567253
218	0xbacc9ee6	-0.001561132
219	0x3aa789a5	0.001278211
220	0x3917e9c0	0.00014487561
221	0xbd93a4b8	-0.07209152
222	0x3ae53b5a	0.0017489002
223	0xbd18c547	-0.037297513
224	0x3c197bdd	0.00936791
225	0x3b081fe0	0.0020770952
226	0xba95f52d	-0.0011440866
227	0x3b628420	0.0034563616
228	0x3a45dc7d	0.0007547809
229	0xbb9ce27c	-0.004787741
230	0xbb033d38	-0.0020025503
231	0xbaf15d95	-0.001841473
232	0xb920249f	-0.00015272431
233	0x3b515f2a	0.0031947591
234	0x3c1ad3a0	0.009449869
235	0xbd8da964	-0.06917074
236	0xba3a6cb7	-0.00071115367
237	0x3b1bddc6	0.002378331
238	0xbc850888	-0.01623942
239	0xbd981f30	-0.074278235
240	0x38ba5b74	8.8862056e-05
241	0xba12c7b8	-0.00055992184
242	0x3b831cc5	0.0040012323
243	0xbb900f8e	-0.0043963855
244	0xb8d284fa	-0.00010038349
245	0xb90ef327	-0.00013632757
246	0xbd821dac	-0.06353316
247	0xbd8e668d	-0.06953154
248	0x3a31d9d2	0.0006784472
249	0x3ba5e28d	0.0050624073
250	0xba420ce3	-0.0007402433
251	0xbaa210d5	-0.0012364635
252	0x3a315c79	0.00067657937
253	0xba33a7c0	-0.0006853305
254	0xbad20721	-0.0016023853
255	0x3a790983	0.00095000135

lin1.bias f4 [64]
0	0x3db2d2d2	0.08731617
1	0xbcae2354	-0.02125708
2	0x3dc87690	0.09788239
3	0x3d9aff2d	0.07568202
4	0x3d71b72c	0.059012577
5	0x3d8a7ed3	0.06762471
6	0x3d6784cd	0.056523133
7	0x3db9fb42	0.09081127
8	0x3db21771	0.08695877
9	0x3db777aa	0.08958371
10	0x3dd1718a	0.10226734
11	0x3da8afbe	0.08236645
12	0x3dab3107	0.083589606
13	0x3d6e9ec0	0.058256865
14	0x3da1fbd4	0.079093605
15	0x3d99978d	0.07499609
16	0x3db4dd82	0.08831312
17	0x3dd85975	0.105639376
18	0x3da95ffe	0.08270262
19	0x3d9358db	0.07194682
20	0x3d0b8fb1	0.03407258
21	0xbc9fcd14	-0.019506969
22	0xbc8cef82	-0.01720405
23	0x3dad0017	0.08447283
24	0x3d895e11	0.06707395
25	0x3ce9448d	0.02847507
26	0x3d5b22f1	0.05350012
27	0x3dac8ac2	0.084249035
28	0x3dafcb8c	0.08583745
29	0xbc257331	-0.010098265
30	0x3d880f33	0.06643524
31	0x3d8d7e02	0.069088
32	0x3d84cb6e	0.06484114
33	0x3d86f45a	0.06589575
34	0x3d102a39	0.035196517
35	0x3d7aac1a	0.061199285
36	0x3d64f613	0.055898737
37	0x3d93dcdd	0.07219861
38	0x3d8fddd1	0.0702473
39	0x3d608d32	0.054822154
40	0x3da3b6b2	0.07993831
41	0x3daabbe4	0.083366185
42	0x3d7bdf1a	0.061492063
43	0x3d987b1c	0.07445356
44	0xbcabe1d6	-0.02098171
45	0x3dadac5a	0.08480139
46	0x3daf9e4c	0.085751146
47	0x3dbc99dc	0.09209034
48	0x3d75880d	0.0599442
49	0x3d96b6f4	0.07359114
50	0x3d6f1bd5	0.058376152
51	0x3d90717f	0.07052898
52	0x3d923220	0.07138467
53	0xbc95edfb	-0.018301954
54	0x3d6a5a79	0.057215188
55	0x3d8a9333	0.06766357
56	0x3d27d381	0.04097319
57	0x3d4f0109	0.050538097
58	0x3dae6c08	0.08516699
59	0x3d8ed30a	0.06973846
60	0x3d8e4255	0.069462456
61	0x3dc3c207	0.09558492
62	0x3db7c29c	0.08972666
63	0x3d8d44a5	0.068978585

lin2.weight f4 [5, 64]
0	0x3e87f272	0.2655216
1	0xb910f842	-0.00013825393
2	0x3e821dbb	0.25413308
3	0xbecaf4f5	-0.39640012
4	0xbe7db4a6	-0.24775943
5	0xbebb1534	-0.36539614
6	0x3e7ee63e	0.24892518
7	0xbe6478e3	-0.2231174
8	0x3e53e064	0.20691067
9	0x3ded1b6f	0.11577498
10	0xbeaa49f4	-0.33259547
11	0xbe5dd5bd	-0.21663566
12	0x3e75ac84	0.2399159
13	0x3e7da6b5	0.24770625
14	0xbe9cfb9f	-0.30660722
15	0xbea5202e	-0.32251114
16	0x3da4313d	0.08017204
17	0x3e80f2ee	0.2518534
18	0x3e6e67d4	0.23281795
19	0x3e38bb8d	0.18040295
20	0xbe47a5e0	-0.1949687
21	0x38b4b074	8.615936e-05
22	0xb6094b21	-2.0458322e-06
23	0xbe81fc55	-0.25387827
24	0xbe8e612a	-0.27808505
25	0xbe52915a	-0.2056326
26	0xbdb2d34f	-0.0873171
27	0xbd15dc8f	-0.036587294
28	0xbe8297d9	-0.25506476
29	0x3d7581c9	0.059938226
30	0x3e8861f4	0.26637232
31	0x3ea8217c	0.32838047
32	0x3d8d1999	0.06889648
33	0x3e98de7b	0.2985724
34	0xbec54466	-0.38528746
35	0xbe8d8c9c	-0.2764634
36	0xbebb9405	-0.36636367
37	0x3e4767af	0.19473146
38	0x3eac9960	0.33710766
39	0x3e3d6b8e	0.1849806
40	0x3e80b204	0.25135815
41	0xbe112d15	-0.14177354
42	0xbea2e14d	-0.31812516
43	0xbd200cda	-0.039074756
44	0xb7867709	-1.6029475e-05
45	0xbe65b97c	-0.22434038
46	0x3e64ec2e	0.2235572
47	0x3e78b797	0.24288784
48	0x3d928e80	0.07156086
49	0xbe07d26f	-0.13263868
50	0x3e23c351	0.15992476
51	0x3e83e8b8	0.25763488
52	0xbe225ef8	-0.1585654
53	0x393a74e8	0.00017781893
54	0xbe9cef1b	-0.30651173
55	0x3e9d233b	0.3069094
56	0xbdcddd01	-0.10051919
57	0x3e846fb5	0.25866476
58	0xbe4e9b8d	-0.20176525
59	0xbec03bea	-0.3754571
60	0x3e5a895f	0.21341465
61	0x3e96e85e	0.29474157
62	0x3e4baa6d	0.19889231
63	0xbecb2339	-0.3967531
64	0xbe97fb83	-0.29684076
65	0x3b70e2d9	0.0036756305
66	0x3eb444b2	0.3520866
67	0xbea399b2	-0.31953198
68	0xbe857233	-0.2606369
69	0x3d73039b	0.05932961
70	0xbe26401b	-0.16235392
71	0x3e696d62	0.22795632
72	0xbe9d7b40	-0.30758095
73	0xbe7a1a0f	-0.24424003
74	0x3e8162e1	0.2527075
75	0xbe98d6ad	-0.29851285
76	0xbe8de514	-0.27713835
77	0xbea6883f	-0.32525823
78	0x3e6b4d6d	0.22978754
79	0xbe9a0322	-0.30080515
80	0xbebf06d7	-0.37309906
81	0x3e9396a6	0.28825873
82	0x3e9d9adb	0.30782208
83	0xbe9ec3d1	-0.3100877
84	0xbe48b03a	-0.19598475
85	0x3b51e132	0.0032025096
86	0xb8098c32	-3.2793912e-05
87	0x3ea38864	0.31939995
88	0x3e7eff46	0.24902067
89	0x3e48c238	0.19605339
90	0xbe80ff4c	-0.25194776
91	0x3ec20efb	0.37902054
92	0x3eb5245a	0.35379297
93	0xbd8020c9	-0.06256253
94	0x3e74a66a	0.23891607
95	0xbdfc331a	-0.12314434
96	0xbeafc895	-0.3433272
97	0xbe449d58	-0.19200647
98	0xbead08be	-0.33795732
99	0xbec034dc	-0.37540329
100	0x3e4f64a9	0.20253243
101	0xbea3f016	-0.3201911
102	0xbe9e6602	-0.309372
103	0x3d929dd2	0.07159008
104	0xbea1dcfe	-0.31613916
105	0x3e76c89c	0.24099964
106	0x3e19349f	0.1496148
107	0xbe5a2206	-0.21302041
108	0xb7e198d7	-2.6893262e-05
109	0xbe756dd7	-0.23967682
110	0x3d2af0d2	0.04173357
111	0x3e51e162	0.20496133
112	0xbe24fc37	-0.16111837
113	0x3ec142e6	0.37746352
114	0xbe8b276b	-0.2717851
115	0x3ad39f46	0.001614549
116	0x3e9c033d	0.3047122
117	0xb823c396	-3.9044382e-05
118	0xbeaaa6b5	-0.33330312
119	0x3e9871b7	0.29774258
120	0xbe8faf9f	-0.28063676
121	0xbe677c94	-0.22606117
122	0x3e95edf3	0.29283103
123	0xbec8045b	-0.39065823
124	0xbea2aa94	-0.31770766
125	0xbe383e58	-0.17992532
126	0xbe9e2037	-0.30883953
127	0xbeadae6b	-0.33922133
128	0xbeba12df	-0.36342523
129	0xb801f6be	-3.0985793e-05
130	0xbea1c760	-0.31597424
131	0x3e234ecd	0.15948029
132	0xbdf7018c	-0.12060842
133	0x3e77a645	0.2418452
134	0xbd62abec	-0.05533974
135	0x3e33e4b3	0.1756771
136	0xbe99568f	-0.2994885
137	0x3e935110	0.28772783
138	0x3e5bd374	0.21467382
139	0xbea9735c	-0.33095825
140	0xbeae12ab	-0.33998618
141	0x3d7e4e1a	0.062086202
142	0x3e13ec49	0.14445604
143	0x3e79b747	0.24386321
144	0x3e5d637a	0.21619979
145	0x3e6430db	0.22284262
146	0xbe952641	-0.29130748
147	0x3e5002d0	0.20313573
148	0x3e7c72b7	0.24653135
149	0x3b693063	0.003558182
150	0x370225b8	7.757386e-06
151	0xbddc61ee	-0.10760866
152	0xbea39952	-0.31952912
153	0xbbad2753	-0.005284229
154	0x3e83a4ba	0.25711614
155	0xbdf0c1d2	-0.11755718
156	0x3ea5cc82	0.3238259
157	0xbdab509f	-0.08364987
158	0xbea6d213	-0.3258215
159	0xbe219c1b	-0.15782206
160	0x3e327f1c	0.17431301
161	0xbec02f27	-0.37535974
162	0xbeb44494	-0.3520857
163	0x3e84c4b0	0.2593131
164	0x3e311aa9	0.17295326
165	0x3e6ac1a4	0.2292543
166	0xbe9be62e	-0.3044905
167	0xbd656f8b	-0.05601458
168	0xbe9b65e5	-0.30351177
169	0xbeb1f851	-0.34759763
170	0xbe4d6b34	-0.20060426
171	0x3ebe3d34	0.3715607
172	0x37a94b43	2.0181416e-05
173	0x3eac9f5c	0.33715332
174	0xbe9b7d66	-0.3036911
175	0x3e4f9093	0.20269994
176	0x3eb1243f	0.34597966
177	0xbe916e3e	-0.2840442
178	0xbe93f8b0	-0.2890067
179	0xbeb73e0e	-0.3578953
180	0xbeab6d77	-0.33481953
181	0x378c4fed	1.6726519e-05
182	0x3eac5e7d	0.3366584
183	0xbea25818	-0.31707835
184	0xbea1547e	-0.31509775
185	0xbe4ccd79	-0.20000257
186	0x3eb30dc1	0.3497143
187	0x3e66c6db	0.22536795
188	0x3e6dafea	0.23211637
189	0xbebf5abd	-0.37373915
190	0x3e6508e2	0.2236667
191	0xbed5f12a	-0.41785556
192	0x3e961b10	0.29317522
193	0xbc03deda	-0.008048737
194	0xbe85217b	-0.26002106
195	0x3e857261	0.26063827
196	0x3e5d7a3e	0.21628663
197	0xbecb02ae	-0.39650482
198	0xbe883ae9	-0.26607445
199	0x3e83e421	0.25759986
200	0x3e93e7c8	0.28887773
201	0x3e94d597	0.29069206
202	0xbee5a6f7	-0.44853947
203	0x3eae9eef	0.34105632
204	0x3eb3d28a	0.35121566
205	0xbecd85a7	-0.4014103
206	0x3e598ae6	0.21244392
207	0x3e545d67	0.20738755
208	0x3e82bcee	0.25534767
209	0xbe639ec3	-0.22228532
210	0xbe4188cb	-0.18899839
211	0xbee124d4	-0.4397341
212	0xbe30812a	-0.17236772
213	0x3945c2fd	0.00018860023
214	0xb6a47a17	-4.901794e-06
215	0xbeb6a299	-0.35670927
216	0xbecd4226	-0.4008953
217	0xbe50d6a1	-0.20394374
218	0x3dec8be4	0.115501195
219	0xbe8d2825	-0.2756969
220	0xbed7664c	-0.42070234
221	0xbdaca92d	-0.08430705
222	0xbea2da38	-0.31807113
223	0xbe899653	-0.268725
224	0xbedc5c1d	-0.43039027
225	0xbea768b4	-0.3269707
226	0x3e7d9baf	0.2476642
227	0xbed1324e	-0.40858692
228	0x3e46330d	0.19355412
229	0xbce2bd91	-0.027678283
230	0xbea18c20	-0.3155222
231	0xbea5b8e3	-0.3236762
232	0x3ea6db4e	0.3258919
233	0x3e83e71a	0.25762254
234	0x3e4335d7	0.19063507
235	0xbec0b714	-0.37639678
236	0x36b0007a	5.245264e-06
237	0x3e7aada1	0.24480297
238	0x3e77fa60	0.24216604
239	0xbecf5575	-0.40494886
240	0xbec65da7	-0.38743326
241	0xbeaceb96	-0.33773488
242	0xbec26ccb	-0.37973627
243	0xbee924be	-0.45535845
244	0x3e81f931	0.2538543
245	0xbc182269	-0.009285548
246	0xbe92a3fa	-0.2864073
247	0xbe635b2c	-0.22202748
248	0xbe990661	-0.2988768
249	0xbeaf3a5d	-0.34224215
250	0xbea432f5	-0.32070127
251	0x3e5f8aca	0.21830288
252	0xbeb7523d	-0.3580493
253	0xbe9c40bb	-0.30518135
254	0x3e82a0d5	0.2551333
255	0x3e98df9c	0.298581

lin2.bias f4 [5]
0	0xbd839fc2	-0.06426956
1	0x3d6d5433	0.057941627
2	0xbda1c2a3	-0.07898452
3	0x3cc17de7	0.023619605
4	0x3d95a757	0.07307308

prop1.temp f4 [11]
0	0x3fa8228c	1.3135543
1	0x3fada71e	1.3566625
2	0x3facdc65	1.3504759
3	0x3fac27b7	1.344962
4	0x3fabf0b4	1.3432832
5	0x3fab935a	1.3404343
6	0x3faadcb5	1.3348604
7	0x3fa9d7aa	1.326894
8	0x3fa8eb23	1.3196758
9	0x3fa81874	1.3132463
10	0x3f93eef4	1.1557298
