save_parameters/BernNet_model_0324_1029.pt (torch, 599324 bytes, 5 tensors)

lin1.weight f4 [64, 2325]
0.0001991094 0.0012114606 0.0013746337 0.0507243 0.060599282 5.64097e-05 0.009114325 -0.003964053
-0.031360954 -0.0023541646 -0.02994948 -0.009204068 0.017539525 0.11691981 -0.015434012 -0.029869333
0.008612375 -0.0034556158 -0.0047797337 0.08683819 -0.0010610102 0.015969653 -0.059527837 -0.010633051
0.015326299 0.08849228 0.0135937035 -0.008010733 -0.0068912324 0.031430893 0.0036773903 0.0006297889
-0.03031103 0.00075730425 -9.4349234e-05 -0.066868864 -0.01506234 0.0900165 -0.0048893816 -0.0054889144
-0.002047765 -0.056868896 -0.016078405 0.19923778 -0.016133798 -0.06749275 -0.025269965 0.006931623
-0.031038895 0.031661943 0.008404377 0.0026124595 0.08166172 -0.011635869 -0.001089494 -0.03752073
-0.06847022 0.0007374758 0.10645944 -0.011730431 -0.03748855 -0.004862003 0.005204753 -0.011674811
-0.00044423947 -0.015315125 -0.0010467682 -0.0075413664 -0.0066065523 0.104676105 0.007074992 -0.0060386364
0.00072502665 0.07873133 0.051175732 0.0015223415 -0.004823068 -0.00600556 -0.009831828 -0.003522354
0.013148509 -0.010801715 -0.0027348355 0.08124282 0.008964894 -0.021160116 9.104074e-05 -0.0009421394
-0.014298719 -0.0020402775 -0.0128512895 -0.055301838 -0.011311161 -0.0066057676 0.016174395 -0.032737374
-0.008474724 -0.0002942141 -0.04481051 0.043291416 -0.028778845 -0.011972699 -0.010117528 -0.010679968
0.0030381947 0.07379975 0.042727888 -0.008998306 0.09188353 0.024993531 -0.0008530278 0.00022578226
-0.00019873904 -0.012544429 0.0103423735 -0.024274895 -0.006767644 -0.00029538278 -0.00739766 -0.071953826
-0.056431387 0.00036803662 0.028579697 0.1080985 -0.055102192 -0.02930205 0.014288639 0.00580845
0.021343017 0.014721565 2.2288732e-06 -0.008665739 -0.012649128 0.00123347 -0.0037387572 -0.005365654
0.00752265 -5.545604e-06 0.0022098396 0.016320502 -0.04871051 0.0101661375 0.05002289 -0.035084996
0.013941983 0.023537047 -0.012974607 -0.00045392074 -0.012447679 0.0022106005 0.0022657923 -0.007076985
-0.04575235 -0.0768637 -0.044601463 -0.01925226 -0.000917402 -0.00046665236 -0.0019873567 -0.019626126
-1.9348485e-05 -0.007727848 -0.0005280298 -0.080374554 0.039824937 -0.013848618 -0.0030010345 0.14084542
-0.0188671 -0.017210234 -0.011911241 0.0025477353 -0.0019364685 -0.043409187 -0.0025840276 -0.0046440186
0.018425459 0.0805622 0.102132946 -0.02794485 -0.018252024 -0.018664248 -0.0075669517 0.0009683893
0.0023103498 -0.0053766975 0.0006323317 0.0011793603 0.005180978 0.010043331 0.0041271904 0.060728017
0.0011964389 0.07351596 0.0005199081 -0.020401314 -0.0025954843 -0.0016711755 -0.013322183 -0.07075835
0.07744689 -0.049525313 0.13781814 -0.009790359 0.10129614 0.031494092 0.08848964 0.024918297
-0.0046431203 -0.00050467084 0.002940038 0.0012201281 0.0053504026 0.079207845 -0.017011037 0.094521485
0.00094653753 -0.018898733 0.023967946 0.0011110379 -0.03264322 -0.02021828 -0.011759238 -0.02442425
0.09263863 0.010668091 -0.005056166 0.0057674176 7.357824e-05 0.00393805 0.008379704 0.0011997973
-0.00037119532 -0.011148886 -0.010290899 -0.008794037 0.0021849955 0.07166526 0.11155959 -0.048651986
0.11471041 -0.0043311017 -0.024082629 -0.07823645 0.013821083 0.0007454512 0.01722303 0.10118732
-0.012714164 -0.021212826 0.009692644 -0.00054376776 -0.0028802478 -0.006927648 0.0018929434 0.056343578
00000000: 06c8 5039 dfc9 9e3a 0e2d b43a 49c4 4f3d
00000010: f436 783d 7499 6c38 4054 153c e3e4 81bb
00000020: 5874 00bd 5448 1abb 9d58 f5bc a9cc 16bc
00000030: 0daf 8f3c a773 ef3d f0de 7cbc 88b0 f4bc
00000040: eb1a 0d3c 9d77 62bb 509f 9cbb 39d8 b13d
00000050: 9811 8bba cad2 823c 76d3 73bd 4036 2ebc
00000060: 281b 7b3c 713b b53d 20b8 5e3c 733f 03bc
00000070: d9cf e1bb aebd 003d 5f00 713b 6b18 253a
00000080: d64e f8bc d485 463a 5cdd c5b8 8bf2 88bd
00000090: 08c8 76bc 925a b83d 1b37 a0bb 5adc b3bb
000000a0: cc33 06bb 5cef 68bd dcb6 83bc fd04 4c3e
000000b0: 072b 84bc a439 8abd f502 cfbc ab22 e33b
000000c0: 4845 febc f4af 013d 83b2 093c cc35 2b3b
000000d0: 433e a73d 5fa4 3ebc 5acd 8eba 56af 19bd
000000e0: 1d3a 8cbd 2a53 413a 6807 da3d fe30 40bc
000000f0: 988d 19bd 7051 9fbb a28c aa3b b547 3fbc
00000100: d0e8 e8b9 4aec 7abc b633 89ba 911d f7bb
00000110: c77b d8bb 6d60 d63d 56d5 e73b c1df c5bb
00000120: b70f 3e3a e43d a13d a59d 513d 4e89 c73a
00000130: d40a 9ebb 4aca c4bb ad15 21bc 4bd7 66bb
00000140: d86c 573c adf9 30bc ed3a 33bb a362 a63d
00000150: 7ee1 123c fb57 adbc 20ed be38 e8f9 76ba
00000160: 2d45 6abc 2db6 05bb 378e 52bc 2e84 62bd
00000170: 7352 39bc 3275 d8bb 2a80 843c a017 06bd
00000180: 92d9 0abc c040 9ab9 3a8b 37bd 5752 313d
00000190: 9dc1 ebbc 2429 44bc fdc3 25bc 08fb 2ebc
000001a0: 731c 473b 5324 973d 7003 2f3d a16d 13bc
000001b0: 6f2d bc3d 3cbf cc3c ba9d 5fba f7bf 6c39
000001c0: 9b64 50b9 2687 4dbc 0f73 293c 25dc c6bc
000001d0: 1dc3 ddbb 9bdd 9ab9 1268 f2bb 875c 93bd
000001e0: 9924 67bd 0af5 c039 f81f ea3c bf62 dd3d
000001f0: d6b2 61bd da0a f0bc e51a 6a3c cf54 be3b
00000200: 8dd7 ae3c b832 713c c093 1536 befa 0dbc
00000210: 4a3e 4fbc 63ac a13a f005 75bb 5ed2 afbb
00000220: 9080 f63b 6014 bab6 f5d2 103b 93b2 853c
00000230: ac84 47bd df8f 263c cde4 4c3d 49b5 0fbd
00000240: ea6c 643c c4d0 c03c 7293 54bc 36fc edb9
00000250: 5af1 4bbc b9df 103b b07d 143b 0ee6 e7bb
00000260: d166 3bbd b76a 9dbd 06b0 36bd eab6 9dbc
00000270: ce7d 70ba 05a9 f4b9 503e 02bb f8c6 a0bc
00000280: 8e4e a2b7 e339 fdbb 7b6b 0aba 6a9b a4bd
00000290: 791f 233d 50e5 62bc 01ad 44bb c839 103e
000002a0: 2d8f 9abc 7afc 8cbc 5e27 43bc e8f7 263b
000002b0: 1ad1 fdba d5cd 31bd ca58 29bb da2c 98bb
000002c0: fdf0 963c cbfd a43d 142b d13d 99ec e4bc
000002d0: 4585 95bc c4e5 98bc 31f4 f7bb 81db 7d3a
000002e0: 3d69 173b 022f b0bb 10c3 253a c494 9a3a
000002f0: 32c5 a93b c98c 243c 623d 873b f1bd 783d
00000300: d4d1 9c3a 898f 963d 714a 083a a820 a7bc
00000310: 0019 2abb 580b dbba 4945 5abc c1e9 90bd
00000320: 7a9c 9e3d 0edb 4abd 3320 0d3e be67 20bc
00000330: 5a74 cf3d f3ff 003d 0e3a b53d 7521 cc3c
00000340: 5125 98bb e34b 04ba a7ad 403b b5ec 9f3a
00000350: 6e52 af3b b937 a23d bb5a 8bbc 7b94 c13d
00000360: 0f21 783a 84d1 9abc 6d58 c43c 3fa0 913a
00000370: e6b4 05bd cea0 a5bc d2a9 40bc 5d15 c8bc
00000380: 52b9 bd3d 37c9 2e3c 32ae a5bb 9bfc bc3b
00000390: 044e 9a38 c20a 813b 074b 093c 8442 9d3a
000003a0: fe9c c2b9 d1a9 36bc 299b 28bc dd14 10bc
000003b0: 2432 0f3b 3cc5 923d 5b79 e43d 4e47 47bd
000003c0: 4bed ea3d eaeb 8dbb ef48 c5bc 6f3a a0bd
000003d0: d371 623c 626a 433a 5017 8d3c 4c3b cf3d
000003e0: 124f 50bc 85c6 adbc e5cd 1e3c a38b 0eba
000003f0: 8ac2 3cbb 5301 e3bb a41c f83a 86c8 663d

lin1.bias f4 [64]
0.06850354 0.06529974 0.040813565 0.08769558 0.06416018 0.04871381 0.0864904 0.04376452
0.074544564 0.07345009 0.09688677 0.0803572 0.06628054 0.052385457 0.07471935 0.048810877
0.08015067 0.08858827 0.055552315 0.07253885 -0.0044817165 0.04984138 0.07695423 0.06260785
0.06063838 0.06486394 0.08607475 0.035729777 0.029067587 0.07719442 0.03052261 0.08001344
0.080556 0.022837384 0.06543681 0.086410746 0.085322134 0.08839634 -0.024215933 0.07609504
0.07941221 -0.021391522 0.06907863 0.08911602 0.052923966 0.08510397 0.04787544 0.07519515
0.07132878 0.059764147 0.05229885 0.06689231 0.09700682 0.07280946 0.017794212 -0.022213357
0.06346304 0.07642008 0.08051099 0.079641156 0.09463235 0.08255569 -0.021658113 0.056375906
00000000: 954b 8c3d dfbb 853d 202c 273d be99 b33d
00000010: 6a66 833d 2288 473d e121 b13d 6d42 333d
00000020: d2aa 983d 006d 963d 926c c63d 5192 a43d
00000030: 17be 873d 2292 563d 7506 993d eaed 473d
00000040: 0926 a43d c46d b53d d38a 633d 408f 943d
00000050: 5ddb 92bb 7a26 4c3d 2e9a 9d3d 8b38 803d
00000060: f35f 783d 63d7 843d f547 b03d 6359 123d
00000070: 261f ee3c 1c18 9e3d 8d0a fa3c 16de a33d
00000080: 8bfa a43d 7715 bb3c bc03 863d 1ef8 b03d
00000090: 5fbd ae3d 2409 b53d 7e60 c6bc b7d7 9b3d
000000a0: dea2 a23d 463d afbc 1979 8d3d 7682 b63d
000000b0: cdc6 583d fd4a ae3d 0a19 443d eaff 993d
000000c0: d314 923d 40cb 743d 5237 563d d6fe 883d
000000d0: 83ab c63d 201d 953d 2bc5 913c c9f8 b5bc
000000e0: e9f8 813d 2282 9c3d f2e2 a43d e71a a33d
000000f0: 9bce c13d f512 a93d 5b6c b1bc 6cea 663d

lin2.weight f4 [5, 64]
-0.28300616 -0.33659354 -0.046174563 0.13594303 -0.0750847 -0.2284833 0.19944726 -0.17805415
0.1158973 -0.0667185 0.21043198 -0.17041369 0.2127408 -0.11571367 -0.1914655 -0.18432605
0.044024788 0.28115138 -0.2865819 0.20534697 -0.07563325 -0.22558373 0.20644863 0.09798928
-0.22250834 -0.112005375 -0.13257106 -0.3175571 -0.26538423 -0.30641687 -0.086618245 0.21824646
0.2060282 -0.24259062 -0.27246 0.31201792 0.17695929 0.23596466 2.6903735e-05 -0.20958987
0.034061104 -3.6669135e-05 -0.20914835 0.27646446 -0.21433608 -0.18126887 -0.25320885 -0.059557542
-0.29951143 -0.31813106 -0.2412858 0.21464097 0.19628084 0.05546326 -0.16385944 0.0119176665
-0.09390814 0.2001083 0.14818364 -0.2515723 0.28220543 -0.22491735 0.0043867743 0.100462675
-0.33135894 0.06172206 0.1915873 -0.3051 -0.24460724 -0.21574135 -0.2673339 0.25340992
0.1740802 0.27305037 0.0037531366 0.1627312 -0.3190263 0.23507045 0.14431748 -0.2464493
-0.33057606 -0.26455235 -0.23376267 -0.31899235 0.065449215 -0.2651742 -0.29394332 -0.2817273
0.19422008 0.32310697 0.038638294 0.026611943 -0.26791987 0.20836608 -0.10653012 0.102242604
-0.27188355 -0.15738516 0.29 -0.2691765 0.23055565 0.045917135 0.005173976 0.21134113
0.18013868 4.6010082e-05 0.1516658 0.14030428 0.33959773 -0.26309147 -0.28834677 0.120163694
-0.18755189 0.2595741 -0.3195396 0.24467902 0.2813953 -0.28780216 -0.20000018 -0.0061890925
0.1981274 -0.30785316 0.269782 0.1356148 -0.34525174 0.23237129 -1.2158665e-05 -0.22920571
0.23752102 0.12239736 -0.19647942 0.102587216 0.22240146 0.20297219 -0.31813008 -0.27947775
0.17272264 -0.27063224 -0.284715 0.23259059 -0.36079028 -0.24916452 -0.3360114 0.20445716
-0.30880675 -0.17420441 0.16751276 0.16262221 -0.12996227 0.25616476 0.2213366 0.3243552
0.20915675 0.13980012 -0.37696892 0.20427123 0.28046575 0.21784973 -0.103211366 0.12966666
0.25248668 -0.20511173 -0.3603201 -0.31560344 -0.3330953 -0.34008318 0.015903011 0.07263242
-0.38302925 3.4821514e-05 -0.30964062 0.24523185 0.07505642 0.20954823 0.21817717 -0.3337906
-0.31241292 0.24036832 0.020626629 -0.33097154 -0.347078 0.26907504 0.19697283 0.0023788803
0.04468653 -0.28507587 -0.35634333 0.09402234 -0.1731322 -0.30629224 4.355061e-05 0.20648141
-0.081086874 0.117826134 -0.27268705 0.15594962 0.20866534 0.22981459 0.1176817 0.13671492
0.22075523 0.30817094 0.29226395 -0.27476764 -0.13347857 -0.19054177 0.3248466 -0.2736186
0.29614338 -0.29856452 0.082035266 -0.31213075 -0.103014156 0.27337417 -0.28163266 -0.31858933
-0.39189962 -0.3226378 0.27625936 0.18711197 0.10560443 -0.28600958 0.12860356 -0.30067915
0.26204368 -0.16759542 -0.2626381 0.22443193 -0.26914188 -0.31565702 3.184558e-05 0.2887987
-0.36154348 -0.00047597178 0.2536485 -0.27224433 -0.33725515 0.1673092 -0.29517883 -0.29134354
0.32455665 -0.30671495 0.30930555 -0.26496533 0.1918735 -0.36693516 0.10866928 0.0011601781
-0.25741217 0.3208314 -0.33687583 0.2264958 0.09220916 -0.24710864 0.00052905444 -0.31230912
00000000: 2fe6 90be fd55 acbe 8a21 3dbd a634 0b3e
00000010: 02c6 99bd 87f7 69be e73b 4c3e d453 36be
00000020: 905b ed3d b5a3 88bd 7b7b 573e ed80 2ebe
00000030: b9d8 593e 4afb ecbd 880f 44be f8bf 3cbe
00000040: 5653 343d 13f3 8f3e ddba 92be 7a46 523e
00000050: 9be5 9abd 6cff 66be 4567 533e 9bae c83d
00000060: 3ad9 63be 1363 e5bd b5c0 07be d896 a2be
00000070: 71e0 87be ace2 9cbe e864 b1bd 007c 5f3e
00000080: 0ef9 523e ad69 78be e17f 8bbe d0c0 9f3e
00000090: d134 353e b8a0 713e 55af e137 ba9e 56be
000000a0: a883 0b3d 2fcd 19b8 fc2a 56be c08c 8d3e
000000b0: eb7a 5bbe 8c9e 39be 97a4 81be 9cf2 73bd
000000c0: 9059 99be 13e2 a2be a013 77be d8ca 5b3e
000000d0: d8fd 483e 712d 633d c5ca 27be 5142 433c
000000e0: e952 c0bd 31e9 4c3e 74bd 173e 16ce 80be
000000f0: 3b7d 903e bc50 66be eebe 8f3b 60bf cd3d
00000100: e1a7 a9be 45d0 7c3d 762f 443e 1136 9cbe
00000110: 527a 7abe 4deb 5cbe fddf 88be f2be 813e
00000120: 1442 323e 42cd 8b3e 2ff7 753b 02a3 263e
00000130: 6a57 a3be 4fb6 703e f6c7 133e 355d 7cbe
00000140: 4441 a9be 6873 87be 7b5f 6fbe f752 a3be
00000150: 3d0a 863d eac4 87be bd7f 96be 903e 90be
00000160: a1e1 463e 476e a53e 3043 1e3d 4a01 da3c
00000170: cb2c 89be eb5d 553e 772c dabd 9264 d13d
00000180: 5234 8bbe 9329 21be e17a 943e 81d1 89be
00000190: c816 6c3e 9b13 3c3d 758a a93b cf69 583e
000001a0: 4676 383e f3fa 4038 484e 1b3e edab 0f3e
000001b0: c1df ad3e edb3 86be 30a2 93be 6218 f63d
000001c0: 9a0d 40be e5e6 843e b29a a3be 238d 7a3e
000001d0: 0b13 903e ce5a 93be d9cc 4cbe dfcd cabb
000001e0: e9e1 4a3e ee9e 9dbe de20 8a3e 9bde 0a3e
000001f0: d6c4 b0be bdf2 6d3e 12fd 4bb7 e7b4 6abe
00000200: b638 733e 78ab fa3d e731 49be 3f19 d23d
00000210: 35bd 633e f1d7 4f3e f2e1 a2be b517 8fbe
00000220: 34de 303e 4f90 8abe 2ac6 91be 3a2c 6e3e
00000230: 81b9 b8be fc24 7fbe b009 acbe 385d 513e
00000240: eb1b 9ebe a462 32be 7788 2b3e 7086 263e
00000250: d414 05be 0728 833e 10a6 623e e311 a63e
00000260: 302d 563e c327 0f3e 1202 c1be 7a2c 513e
00000270: 3599 8f3e 0014 5f3e 7b60 d3bd 56c7 043e
00000280: ef45 813e cf08 52be e07b b8be c696 a1be
00000290: 788b aabe 621f aebe 0847 823c 4ec0 943d
000002a0: 691c c4be 510d 1238 3789 9ebe 0f1e 7b3e
000002b0: 2eb7 993d d093 563e d669 5f3e 9ae6 aabe
000002c0: 96f4 9fbe 1d23 763e 2df9 a83c 1a75 a9be
000002d0: 35b4 b1be 34c4 893e 3fb3 493e fde6 1b3b
000002e0: 3909 373d 77f5 91be a272 b6be c98e c03d
000002f0: 9149 31be 56d2 9cbe 1daa 3638 dd6f 533e
00000300: e010 a6bd d44e f13d a39d 8bbe 42b1 1f3e
00000310: 5eac 553e 8454 6b3e 1a03 f13d fffe 0b3e
00000320: a90d 623e 95c8 9d3e 9fa3 953e 58ae 8cbe
00000330: 9bae 08be 621d 43be 4b52 a63e bd17 8cbe
00000340: 1ba0 973e 73dd 98be 1b02 a83d 9acf 9fbe
00000350: 16f9 d2bd b3f7 8b3e 2832 90be 241e a3be
00000360: 11a7 c8be c830 a5be de71 8d3e 489a 3f3e
00000370: 2347 d83d d96f 92be a7b0 033e 9ef2 99be
00000380: 972a 863e 229e 2bbe 8078 86be 7cd1 653e
00000390: f7cc 89be cc9d a1be ee91 0538 6cdd 933e
000003a0: 3a1c b9be da8b f9b9 37de 813e 9c63 8bbe
000003b0: b5ac acbe 1a53 2b3e ae21 97be fb2a 95be
000003c0: 4a2c a63e be09 9dbe 4c5d 9e3e 89a9 87be
000003d0: 7d7a 443e edde bbbe 008e de3d 1e11 983a
000003e0: 87cb 83be 0344 a43e fd7a acbe 84ee 673e
000003f0: 28d8 bc3d 0c0a 7dbe 3eb0 0a3a fbe6 9fbe

lin2.bias f4 [5]
0.07157661 0.035170674 0.0054299035 -0.06302829 0.045121416
00000000: c296 923d 200f 103d 55ed b13b fa14 81bd
00000010: 3cd1 383d

prop1.temp f4 [11]
0.71987426 1.2112061 1.2596792 1.301929 1.315029 1.3173411 1.3140538 1.2957577
1.237483 1.1254616 0.9493892
00000000: ae49 383f cd08 9b3f 2b3d a13f 9ca5 a63f
00000010: df52 a83f a29e a83f ea32 a83f 63db a53f
00000020: d865 9e3f 200f 903f 2c0b 733f
