save_parameters/BernNet_model_0324_1026.pt (torch, 599324 bytes, 5 tensors)

lin1.weight f4 [64, 2325]
4.36256e-05 0.009118319 0.0005763798 -0.05829069 0.064478464 0.0017230483 0.026099043 0.00065107964
0.0050500035 0.0014452878 0.010825227 0.083919644 0.006302936 0.020739889 0.0050815106 -0.0049932534
0.004055123 0.001758341 -0.08478291 0.0048800884 -0.0009661147 -0.07401685 0.08165901 0.008829703
0.016614556 -0.07686662 -0.008982239 0.025123281 0.00442534 0.0030170344 0.0054491675 0.0005661781
0.0012516759 0.038848702 0.0008896546 -0.003587029 -0.076896645 0.044687875 0.056310356 0.00019383378
-0.0012379717 0.021297917 0.0033243417 -0.05480414 -0.001483617 0.116449475 -0.0009390754 0.007940601
-0.052507523 0.012976246 -0.000816021 0.021121984 -0.0017499472 -0.001273622 -0.002435957 -0.004584045
-0.05838759 -0.00014415286 0.0016185648 -0.0232912 0.009105001 -0.0041443417 0.001987819 -0.0012270048
-0.0014060979 0.16260852 -0.0072013563 0.0012660115 -0.0002645123 0.00405047 -0.059751585 0.0006960077
0.00024635633 0.007274691 0.03120058 -0.0009456802 0.004997151 0.0018925068 0.0056374324 0.002912701
0.0034297598 -0.017224198 -0.09022316 -0.04291598 0.0010771239 0.06087847 -0.00865056 -0.00035029664
0.0021452722 -0.00012930352 0.011039042 0.046481077 -0.040025443 0.001072909 0.0044900645 -0.019191252
-0.01465386 -3.515638e-05 -0.008612066 -0.06583461 0.001978456 0.025211856 0.005142349 0.0036237643
0.005367106 -0.013138849 -0.0016423531 0.0006922357 0.00333251 0.0074472288 0.10016461 -0.000400558
-0.00065628486 0.09531992 0.0016659168 -0.000921841 0.00090594415 0.00048574846 -0.016790014 0.016416108
-0.0043664626 0.0030418036 0.11686884 0.022604687 0.019573022 -0.0016450501 0.010976441 6.54693e-05
0.0061213896 0.026912052 0.001933977 0.0031823963 -0.0020563952 -0.017498137 0.0029991735 0.012400057
0.0058320747 0.0015066573 0.004042932 0.009949161 -0.07377629 0.004009238 0.0047696633 0.008444816
0.0020929577 0.0074528214 0.0047923345 -0.0008073853 0.0037585527 0.01893432 0.00610452 -0.0017290522
-0.052118577 -0.08707073 -0.052804254 -0.058023952 0.003752601 -0.0100155 0.0012165598 0.00088844757
0.00297753 -0.076344356 -0.0012546954 0.0662073 0.015854022 -0.047000017 0.0045023784 0.0040975194
0.0042567262 0.004689004 0.0016001154 0.0013994983 -0.0004307108 0.006686338 0.0035479213 0.013010894
0.0035858823 0.037637077 -0.00017637142 -0.012334491 0.0063477596 -0.03986807 -0.008447519 0.0024589847
0.06882308 0.011276886 0.0016956931 0.0028122223 0.00062454445 -0.045837134 -0.08750385 -0.0072090933
0.00088952784 -0.051697943 -0.00020011874 -0.010072291 -0.0034293653 -0.00019327413 -0.110141635 0.12020546
0.037582807 0.08653513 0.0014157806 0.015998919 -0.0030492202 -0.081355035 -0.0774626 0.0028665122
0.0021862588 0.0066253096 0.042361695 0.010104462 0.0012628668 0.0032063231 0.0006591511 -0.008557895
0.0017518174 -0.0032328516 0.068070166 0.0007302194 0.0011048785 0.002813911 0.0024046008 -0.04956802
-0.008181136 0.0003097431 0.00096768024 0.006920736 -0.0020336425 0.0018451915 -0.00059140526 2.0293111e-05
-0.0005460551 0.0038935102 -0.002502035 0.062691316 -0.00015518063 -0.06288163 -0.06312639 -0.060078777
0.00030553143 0.004696053 0.049384955 -0.079212025 -0.020746943 -0.0018016368 0.0030089736 -0.0010812522
0.003325461 -0.05199731 0.020114452 -0.09087418 0.002169871 0.0010787505 0.0002023699 0.0038002154
00000000: a2fa 3638 0065 153c 3218 173a 38c2 6ebd
00000010: 490d 843d e8d7 e13a a9cd d53c 37ad 2a3a
00000020: 807a a53b d06f bd3a 4b5c 313c 10de ab3d
00000030: dc88 ce3b b3e6 a93c cd82 a63b 729e a3bb
00000040: d6e0 843b 2278 e63a aaa2 adbd 26e9 9f3b
00000050: dc42 7dba 2596 97bd d73c a73d 75aa 103c
00000060: 401b 883c 3f6c 9dbd 3e2a 13bc 57cf cd3c
00000070: 7102 913b 70b9 453b ee8e b23b 926b 143a
00000080: 460f a43a d11f 1f3d b637 693a 5c14 6bbb
00000090: fd7b 9dbd a20a 373d b0a5 663d dc3f 4b39
000000a0: 7043 a2ba f878 ae3c 33dd 593b 4e7a 60bd
000000b0: ed75 c2ba 107d ee3d 492c 76ba 4b19 023c
000000c0: 2112 57bd 529a 543c 3eea 55ba 0308 ad3c
000000d0: 7c5e e5ba aaef a6ba 94a4 1fbb c235 96bb
000000e0: d327 6fbd bd27 17b9 0626 d43a 30cd bebc
000000f0: 242d 153c 42cd 87bb 1246 023b 73d3 a0ba
00000100: d14c b8ba d982 263e 5bf9 ebbb 4cf0 a53a
00000110: 3dae 8ab9 ceb9 843b 14be 74bd 4974 363a
00000120: 6329 8139 8860 ee3b 5c98 ff3c 86e7 77ba
00000130: 24bf a33b fe0d f83a 36ba b83b 04e3 3e3b
00000140: d2c5 603b c319 8dbc ecc6 b8bd abc8 2fbd
00000150: 482e 8d3a b45b 793d 14bb 0dbc 05a8 b7b9
00000160: b297 0c3b a695 07b9 19dd 343c f162 3e3d
00000170: b8f1 23bd daa0 8c3a 6421 933b f936 9dbc
00000180: be16 70bc e074 13b8 9f19 0dbc 4cd4 86bd
00000190: fca8 013b 1889 ce3c 2681 a83b ad7c 6d3b
000001a0: 8cde af3b 5444 57bc 3a44 d7ba 2777 353a
000001b0: 3d66 5a3b e207 f43b 1a23 cd3d fc01 d2b9
000001c0: 880a 2cba 1737 c33d e45a da3a b4a7 71ba
000001d0: e27c 6d3a 0eac fe39 368b 89bc 137b 863c
000001e0: 8b14 8fbb ff58 473b ee58 ef3d 772d b93c
000001f0: 9a57 a03c b99e d7ba 88d6 333c 904c 8938
00000200: f095 c83b aa76 dc3c 807d fd3a c08f 503b
00000210: 96c4 06bb 4158 8fbc c88d 443b 9c29 4b3c
00000220: fd1a bf3b 087b c53a 927a 843b ce01 233c
00000230: 0618 97bd ed5f 833b d64a 9c3b 205c 0a3c
00000240: 012a 093b cc36 f43b 0409 9d3b b6a6 53ba
00000250: 0d52 763b 261c 9b3c 6d08 c83b 5da1 e2ba
00000260: 4a7a 55bd 2452 b2bd 4649 58bd 86aa 6dbd
00000270: 33ee 753b 0d18 24bc f974 9f3a b5e6 683a
00000280: aa22 433b 6e5a 9cbd 9774 a4ba b197 873d
00000290: 4be0 813c 1783 40bd b088 933b 7c44 863b
000002a0: 027c 8b3b 37a6 993b f7ba d13a 5f6f b73a
000002b0: 06d1 e1b9 1219 db3b 3e84 683b a52b 553c
000002c0: 1f01 6b3b 5629 1a3d 58f0 38b9 9b16 4abc
000002d0: de00 d03b b44c 23bd 7667 0abc eb26 213b
000002e0: 1df3 8c3d b0c2 383c 0542 de3a 434d 383b
000002f0: 78b8 233a b8bf 3bbd 3835 b3bd 423a ecbb
00000300: 342f 693a 39c1 53bd f7d6 51b9 4006 25bc
00000310: 34bf 60bb a1a9 4ab9 f091 e1bd 482e f63d
00000320: 6ef0 193d 5539 b13d b791 b93a 2a10 833c
00000330: 6dd5 47bb 789d a6bd b6a4 9ebd 18dc 3b3b
00000340: 5647 0f3b 2019 d93b 7583 2d3d 2f8d 253c
00000350: c786 a53a 2d21 523b e2ca 2c3a 6a36 0cbc
00000360: 3d9d e53a 40de 53bb 5f68 8b3d 326c 3f3a
00000370: 92d1 903a 9869 383b 8296 1d3b d607 4bbd
00000380: 2c0a 06bc 0465 a239 ecab 7d3a 57c7 e23b
00000390: dc46 05bb 5ada f13a 8908 1bba 203b aa37
000003a0: 2325 0fba 432a 7f3b 2ef9 23bb 4e64 803d
000003b0: fcb7 22b9 16c8 80bd 6948 81bd 2a15 76bd
000003c0: bc2f a039 59e1 993b e147 4a3d ea39 a2bd
000003d0: 7ef5 a9bc e624 ecba 3332 453b ceb8 8dba
000003e0: faef 593b 22fb 54bd 10c7 a43c 3e1c babd
000003f0: 6534 0e3b dc64 8d3a 4233 5439 090d 793b

lin1.bias f4 [64]
0.06405121 0.059057545 0.06322418 0.09474557 -0.019053038 0.05576495 0.07091901 0.06291744
0.04791518 0.09398627 -0.026443403 0.078663394 -0.015386484 0.07075276 0.051294222 0.08494747
0.07467461 -0.01682437 0.062581785 0.06880167 0.058519132 0.053622805 0.06735965 0.07360744
0.05720669 0.0915801 0.048805684 -0.0075473357 0.063763745 0.089272566 0.066453226 0.06343409
0.051128082 0.051471405 0.06951974 0.06206199 0.0208377 0.059009764 0.0414801 0.038158543
-0.00067897036 0.06825132 -0.012279042 -0.022638632 0.090901814 0.07832942 -0.02240194 0.073084086
0.06560774 0.07448136 0.063799284 0.063290104 0.073623404 0.08215926 0.08451144 0.05947794
0.07466433 0.08383868 0.06081578 0.03345825 0.062555365 -0.0068078465 0.07328647 0.05925822
00000000: 482d 833d 53e6 713d ae7b 813d f709 c23d
00000010: 1e15 9cbc ca69 643d fc3d 913d dcda 803d
00000020: b542 443d e07b c03d d69f d8bc 461a a13d
00000030: 9717 7cbc d3e6 903d e419 523d f0f8 ad3d
00000040: 00ef 983d 43d3 89bc e12a 803d e4e7 8c3d
00000050: c2b1 6f3d 96a3 5b3d dbf3 893d 7fbf 963d
00000060: 9051 6a3d 598e bb3d 78e8 473d a44f f7bb
00000070: 9196 823d 89d4 b63d a118 883d bbe9 813d
00000080: ae6b 513d aed3 523d 5e60 8e3d b734 7e3d
00000090: d3b3 aa3c 39b4 713d 0ae7 293d 224c 1c3d
000000a0: eefc 31ba 59c7 8b3d 092e 49bc a774 b9bc
000000b0: bb2a ba3d 2d6b a03d 4684 b7bc 1cad 953d
000000c0: 5a5d 863d af89 983d 33a9 823d 3e9e 813d
000000d0: dec7 963d 1d43 a83d 5514 ad3d 249f 733d
000000e0: 9de9 983d 9db3 ab3d f819 793d 850b 093d
000000f0: 071d 803d 5b14 dfbb 3717 963d bfb8 723d

lin2.weight f4 [5, 64]
0.2163698 -0.25192946 0.09582121 0.2619382 -0.0469393 -0.17796892 0.17104447 -0.16509764
0.048006922 -0.23605455 9.711519e-06 -0.29021347 -0.0030288463 -0.32992026 0.31156972 0.27840778
0.22965845 4.906868e-05 0.2593707 0.15720983 0.14479224 0.187864 0.19162592 0.026859399
0.25858948 -0.20753236 -0.06197876 8.772552e-05 0.060314223 0.19639139 -0.2701916 0.17069985
0.030176962 0.19498461 0.26929614 -0.24971184 0.1819281 0.12814322 -0.177539 -0.3332586
3.8168055e-05 -0.25993514 -2.7343625e-05 -0.002100567 0.22794826 0.14897178 -0.059152972 -0.24674907
-0.26194632 0.22296302 -0.32424945 0.08940947 0.18761563 -0.27046683 -0.27746075 -0.10299676
0.29250976 0.116129026 -0.22539462 -0.18548656 -0.22346431 1.6072872e-05 0.20265073 0.19248357
-0.18103422 0.2637757 -0.29668808 0.28422898 -0.0020735736 0.20814165 -0.21413083 -0.25917152
-0.20271453 0.045136996 3.828424e-05 -0.2731844 0.002669232 -0.2892961 -0.24630046 -0.24638826
-0.301419 1.0543386e-05 -0.044405576 -0.30309224 0.23895523 -0.28476667 0.23498996 -0.28863034
-0.2702572 0.24978553 0.01286812 0.00011849569 -0.317892 -0.26017484 -0.29037035 -0.37278596
-0.19470018 -0.045301538 0.14113256 0.06569194 -0.10712375 -0.38280597 -0.081255205 -0.14358485
0.0004161603 -0.3144526 -3.4663022e-05 -2.6379019e-05 0.20927158 -0.0972822 0.0010447095 0.26522768
0.2886007 0.2778285 0.18535122 0.15018314 0.19318084 0.2530804 0.27800733 0.00504774
-0.036509983 -0.31868142 0.25841275 -0.18079732 0.18439071 -0.006310421 -0.2827662 -0.30050293
-0.18669471 -0.31262952 -0.1110905 -0.31775877 0.0034112406 -0.21479794 -0.33776328 -0.2608545
0.31984714 0.27363324 -0.016039034 0.13681519 0.025721556 -0.25802118 -0.32850102 0.2559198
0.21548253 -8.395741e-05 0.18729934 0.20386618 -0.27402744 0.27398813 -0.37337756 0.22305104
-0.14813642 -0.04396607 0.19745383 0.00031778502 0.17321497 -0.38682148 0.28871256 0.09602157
0.318218 -0.23241732 0.21051024 0.25661537 -0.119653426 0.18972312 0.34867513 0.1486482
-6.351636e-05 0.2372787 -0.00039642275 3.4256307e-05 0.2306451 0.22246444 0.0012801838 0.25657454
-0.28018343 -0.22272602 0.164685 0.21935385 -0.26492155 -0.38759995 -0.2929329 0.078207664
-0.13777399 -0.2571178 0.23449452 0.17290202 0.24325347 0.00020115076 -0.33021572 -0.28769314
0.1745748 -0.21380767 0.17924613 -0.20900819 -0.00017743223 0.17853262 -0.1925952 0.31077066
-0.33666065 -0.3685846 1.1459896e-05 0.29880455 0.03691403 0.25237536 -0.2540023 -0.28014335
0.0636005 -1.7426789e-06 -0.2768706 0.22230275 -0.058244742 -0.3236127 -0.27302527 0.19121557
0.23325571 -0.38390186 -0.27077731 -0.000108926426 0.13944395 0.24030615 -0.31552437 -0.33646223
-0.27252215 0.21621317 -0.1195862 0.2892632 -0.15299897 0.18965636 -0.29752496 0.18584464
-0.00038609648 0.19513904 -3.5308592e-05 0.00027480102 -0.38081264 0.21414016 -1.4203208e-05 0.20893596
0.31238607 -0.005114288 0.23791349 -0.34935898 0.16413996 0.085554846 0.30132082 -0.20094337
0.2836669 0.23947251 -0.29336137 -0.23076113 -0.36281285 0.0003823745 -0.3196234 -0.29188868
00000000: 0b90 5d3e e6fc 80be e93d c43d c41c 863e
00000010: 6c43 40bd 7c3d 36be 4826 2f3e 5b0f 29be
00000020: e8a2 443d 49b8 71be a8ee 2237 dc96 94be
00000030: 9c7f 46bb 4feb a8be 1186 9f3e 778b 8e3e
00000040: 962b 6b3e 18cf 4d38 3dcc 843e 9dfb 203e
00000050: 6b44 143e 6c5f 403e 9639 443e 3e08 dc3c
00000060: d765 843e 5d83 54be 71dd 7dbd 48f9 b738
00000070: 0c0c 773d d31a 493e 8e56 8abe f1cb 2e3e
00000080: ad35 f73c 0caa 473e 2fe1 893e 76b4 7fbe
00000090: 5c4b 3a3e fa37 033e c9cc 35be dfa0 aabe
000000a0: a316 2038 3816 85be fd5f e5b7 aba9 09bb
000000b0: 456b 693e 0f8c 183e 634a 72bd caab 7cbe
000000c0: d41d 86be 6b50 643e 0604 a6be 501c b73d
000000d0: 501e 403e a17a 8abe 560f 8ebe f7ef d2bd
000000e0: d7c3 953e 0ed5 ed3d d9cd 66be 30f0 3dbe
000000f0: d4d3 64be 3bd4 8637 ac83 4f3e 6a1a 453e
00000100: 0961 39be 9c0d 873e 80e7 97be 7686 913e
00000110: cbe4 07bb 1623 553e 1d45 5bbe 21b2 84be
00000120: 6694 4fbe 92e1 383d 6493 2038 d3de 8bbe
00000130: 48ee 2e3b 9e1e 94be 3036 7cbe 344d 7cbe
00000140: 9753 9abe 80e3 3037 9fe2 35bd e82e 9bbe
00000150: aeb0 743e f0cc 91be 35a1 703e 5bc7 93be
00000160: 275f 8abe c7c7 7f3e cfd4 523c e480 f838
00000170: bdc2 a2be a335 85be 6cab 94be cddd bebe
00000180: 7c5f 47be 1b8e 39bd 0e85 103e 7f89 863d
00000190: b263 dbbd 25ff c3be 2169 a6bd e807 13be
000001a0: 1730 da39 eeff a0be 2363 11b8 8348 ddb7
000001b0: 4a4b 563e e43b c7bd a2ee 883a eccb 873e
000001c0: 79c3 933e 8a3f 8e3e b6cc 3d3e 9cc9 193e
000001d0: 33d1 453e c193 813e fa56 8e3e 8367 a53b
000001e0: 7e8b 15bd 362a a3be ad4e 843e ef22 39be
000001f0: ebd0 3c3e a6c7 cebb bbc6 90be 85db 99be
00000200: e62c 3fbe fa10 a0be 6b83 e3bd 47b1 a2be
00000210: 1f8f 5f3b fef3 5bbe 4fef acbe b98e 85be
00000220: 01c3 a33e a819 8c3e 4b64 83bc 4819 0c3e
00000230: 03b6 d23c 5a1b 84be 4931 a8be ec07 833e
00000240: 74a7 5c3e 4b12 b0b8 66cb 3f3e 4cc2 503e
00000250: 534d 8cbe 2c48 8c3e 582b bfbe 7e67 643e
00000260: 13b1 17be c415 34bd 5631 4a3e 629c a639
00000270: 445f 313e 770d c6be 22d2 933e f5a6 c43d
00000280: 78ed a23e cefe 6dbe ff8f 573e 1763 833e
00000290: db0c f5bd c746 423e 8c85 b23e 3c37 183e
000002a0: 1634 85b8 30f9 723e f6d6 cfb9 6eae 0f38
000002b0: 3b2e 6c3e b8cd 633e d7cb a73a bd5d 833e
000002c0: 3474 8fbe 4a12 64be 2fa3 283e 4c9e 603e
000002d0: cca3 87be 8073 c6be 4dfb 95be 572b a03d
000002e0: a014 0dbe f2a4 83be 551f 703e 3a0d 313e
000002f0: 7017 793e ffeb 5239 0912 a9be 844c 93be
00000300: bdc3 323e 66f0 5abe 4c8c 373e 3e06 56be
00000310: 1a0d 3ab9 41d1 363e ad37 45be 551d 9f3e
00000320: c95e acbe 1fb7 bcbe e143 4037 e9fc 983e
00000330: 2a33 173d 5837 813e 970c 82be f36e 8fbe
00000340: fb40 823d fee5 e9b5 fcc1 8dbe 55a3 633e
00000350: 0a92 6ebd 90b0 a5be f8c9 8bbe 04ce 433e
00000360: 96da 6e3e c98e c4be 53a3 8abe 6e6f e4b8
00000370: 65ca 0e3e d112 763e 698c a1be c744 acbe
00000380: 0688 8bbe fc66 5d3e 9ce9 f4bd 4e1a 943e
00000390: c3ab 1cbe 4735 423e 3155 98be 0f4e 3e3e
000003a0: fe6c cab9 87d2 473e 5018 14b8 2b13 9039
000003b0: e0f9 c2be 8f47 5b3e 504a 6eb7 4ff3 553e
000003c0: 11f1 9f3e c295 a7bb 989f 733e 2edf b2be
000003d0: 4e14 283e 6137 af3d b946 9a3e 19c4 4dbe
000003e0: ca3c 913e 4838 753e 7633 96be a54c 6cbe
000003f0: 9bc2 b9be 7079 c839 aea5 a3be 6f72 95be

lin2.bias f4 [5]
-0.023870187 0.08212185 -0.10114136 -0.019369248 0.12520936
00000000: 698b c3bc 802f a83d 3423 cfbd 42ac 9ebc
00000010: e236 003e

prop1.temp f4 [11]
0.7373427 1.1832708 1.2395124 1.260213 1.2745311 1.2804776 1.2784659 1.270947
1.2714952 1.3370942 1.3034736
00000000: 7ec2 3c3f 6b75 973f 58a8 9e3f a94e a13f
00000010: d623 a33f b1e6 a33f c5a4 a33f 64ae a23f
00000020: 5bc0 a23f e725 ab3f 39d8 a63f
