save_parameters/BernNet_model_0324_1045.pt (torch, 599324 bytes, 5 tensors)

lin1.weight f4 [64, 2325]
0	0x3a8aaf99	0.0010580897
1	0x3af1dd50	0.0018452797
2	0x3a3ce1e6	0.00072052923
3	0xb9b03b7a	-0.0003361365
4	0xbcaec5ca	-0.021334548
5	0x3a8efcc1	0.0010909067
6	0x3cb07fdc	0.021545343
7	0x3acc96c0	0.0015608892
8	0xb98cd0ae	-0.0002685836
9	0x3a604402	0.0008555056
10	0xba9058a6	-0.0011012747
11	0x3afe9885	0.0019424116
12	0x38203d8c	3.8204293e-05
13	0xbaa3505c	-0.0012459862
14	0xbc228239	-0.009918743
15	0x3aa7f558	0.0012814207
16	0x3d2595c8	0.040426046
17	0x3adcda55	0.0016849736
18	0xbafe5672	-0.0019404425
19	0xbcbc3dc8	-0.022978678
20	0x3b327ca0	0.0027234927
21	0xbb52379c	-0.0032076603
22	0xbc7b5080	-0.015339017
23	0xb9f360fd	-0.00046420834
24	0x3caf6566	0.021410655
25	0x3b0cfb25	0.0021511998
26	0xba868004	-0.001026154
27	0xbc1604ac	-0.009156387
28	0xbc1e5c7c	-0.009665605
29	0xbb270923	-0.0025487624
30	0x3abb4661	0.0014287942
31	0x3a6d2be2	0.00090473716
32	0xbcf414e9	-0.029795127
33	0xbca3746c	-0.019952975
34	0xba34c569	-0.00068958715
35	0x3a2c4405	0.0006571415
36	0xbad6bb7a	-0.0016382777
37	0x391da0b4	0.00015032553
38	0x3a2aa866	0.00065100787
39	0xba5adf48	-0.00083493115
40	0xbac3054a	-0.0014878896
41	0x39806587	0.00024489706
42	0xbaac72ce	-0.0013156773
43	0xbbbd140c	-0.005770212
44	0xbae2e088	-0.0017309347
45	0x3ca448de	0.020054277
46	0x3a1f7882	0.0006083326
47	0xbb17330f	-0.0023071205
48	0x38e2d580	0.00010816287
49	0x39257c54	0.00015781942
50	0xba03ddf6	-0.0005030328
51	0x3cb1be83	0.021697288
52	0xbc289d5e	-0.0102914255
53	0xba4279db	-0.00074186706
54	0xbcf12447	-0.029436244
55	0xbc9a8195	-0.018860618
56	0xbcd73b82	-0.026273493
57	0x3a3aa70f	0.00071202306
58	0xb9c47737	-0.00037472855
59	0xbc0f095a	-0.008730257
60	0xbca36ac0	-0.019948363
61	0x3a603374	0.0008552589
62	0x3aa00ba5	0.0012210502
63	0xbc90ab6c	-0.017659865
64	0x3a3560c0	0.0006919019
65	0xbc7f2058	-0.015571676
66	0xb9cc7714	-0.00038998632
67	0xba2aefe2	-0.00065207307
68	0x3916a819	0.00014367736
69	0x3a63d9b2	0.0008691802
70	0xba1a2920	-0.0005880762
71	0xbc760420	-0.015015632
72	0x3a3a294c	0.00071014906
73	0x3b03398b	0.0020023312
74	0xbc69cf24	-0.014270578
75	0x3ab9c4ea	0.0014173065
76	0x3a15a8fc	0.00057090796
77	0x39c16ed7	0.0003689441
78	0xb88ba9cc	-6.6596636e-05
79	0x3c4587f0	0.012056336
80	0x3c9cc0ed	0.019134963
81	0xbaa38903	-0.0012476746
82	0xba37ec83	-0.0007016139
83	0xbcc73c36	-0.024320703
84	0x3ab7e050	0.0014028642
85	0xba8505e4	-0.001014885
86	0x3a81e462	0.0009909982
87	0xba23a091	-0.0006241883
88	0x3a84106a	0.0010075693
89	0x3aea6b04	0.0017884676
90	0xbc6c1e5e	-0.014411537
91	0x396d78be	0.00022647061
92	0x3a98fc92	0.0011671952
93	0xb9d2408e	-0.00040102418
94	0x3d0302d7	0.03198513
95	0xbb4a71d4	-0.00308906
96	0x3b100c2c	0.0021979911
97	0xbad03991	-0.0015886297
98	0x3b813ff9	0.0039443937
99	0x3b6c3606	0.0036042943
100	0x3cb4f251	0.022088202
101	0xb96a8278	-0.00022364582
102	0x388da809	6.754703e-05
103	0xbce9dadd	-0.028546745
104	0xb964f74c	-0.000218359
105	0xb92141e8	-0.00015378708
106	0xbacf2fee	-0.0015807131
107	0x3a688ea6	0.0008871354
108	0x3c869560	0.01642865
109	0xbc595707	-0.013265378
110	0x3a8d0bd4	0.0010760971
111	0x3ad64c12	0.0016349575
112	0xba93335c	-0.0011230516
113	0x39bd5d80	0.00036118552
114	0x3a516762	0.00079881225
115	0x3b469b5f	0.003030501
116	0xbbdc0d25	-0.006715434
117	0x3ac738b3	0.0015199393
118	0x3a528e1b	0.00080320396
119	0x3a241555	0.0006259282
120	0xbcb3447a	-0.021883238
121	0x3aaa242a	0.0012980748
122	0xbc8c207f	-0.01710534
123	0xbb4b38f8	-0.0031009298
124	0x3b940ca0	0.0045181066
125	0x3b19a114	0.0023441957
126	0x3a0b5179	0.00053145696
127	0xbc54cc06	-0.012988096
128	0x3c213e4e	0.009841515
129	0x3b3d4876	0.0028882301
130	0x3ac9e8e9	0.0015404496
131	0x3a1d272a	0.00059949106
132	0xb912bad6	-0.00013993247
133	0x3a326088	0.00068045454
134	0xbc1a6759	-0.009424054
135	0xbb061b72	-0.0020463136
136	0xbaaba349	-0.0013094927
137	0x396dd65c	0.00022681936
138	0x39430a99	0.00018600597
139	0xba88d8fe	-0.0010440645
140	0xbaaa647e	-0.001299992
141	0xbabf3cc1	-0.001459025
142	0x3c606202	0.013695242
143	0x3d058b96	0.032603823
144	0x3cf83a8b	0.030301353
145	0xbae35d96	-0.0017346616
146	0xb9fe0b51	-0.00048455087
147	0xba060ee5	-0.0005113914
148	0x3a782d30	0.00094671827
149	0xbb6c34ed	-0.0036042288
150	0xb8fa936b	-0.00011948388
151	0x3aaffdde	0.0013427099
152	0xb8323020	-4.2483327e-05
153	0x3b0cc157	0.0021477544
154	0x3ca78aa4	0.020451851
155	0xbab82b92	-0.0014051071
156	0xba585214	-0.00082519767
157	0x3acbd021	0.0015549698
158	0xba988293	-0.0011635594
159	0x3a895360	0.0010477118
160	0xb9f8e485	-0.00047472506
161	0x3980c2f4	0.00024559314
162	0xb9f70e3e	-0.00047122122
163	0x3cc5fa67	0.024167253
164	0xbc0b1e6c	-0.00849114
165	0x3ba5175a	0.005038184
166	0x3b0a3b07	0.0021092312
167	0x3af3fd7e	0.0018614975
168	0x3ace0575	0.0015718179
169	0x3a10483b	0.0005503927
170	0x3bea04af	0.0071416716
171	0xba696232	-0.0008902877
172	0xba6bf7df	-0.0009001474
173	0xbc8e750b	-0.017389795
174	0xba05946e	-0.0005095665
175	0xbab9616c	-0.0014143414
176	0xbaf1d8d2	-0.0018451458
177	0x3ab61e33	0.0013894498
178	0xb9e0f2ba	-0.00042905455
179	0x39e6186a	0.00043887208
180	0x3ae119d9	0.0017173841
181	0xbbeaa18c	-0.007160371
182	0xb9d025cd	-0.00039701015
183	0xb99152a4	-0.00027718127
184	0x3a950a02	0.001137078
185	0x3a8d9740	0.0010802522
186	0x3a941bc7	0.0011299782
187	0x3a034a5c	0.0005008334
188	0xbaf72021	-0.001885418
189	0xb9b841d8	-0.00035144272
190	0xbb217c60	-0.0024640784
191	0xb844c2e4	-4.6911548e-05
192	0x3aba0706	0.0014192767
193	0xba949c46	-0.0011338077
194	0xba1fb9ba	-0.0006093044
195	0xbca66967	-0.020313932
196	0xb9a6f3ad	-0.0003184354
197	0xba1c1362	-0.0005953816
198	0xbb89dd40	-0.0042072833
199	0xba37377f	-0.00069891656
200	0x3ca0ca11	0.019627603
201	0x3b1bda4a	0.0023781233
202	0xbb0da5e8	-0.002161378
203	0x3a02f951	0.00049962575
204	0x3ce83c44	0.02834905
205	0xbadc3881	-0.0016801507
206	0xbaa9692c	-0.001292502
207	0x3c6f4278	0.01460325
208	0x39f8d36a	0.00047459762
209	0x3a799abb	0.0009521653
210	0x3d06257f	0.032750603
211	0x3a96ece2	0.0011514688
212	0x38bd923a	9.039459e-05
213	0x39f5c7fc	0.00046879041
214	0x3a4d8be5	0.00078409753
215	0xbc4d8980	-0.01254499
216	0xbac02775	-0.0014660197
217	0x3a30f405	0.0006750229
218	0xb8f6bc00	-0.00011765212
219	0xba422b8d	-0.0007407002
220	0xb8fcc664	-0.000120532495
221	0x3acc4fe6	0.0015587776
222	0x39deb274	0.00042476098
223	0xbbd616f7	-0.0065334993
224	0xba823edd	-0.0009936948
225	0xb922a2d9	-0.0001551019
226	0x389c1408	7.442391e-05
227	0x3ac24395	0.0014821166
228	0x39276f6f	0.00015967873
229	0x394204d2	0.00018503077
230	0xba91741e	-0.0011097228
231	0xba6cc788	-0.0009032418
232	0x397e0b2b	0.00024227488
233	0xb81dc618	-3.7616206e-05
234	0x3b1c73ba	0.002387269
235	0xbc3c9e91	-0.011512415
236	0xbb158fc6	-0.0022821291
237	0x3a1edf94	0.00060605374
238	0x3b1837bc	0.002322658
239	0xbd05932c	-0.032611057
240	0xbb07f909	-0.0020747802
241	0xb9bf99b3	-0.00036544874
242	0xba9ca2f3	-0.0011950418
243	0x3b50494f	0.0031781977
244	0x3a790647	0.00094995316
245	0xbab92cf8	-0.0014127782
246	0xba8189fc	-0.0009883041
247	0xbc46738c	-0.012112509
248	0x3b137801	0.0022501948
249	0x3ad4d436	0.001623756
250	0xbb439594	-0.0029843794
251	0xba728dc6	-0.0009252693
252	0x3a84a2e2	0.0010119344
253	0x3b206fb3	0.002448064
254	0xba29428b	-0.0006456754
255	0x3a502648	0.00079402747

lin1.bias f4 [64]
0	0x3cfc64c1	0.030809762
1	0xbcb8760b	-0.022517225
2	0x3c8953f9	0.016763674
3	0x3c7356be	0.014852224
4	0x3c0b0ef9	0.0084874565
5	0x3c6d92c6	0.014500326
6	0x3d2d1230	0.042253673
7	0x3d1602ac	0.03662364
8	0x3cac3e68	0.021025851
9	0x3d1a8bc4	0.037730947
10	0x3cc7f494	0.024408616
11	0x3cba2f88	0.022727743
12	0x3ced1a0f	0.02894309
13	0x3cda2819	0.026630448
14	0x3bba95ba	0.0056941183
15	0x3cc37a64	0.023862071
16	0x3c312841	0.01081282
17	0x3d27390a	0.04082588
18	0x3c7eaa58	0.015543543
19	0x3c38b5b7	0.011273793
20	0xbcaa913c	-0.020821206
21	0xbcb4a3b7	-0.022050722
22	0xbcad47f8	-0.021152481
23	0x3cb9a5e6	0.022662114
24	0x3c665309	0.014057883
25	0xbcbf578c	-0.023357175
26	0x3d0698d0	0.032860577
27	0x3cae7eca	0.021300692
28	0x3cbdfa83	0.023190742
29	0xbc8b5e7c	-0.017012827
30	0x3cd04840	0.025425076
31	0xbc4b5f60	-0.012412876
32	0x3cc50f3d	0.024055118
33	0x3c7c9618	0.0154166445
34	0x3c49eb0b	0.012324105
35	0x3c964061	0.018341245
36	0xba0c3be8	-0.0005349503
37	0x3d2dd881	0.042442802
38	0x3c4707d1	0.01214786
39	0xbc4d9222	-0.012547048
40	0x3c49a74e	0.012307955
41	0x3cac5721	0.02103764
42	0x3cded292	0.027200017
43	0x3cf45124	0.029823847
44	0xbced8ce8	-0.028997853
45	0x3cda3be8	0.026639894
46	0x3cff10a9	0.031135874
47	0x3cd23292	0.02565888
48	0x3c0f6c5b	0.008753861
49	0x3c07e51b	0.008294369
50	0x3c72eab0	0.014826462
51	0x3c8ea75c	0.017413788
52	0xba9be88a	-0.0011894864
53	0xbcbc38d5	-0.022976318
54	0x3cac4edc	0.021033697
55	0x3c35bbd2	0.011092143
56	0xbb97e370	-0.004635267
57	0xbc317970	-0.010832176
58	0x3ce5ffd0	0.028076082
59	0x3c9ac212	0.018891368
60	0x3cd25db2	0.025679443
61	0x3b2c0e0d	0.0026253492
62	0x3d122847	0.035682943
63	0x3c5c9b4e	0.013464762

lin2.weight f4 [5, 64]
0	0x3dd4063c	0.103527516
1	0xbaa252b0	-0.0012384262
2	0x3dd2b6d8	0.10288781
3	0xbe1897e7	-0.14901696
4	0xbc06e0c4	-0.008232299
5	0xbddb64c7	-0.10712581
6	0x3d81ab0a	0.06331451
7	0xbce81c75	-0.028333882
8	0x3cb5eb4f	0.02220693
9	0x3d8cf2a7	0.0688222
10	0xbdc30b53	-0.09523644
11	0xbd0b071f	-0.033942338
12	0x3ddd1f89	0.107970305
13	0x3e096a6a	0.134195
14	0xbd2816ef	-0.041037496
15	0xbdcc9e91	-0.09991182
16	0x3c9b0a97	0.018925948
17	0x3e139c0b	0.14414994
18	0x3dc220a7	0.09478884
19	0x3d611a5d	0.054956783
20	0xbd92a7f2	-0.07160939
21	0x3d3aa0c4	0.045563474
22	0x3c959968	0.018261626
23	0xbd515fda	-0.0511168
24	0xbd74e588	-0.05978921
25	0xbd8576d9	-0.06516809
26	0xbd747743	-0.05968405
27	0xbc09ec2a	-0.008418122
28	0xbdb6aadd	-0.08919308
29	0xbc9b167c	-0.01893162
30	0x3ddbaf8c	0.10726842
31	0x3d978aca	0.07399519
32	0x3c0d6a8d	0.008631361
33	0x3e0bd8d5	0.13656934
34	0xbe021a30	-0.12705302
35	0xbd73a136	-0.059479915
36	0xbdf50384	-0.11963561
37	0x3d7fdbe1	0.062465552
38	0x3e21e716	0.15810809
39	0xbc122e54	-0.008922178
40	0x3e0e5f1b	0.13903467
41	0xbcd3bbb3	-0.025846338
42	0xbdf8c152	-0.12146248
43	0xbcc3a0ba	-0.023880351
44	0xbb92d112	-0.0044804895
45	0xbce62ed0	-0.028098494
46	0x3db5ad37	0.08870929
47	0x3e04d669	0.12972416
48	0xbd289acd	-0.041163255
49	0xbd4be660	-0.04978025
50	0x3d08a433	0.033359718
51	0x3e1ee0af	0.15515397
52	0xbc03c295	-0.008041997
53	0xbd5ab7e9	-0.053398047
54	0xbd9fc15a	-0.07800551
55	0x3dfd3391	0.12363351
56	0xbd222ad4	-0.039591625
57	0x3d7cc0c9	0.06170729
58	0xbd8b0ac2	-0.06789161
59	0xbe0286d8	-0.12746751
60	0x3d468469	0.04846612
61	0x3deeaa9e	0.116536364
62	0x3ded00e4	0.115724355
63	0xbe17afaa	-0.14813104
64	0xbdfc57c0	-0.123214245
65	0x3d13d266	0.036089323
66	0x3dcbfcb4	0.09960309
67	0xbd8674e4	-0.06565264
68	0xbd3d4dc8	-0.046216756
69	0xbc331822	-0.010931047
70	0xbdb1d920	-0.086839914
71	0x3dad43ab	0.08460172
72	0xbd9dc0c0	-0.0770278
73	0xbd4215c2	-0.04738403
74	0x3da98997	0.08278196
75	0xbde474ac	-0.11155066
76	0xbdfffce4	-0.12499407
77	0xbe0ad737	-0.1355866
78	0x3d928524	0.07154301
79	0xbd83f40c	-0.064430326
80	0xbdebd656	-0.11515491
81	0x3e0a66a9	0.13515724
82	0x3d87bd93	0.06627955
83	0xbd913209	-0.070896216
84	0xbc395426	-0.011311566
85	0x3da0c77f	0.07850551
86	0x3c451940	0.012029946
87	0x3e0f0282	0.139658
88	0x3d789698	0.060690492
89	0x3b214f43	0.0024613894
90	0xbdbc41d4	-0.09192243
91	0x3e0bd15a	0.1365408
92	0x3e0ec71b	0.1394314
93	0x3d2552eb	0.04036228
94	0x3d5dc717	0.054144945
95	0xbba1d7c3	-0.004939051
96	0xbde55f05	-0.11199764
97	0xbd3a7c6e	-0.04552882
98	0xbde670de	-0.112519965
99	0xbe1d7d22	-0.15379766
100	0x3db59a4a	0.08867319
101	0xbe0bc773	-0.13650303
102	0xbe0923e7	-0.13392602
103	0xbd081eab	-0.033232372
104	0xbdcbd6cf	-0.09953081
105	0x3d3a0386	0.045413516
106	0xbc6baf0b	-0.014384995
107	0xbda1caeb	-0.07900032
108	0x3c665d31	0.0140603045
109	0xbd74a4f1	-0.059727613
110	0xbc75fe34	-0.01501422
111	0x3d5784a6	0.052616738
112	0xbd605cf5	-0.05477615
113	0x3e04efbd	0.12982078
114	0xbd8a0163	-0.06738546
115	0xbc80deef	-0.015731303
116	0x3de0db0f	0.10979282
117	0xbcbd4b14	-0.02310709
118	0xbe064847	-0.13113509
119	0x3d895d41	0.0670724
120	0xbdbd76d5	-0.09251181
121	0xbd141431	-0.03615207
122	0x3dd2ff68	0.10302621
123	0xbe0d9a82	-0.13828471
124	0xbe147646	-0.14498243
125	0xbcaf8d08	-0.021429554
126	0xbde3ee6d	-0.111294605
127	0xbe0514ec	-0.12996262
128	0xbe07d552	-0.13264969
129	0xbc1873f5	-0.00930499
130	0xbdb8b031	-0.09017981
131	0x3daeaee9	0.08529455
132	0x3c85335c	0.016259842
133	0x3dc8ec35	0.09810678
134	0xbd3be1b9	-0.045869563
135	0x3d970de9	0.073757
136	0xbd5da783	-0.05411483
137	0x3e0fe66c	0.14052743
138	0x3d871442	0.06595661
139	0xbd9b983a	-0.07597394
140	0xbdc4903c	-0.09597823
141	0x3c1eb912	0.009687679
142	0x3cf50588	0.029909864
143	0x3dee9106	0.11648755
144	0x3d547033	0.051864814
145	0x3dc1d4e3	0.09464433
146	0xbd863971	-0.06553925
147	0x3c38426f	0.011246308
148	0x3c9b9914	0.018993892
149	0x3c9075c2	0.017634276
150	0xbb80bd00	-0.0039287806
151	0x3b437512	0.0029824418
152	0xbd9b0bf1	-0.07570637
153	0x3d47802e	0.048706226
154	0x3d9c6228	0.07635909
155	0xbc83a4c0	-0.01606977
156	0x3dfb00f3	0.122560404
157	0xbd53cdca	-0.051709928
158	0xbdef7a3e	-0.11693238
159	0x3cd1c088	0.025604501
160	0x3c7d2443	0.01545054
161	0xbe024466	-0.12721404
162	0xbdcf88c2	-0.10133506
163	0x3d4f9c7c	0.050686345
164	0x3cb2507b	0.021766892
165	0x3d73856b	0.05945341
166	0xbd4bba76	-0.04973837
167	0xb8eda120	-0.000113310525
168	0xbc637811	-0.0138836065
169	0xbdb06aa7	-0.08614092
170	0xbd953510	-0.072855115
171	0x3e2609e5	0.16214712
172	0xbbe59b86	-0.007007065
173	0x3e12c7e9	0.14334072
174	0xbd935882	-0.07194616
175	0x3d66f81a	0.05638895
176	0x3db49f5b	0.08819457
177	0xbd946281	-0.07245351
178	0xbd31dfd3	-0.043426346
179	0xbdb44169	-0.088015385
180	0xbd74e6a0	-0.059790254
181	0x3cf88303	0.030335909
182	0x3e0fae26	0.14031276
183	0xbdc7175d	-0.09721253
184	0xbd904d1e	-0.07045959
185	0x3c910a4f	0.01770511
186	0x3e15de6e	0.14635631
187	0x3df0ed4f	0.11764013
188	0x3ca148bb	0.019688
189	0xbd7ab237	-0.061205115
190	0x3da8a54a	0.082346514
191	0xbe126550	-0.1429646
192	0x3da45d41	0.08025599
193	0xbd48834e	-0.048953347
194	0xbb7a8ca0	-0.0038230792
195	0x3db4b4c1	0.088235386
196	0x3d280010	0.041015685
197	0xbdc69417	-0.09696215
198	0xbda576f3	-0.080793284
199	0x3db8f31a	0.09030743
200	0x3d6ab1ca	0.05729846
201	0x3ddbda0f	0.10734951
202	0xbe2f8289	-0.17139639
203	0x3de0026a	0.109379604
204	0x3de7d006	0.11318974
205	0xbe00d572	-0.12581423
206	0x3cad66dd	0.021167213
207	0x3d104182	0.035218723
208	0x3d85386f	0.065049045
209	0x3bd76bf1	0.006574147
210	0xbc8b2d69	-0.016989427
211	0xbe1380f6	-0.14404663
212	0xbbea895d	-0.0071574883
213	0xbd811470	-0.06302726
214	0x3d16f775	0.036857087
215	0xbdb468bf	-0.08809041
216	0xbe11a815	-0.14224274
217	0xbc9efebb	-0.019408574
218	0xbcdbf8dc	-0.026852064
219	0xbd07cd49	-0.03315476
220	0xbe1a91fc	-0.15094751
221	0xbce7b8b3	-0.028286314
222	0xbdc1d9c4	-0.094653636
223	0x3baddc36	0.005305792
224	0xbe1d9359	-0.1538824
225	0xbd933773	-0.071883105
226	0x3c889414	0.016672172
227	0xbe00cfe9	-0.12579311
228	0x3cb04d8f	0.021521358
229	0xbd1a52e7	-0.037676718
230	0xbd53871c	-0.051642522
231	0xbd96cdcb	-0.07363471
232	0x3df729c6	0.120685145
233	0x3d193e24	0.037412778
234	0xbc65f8b0	-0.0140363425
235	0xbdf5de4c	-0.120052904
236	0x3b9eabd9	0.004842263
237	0x3d58fa1c	0.052972898
238	0x3d4920e8	0.049103647
239	0xbe14ef5e	-0.14544436
240	0xbdbd96fa	-0.09257312
241	0xbdb78869	-0.08961565
242	0xbde2006a	-0.11035235
243	0xbe366f2d	-0.17815848
244	0x3d47f667	0.048818972
245	0xbceb2e0f	-0.028708486
246	0xbcef4def	-0.029211966
247	0xbcc24741	-0.023715617
248	0xbd577ddc	-0.052610263
249	0xbd298cec	-0.04139416
250	0xbd8919ec	-0.06694397
251	0x3d5275ef	0.051382
252	0xbdcd6d07	-0.10030561
253	0xbc737312	-0.014858978
254	0x3dace000	0.08441162
255	0x3da1bd93	0.078974865

lin2.bias f4 [5]
0	0xbd0454b6	-0.03230735
1	0x3b11bfa2	0.0022239466
2	0xbd9a241a	-0.07526417
3	0xbcdda99a	-0.027058411
4	0x3d9590a4	0.07302979

prop1.temp f4 [11]
0	0x3f7549d0	0.95815754
1	0x3f7e566d	0.99350625
2	0x3f7fcfb8	0.9992633
3	0x3f7fd2b2	0.9993087
4	0x3f800039	1.0000068
5	0x3f7f8017	0.99804825
6	0x3f7e04d7	0.99226135
7	0x3f7bd34f	0.98369306
8	0x3f79f6ee	0.9764241
9	0x3f7930ec	0.97340274
10	0x3f758409	0.95904595
