save_parameters/BernNet_model_0324_1047.pt (torch, 599324 bytes, 5 tensors)

lin1.weight f4 [64, 2325]
0	0x3919b494	0.00014658488
1	0x3a7dd4f4	0.00096829166
2	0x39781011	0.00023657108
3	0xbbe64a10	-0.007027872
4	0xbd22e425	-0.039768357
5	0xbc279175	-0.010227551
6	0x3e11a384	0.14222533
7	0x38a3c5b0	7.809268e-05
8	0xbbb269dd	-0.005444749
9	0xb7db1443	-2.611627e-05
10	0xbc282b9e	-0.010264305
11	0xb911af16	-0.00013893502
12	0x3aa64624	0.0012685698
13	0x3dd5e85b	0.10444709
14	0xbd9b2fc2	-0.075774685
15	0xbac85c9b	-0.0015286388
16	0x3de3579b	0.11100694
17	0x3a5461e0	0.0008101743
18	0xbc2e5848	-0.010641165
19	0xbde372f1	-0.11105908
20	0xba9f6113	-0.0012159668
21	0x3ab1d042	0.0013566094
22	0xbd2d57e0	-0.042320132
23	0xbb912af0	-0.0044301674
24	0x3dc85f21	0.097837694
25	0xbd052e17	-0.032514658
26	0x3b9ba6a9	0.004750092
27	0xbd51b6dd	-0.051199783
28	0xbdaaa0d7	-0.08331459
29	0x3b4ecc6d	0.0031554953
30	0xb903e416	-0.00012578102
31	0xb8348050	-4.3034845e-05
32	0xbdab8e98	-0.08376807
33	0xbd383a18	-0.044977278
34	0x399bfc65	0.00029751952
35	0xbc016fbe	-0.007900177
36	0xbb9c2813	-0.0047655194
37	0xbd9b22c5	-0.07574991
38	0xb8c64d4f	-9.4557756e-05
39	0xbad27c50	-0.0016058777
40	0xb82e08bc	-4.1492967e-05
41	0xbc2cb69c	-0.010541584
42	0xbc53b67e	-0.0129219275
43	0xbcb2a560	-0.021807373
44	0xbb7df6e0	-0.0038751885
45	0x3dd282f6	0.10278885
46	0xba75f9d7	-0.00093832373
47	0xbad83c20	-0.0016497411
48	0x390cf48c	0.00013442541
49	0x3aa594d9	0.0012632861
50	0x3b6abf97	0.0035819763
51	0x3dd9eb3d	0.10640571
52	0xbdaf2834	-0.0855259
53	0xbafc32fc	-0.0019241269
54	0xbd541784	-0.05178024
55	0xbdbd9298	-0.09256476
56	0xbd8920fe	-0.06695746
57	0x37358c28	1.0821073e-05
58	0xbb03e5f2	-0.0020126072
59	0xbd97055d	-0.0737407
60	0xbd87035c	-0.065924376
61	0xbb0dcae4	-0.0021635825
62	0x3baf2404	0.0053448696
63	0xbda01648	-0.0781675
64	0xbadc5177	-0.0016808946
65	0xbdb7c6e4	-0.08973482
66	0xb9b0b11a	-0.00033701287
67	0x3ac5f726	0.0015103563
68	0xb930e0ee	-0.00016868461
69	0xbb7e42c2	-0.0038797115
70	0xbbcbae9c	-0.0062158834
71	0xbd91b913	-0.07115378
72	0xb7ac72a2	-2.0557378e-05
73	0xb915f278	-0.00014300074
74	0xbda438f8	-0.080186784
75	0x3c51d57c	0.012807246
76	0xbab6dbc8	-0.0013950998
77	0xbafc360a	-0.0019242179
78	0xba2a4b3e	-0.00064961973
79	0x3df9f9d9	0.12205858
80	0x3dc88021	0.09790064
81	0xbb1127db	-0.0022149
82	0xbb8b9f44	-0.0042609293
83	0xbd96cf48	-0.073637545
84	0xb97c530c	-0.0002406353
85	0xbb8d7d86	-0.004317942
86	0xbc401391	-0.011723415
87	0x39ff42ea	0.00048687245
88	0xba76f6d4	-0.00094209355
89	0xba2891ae	-0.00064303994
90	0xbd9858ba	-0.07438798
91	0xbbb11e40	-0.0054052174
92	0xba9e31f6	-0.0012069333
93	0xbaa988db	-0.0012934463
94	0x3dcb1284	0.09915641
95	0x3a77796a	0.00094403944
96	0x3a5260c0	0.0008025281
97	0x3b463bd2	0.0030248058
98	0xbaa927b5	-0.001290551
99	0xbb82ca3e	-0.0039913943
100	0x3def2241	0.11676455
101	0xba201995	-0.00061073276
102	0xbad43a38	-0.0016191667
103	0xbdac9c8d	-0.08428297
104	0x3b50733e	0.003180697
105	0xbda737bf	-0.081649296
106	0x3b80f544	0.003935488
107	0xbaa553ba	-0.0012613453
108	0x3e0666fb	0.13125221
109	0xbdbd599c	-0.09245607
110	0xbab38e16	-0.0013698961
111	0xb877ab40	-5.9048878e-05
112	0x36d206d8	6.2592844e-06
113	0x38d41908	0.0001011361
114	0xba8644a0	-0.001024384
115	0xbc3014cc	-0.010747146
116	0xbd4eddd1	-0.05050451
117	0xb8d1a82f	-9.997223e-05
118	0xbbd94ee0	-0.006631717
119	0xbb545916	-0.0032401732
120	0xbdd1ccd5	-0.10244147
121	0xb9987ae9	-0.00029083274
122	0xbde0065c	-0.10938713
123	0xbb723beb	-0.0036961983
124	0xbd9f09d5	-0.07765547
125	0xbaee000e	-0.0018157975
126	0xba904a4a	-0.0011008468
127	0xbd7ce3c1	-0.06174064
128	0x3de99bf8	0.11406702
129	0x3a972d41	0.0011533872
130	0xba150c2a	-0.00056857115
131	0x3aaf6c1c	0.001338366
132	0xb97a6c18	-0.00023882126
133	0x39b84f5b	0.0003515434
134	0xbd540bd7	-0.051769104
135	0xb9395a39	-0.00017676585
136	0xbb879e6f	-0.00413876
137	0xb5d65fbe	-1.5972107e-06
138	0xbb666b10	-0.003515903
139	0x3bb26faf	0.0054454426
140	0xbae192e4	-0.0017209915
141	0x39543330	0.00020236964
142	0x3de7478d	0.11292944
143	0x3e3c7ea0	0.18407679
144	0x3dbfafe4	0.0935972
145	0xbb4d8a20	-0.0031362846
146	0x3b1cc174	0.0023919018
147	0x38eb17d1	0.000112101094
148	0xbaf16af0	-0.0018418711
149	0x3aa95e03	0.0012921694
150	0xb9e1d620	-0.0004307488
151	0x3a9bfa63	0.0011900183
152	0xbc3fdc2b	-0.011710207
153	0xbba65076	-0.0050755097
154	0x3ddbcc52	0.107323304
155	0xbc174310	-0.009232298
156	0xb9e900d1	-0.0004444183
157	0x3a56e5ef	0.0008197715
158	0x38c38967	9.323918e-05
159	0xb90c674f	-0.00013389926
160	0xbbb4cf90	-0.0055179074
161	0x3a539591	0.00080712984
162	0xb98d886f	-0.00026995267
163	0x3e012b79	0.1261424
164	0xbd8e819d	-0.069583155
165	0x3aa12432	0.0012294112
166	0xb842385f	-4.6305704e-05
167	0x38ac2194	8.2078535e-05
168	0xb9e7ceaa	-0.0004421373
169	0xbb6ce456	-0.003614684
170	0xbd68ad80	-0.056806087
171	0x375b3710	1.3066237e-05
172	0xb8b6e160	-8.720416e-05
173	0xbd878201	-0.06616593
174	0xbba87cee	-0.005141846
175	0xbdbb08fb	-0.09132572
176	0xbb8d3a3d	-0.004309921
177	0xba9e4ddc	-0.0012077647
178	0xbb8932f7	-0.0041869837
179	0xbb434fb8	-0.0029802155
180	0x39f3b284	0.00046481576
181	0xbd913b76	-0.070914194
182	0x3a217584	0.0006159174
183	0x3905acea	0.00012748284
184	0xba3caf6e	-0.0007197772
185	0xbad10713	-0.0015947543
186	0xba01fb98	-0.000495845
187	0x391d24d9	0.00014986414
188	0xbac77542	-0.0015217441
189	0x386ebb84	5.691826e-05
190	0xbc8f8962	-0.017521564
191	0xbb5c467f	-0.0033611355
192	0x3c59a607	0.013284213
193	0x3b92394d	0.004462397
194	0x38766096	5.8740923e-05
195	0xbde3da54	-0.11125627
196	0xbae67a40	-0.0017584041
197	0xb95683ea	-0.00020457772
198	0xbd9ab2c0	-0.07553625
199	0xbd34360d	-0.04399686
200	0x3e1dee5e	0.15422961
201	0xbb869af9	-0.0041078296
202	0x3d85db30	0.06535947
203	0xb9944230	-0.00028278073
204	0x3e15206c	0.14563149
205	0xbb31a302	-0.0027105217
206	0xb9aeb5b6	-0.0003332325
207	0x3e0ba96a	0.13638845
208	0x3bf8fe98	0.0075987093
209	0xbb063425	-0.0020477858
210	0x3e0cf3a1	0.13764812
211	0xb9462a0f	-0.0001889842
212	0xbaba48fd	-0.0014212426
213	0xbaf015bf	-0.0018317028
214	0xbbb74ba6	-0.005593735
215	0xbd87173c	-0.065962285
216	0xba0faade	-0.0005480478
217	0xba53fe1d	-0.0008086877
218	0xba214728	-0.00061522657
219	0x3b5a5ddf	0.0033320112
220	0x3ab66d08	0.0013917992
221	0xbd9ffbe6	-0.07811718
222	0xbb0e55ae	-0.002171855
223	0xbd5a7b8c	-0.05334048
224	0xbafa227a	-0.0019083761
225	0x3a8a71d7	0.0010562491
226	0xbaacdb30	-0.0013187882
227	0x3c14ea45	0.009089057
228	0xb942de6a	-0.00018584137
229	0xbb015334	-0.001973343
230	0xbaca2b0e	-0.0015424208
231	0xb91cc924	-0.0001495225
232	0xb99644ab	-0.0002866139
233	0xba076d55	-0.0005166133
234	0x3b9395a0	0.0045039207
235	0xbd92281b	-0.07136556
236	0x38e1d79b	0.00010768996
237	0xbc303eff	-0.010757207
238	0xbb61e15c	-0.00344666
239	0xbda5ce7b	-0.08096024
240	0xbb28d184	-0.0025759647
241	0x388ebcf8	6.806286e-05
242	0xb973ae96	-0.00023239324
243	0xbc8ead4f	-0.017416624
244	0xbabb2450	-0.001427779
245	0x37fa9826	2.9873172e-05
246	0xbd9f7f63	-0.07787969
247	0xbda95296	-0.08267705
248	0xba1c3632	-0.00059590035
249	0x3b17f1cb	0.0023184891
250	0x3c7d2671	0.01545106
251	0x3aedb3d2	0.0018135256
252	0xb9b406e8	-0.0003433742
253	0xba92f336	-0.0011211399
254	0x3a67f3ba	0.0008848269
255	0xbb91675a	-0.0044373693

lin1.bias f4 [64]
0	0x3d8741f8	0.066043794
1	0xbca25905	-0.019817838
2	0x3d9ee111	0.07757772
3	0x3d67186d	0.05641978
4	0x3d7c6532	0.061619945
5	0x3d6c2b2d	0.057658363
6	0x3d9a1678	0.07523817
7	0x3dacb41b	0.0843279
8	0x3d8a8985	0.06764511
9	0x3db0aa45	0.08626226
10	0x3db9e1fd	0.09076307
11	0x3d47c5b6	0.048772536
12	0x3dbef9e6	0.09325008
13	0x3d9565ee	0.07294832
14	0x3d9fbf8f	0.07800209
15	0x3d85976c	0.06523022
16	0x3d93370c	0.07188234
17	0x3dd9f652	0.10642685
18	0x3db29bdd	0.08721135
19	0x3d91bb02	0.07115747
20	0x3d48edad	0.04905479
21	0xbc92068c	-0.017825387
22	0xbc762dac	-0.015025537
23	0x3d889c5c	0.06670448
24	0x3d8ce580	0.06879711
25	0x3d53e02f	0.05172747
26	0x3d7f6150	0.062348664
27	0x3da4c08a	0.080445364
28	0x3da70dd2	0.08156933
29	0xbc125c70	-0.008933172
30	0x3d9aea16	0.075641796
31	0x3d97c056	0.07409732
32	0x3d815f0d	0.063169576
33	0x3d5c6482	0.05380679
34	0x3cc9573e	0.024577733
35	0x3d759d32	0.059964366
36	0x3d8972e2	0.06711365
37	0x3d9e9f29	0.07745201
38	0x3d91a34b	0.07111224
39	0x3d8a06cf	0.0673958
40	0x3dc60637	0.09669154
41	0x3d9c05c2	0.07618286
42	0x3d8d0c82	0.06887151
43	0x3da6f415	0.08152024
44	0xbc8b993b	-0.01704084
45	0x3d895748	0.06706101
46	0x3da59357	0.080847435
47	0x3db51f08	0.08843809
48	0x3d9af527	0.0756629
49	0x3d8a4dd8	0.06753129
50	0x3d6dd615	0.058065493
51	0x3d9ea800	0.07746887
52	0x3d95d3d1	0.073157914
53	0xbc7f99cc	-0.015600633
54	0x3d5734a0	0.05254042
55	0x3da45405	0.08023838
56	0x3d109dba	0.03530667
57	0x3d73e4e6	0.059544466
58	0x3d9fc848	0.078018725
59	0x3d82bcf1	0.06383694
60	0x3d8b5e66	0.068051144
61	0x3d81c3a7	0.06336146
62	0x3dbcd541	0.092203625
63	0x3d1c58d0	0.038170636

lin2.weight f4 [5, 64]
0	0x3e8f7318	0.28017497
1	0xb8e4467d	-0.00010885017
2	0x3e8bf09e	0.27332014
3	0xbee78387	-0.45217535
4	0xbe9af552	-0.3026529
5	0xbed502e0	-0.41603756
6	0x3e96f18b	0.29481158
7	0xbe82a892	-0.25519234
8	0x3e6eb6d1	0.23311926
9	0x3dfa2cea	0.12215598
10	0xbec5e91d	-0.38654414
11	0xbe7c59f8	-0.24643695
12	0x3e75d25d	0.24006028
13	0x3e77d1cb	0.24201123
14	0xbeb575bc	-0.35441387
15	0xbebe52bd	-0.371725
16	0x3d9ac1b8	0.0755648
17	0x3e896727	0.26836511
18	0x3e80c9ee	0.2515406
19	0x3e2fb9d0	0.17160726
20	0xbe609466	-0.2193161
21	0xb7c35193	-2.3283797e-05
22	0x3629160f	2.5195802e-06
23	0xbe954ecf	-0.2916169
24	0xbea4bdd8	-0.3217609
25	0xbe8df336	-0.27724618
26	0xbdc4448a	-0.09583385
27	0x3ab0409a	0.0013446987
28	0xbe8bafb0	-0.27282476
29	0x3d7dc19a	0.06195221
30	0x3e8ecfba	0.27892858
31	0x3ecbef9a	0.3983124
32	0x3d49ff4d	0.04931574
33	0x3ea0f564	0.31437218
34	0xbee5562a	-0.447923
35	0xbea7f8b0	-0.3280692
36	0xbed56bd6	-0.41683835
37	0x3e5b60ca	0.21423641
38	0x3eb643af	0.35598513
39	0x3e62dd6a	0.22154775
40	0x3e7bc368	0.2458626
41	0xbe240955	-0.16019185
42	0xbebb8d16	-0.36631078
43	0xbcb4af2b	-0.022056183
44	0x34e728e7	4.3056863e-07
45	0xbe8988ca	-0.26862174
46	0x3e6f903e	0.23394868
47	0x3e6e6bb8	0.23283279
48	0x3dd569a2	0.104205385
49	0xbe0fda9b	-0.14048235
50	0x3e329bde	0.17442271
51	0x3e8dacef	0.27671
52	0xbe2b24f8	-0.16713321
53	0xb700ff27	-7.688802e-06
54	0xbeb25682	-0.34831625
55	0x3e9f618a	0.31129104
56	0xbde53430	-0.111915946
57	0x3e8bc229	0.2729657
58	0xbe70d511	-0.23518778
59	0xbedfcd14	-0.4371115
60	0x3e7138cf	0.23556827
61	0x3e9f80b8	0.31152892
62	0x3e3e8c76	0.18608269
63	0xbedcd7eb	-0.43133482
64	0xbe9c43cb	-0.30520472
65	0x3a583964	0.0008248298
66	0x3ec2d4ee	0.38053077
67	0xbebc09b1	-0.36726144
68	0xbea21697	-0.3165786
69	0x3cf3d740	0.029765725
70	0xbe4c714a	-0.19965091
71	0x3e60940b	0.21931474
72	0xbeb823fd	-0.35964957
73	0xbe8a4f34	-0.27013552
74	0x3e861cf8	0.26193976
75	0xbea76123	-0.32691297
76	0xbe9d1a76	-0.3068425
77	0xbec2a470	-0.3801608
78	0x3e5fefed	0.21868868
79	0xbeb6bc4e	-0.3569054
80	0xbed3110e	-0.4122395
81	0x3e9f5e46	0.31126612
82	0x3eb7558c	0.35807455
83	0xbeb863b7	-0.36013576
84	0xbe8cdd78	-0.27512717
85	0x3996d9e2	0.00028772565
86	0xb358f420	-5.051345e-08
87	0x3eaf7a0c	0.34272802
88	0x3e8e934c	0.27846754
89	0x3e848c9d	0.2588853
90	0xbea238f7	-0.31684086
91	0x3ed733be	0.42031664
92	0x3ebd2c2e	0.3694777
93	0xbd97db60	-0.07414889
94	0x3e8fc6fa	0.28081495
95	0xbe0e7c32	-0.13914564
96	0xbecac8a0	-0.3960619
97	0xbe5b3743	-0.214078
98	0xbec7aa68	-0.38997197
99	0xbedbca6a	-0.42927867
100	0x3e512425	0.20423944
101	0xbeb74727	-0.35796472
102	0xbea8e952	-0.3299051
103	0x3dfb8433	0.122810744
104	0xbeb66eea	-0.35631496
105	0x3e8a3c31	0.26999047
106	0x3e2e791b	0.17038386
107	0xbe80b8a6	-0.25140876
108	0x362b9400	2.5567133e-06
109	0xbe8c1392	-0.2735868
110	0x3d41ec8b	0.047344726
111	0x3e578784	0.21047789
112	0xbe475d65	-0.19469221
113	0x3edc3f5e	0.43017095
114	0xbe9a975d	-0.30193606
115	0x3ccabc07	0.024747862
116	0x3eb356da	0.350272
117	0x35726d9c	9.031153e-07
118	0xbec9760c	-0.39347875
119	0x3eb51f91	0.35375646
120	0xbea55b6a	-0.32296306
121	0xbe8d4412	-0.27590996
122	0x3e948ce7	0.2901375
123	0xbee74d65	-0.45176235
124	0xbeb15d1e	-0.34641355
125	0xbe4cbaa3	-0.19993071
126	0xbeaf5f88	-0.34252572
127	0xbebcac9e	-0.36850446
128	0xbed27cdf	-0.41110894
129	0x36bbeb9f	5.600464e-06
130	0xbeaf5b2e	-0.34249252
131	0x3e1accce	0.1511719
132	0xbe4220bf	-0.18957804
133	0x3e7e68a6	0.24844608
134	0xbd2eb074	-0.042648748
135	0x3e47a201	0.19495393
136	0xbeace883	-0.33771142
137	0x3e98f141	0.29871562
138	0x3e4b2e6c	0.19841927
139	0xbec32fbd	-0.3812236
140	0xbecdd0e7	-0.40198442
141	0x3d8a4303	0.06751063
142	0x3e26cd0e	0.1628916
143	0x3e771a47	0.24131118
144	0x3e72fe24	0.2372976
145	0x3e722ad0	0.23649144
146	0xbea61b2a	-0.324426
147	0x3e68ff35	0.22753604
148	0x3eb08897	0.3447921
149	0x3aa52327	0.0012598977
150	0x34e99ec4	4.351515e-07
151	0xbe20de08	-0.15709698
152	0xbec18553	-0.3779703
153	0x3c8cdf7b	0.017196408
154	0x3e92ae17	0.28648445
155	0xbe103605	-0.14083107
156	0x3eb7a0e0	0.35864925
157	0xbdb8ff0d	-0.09033022
158	0xbec51560	-0.3849287
159	0xbe293b1c	-0.16526455
160	0x3e384b95	0.17997582
161	0xbed82497	-0.42215416
162	0xbee00fa4	-0.43761933
163	0x3e9426e1	0.28935912
164	0x3e45f148	0.19330323
165	0x3e85c7c2	0.26128966
166	0xbeb5495d	-0.35407534
167	0xbd8257f6	-0.063644335
168	0xbebffed3	-0.37499103
169	0xbecbe450	-0.39822626
170	0xbe875ced	-0.26438084
171	0x3ed6fa5f	0.41987893
172	0x3510eeaa	5.399148e-07
173	0x3eb4b55b	0.35294613
174	0xbeaef881	-0.34173968
175	0x3e615312	0.22004345
176	0x3ecdaf57	0.40172836
177	0xbe9d7f01	-0.3076096
178	0xbeb3abe8	-0.35092092
179	0xbed60645	-0.41801658
180	0xbec7daa5	-0.39034
181	0xb584cf84	-9.895161e-07
182	0x3ebc21a6	0.36744422
183	0xbeb6926e	-0.35658592
184	0xbebe5b88	-0.37179208
185	0xbe8d6438	-0.27615523
186	0x3ec9778b	0.39349017
187	0x3e67b638	0.22628105
188	0x3e894d03	0.26816568
189	0xbed8068d	-0.42192498
190	0x3e7634a7	0.24043523
191	0xbef4da95	-0.47823015
192	0x3eaafcff	0.33396146
193	0xbb24613c	-0.002508237
194	0xbe9e3ab3	-0.3090416
195	0x3e951dbe	0.29124254
196	0x3e8202e2	0.25392824
197	0xbeec8495	-0.46194902
198	0xbea5dd09	-0.323952
199	0x3e959cfd	0.29221335
200	0x3ea538c1	0.32269862
201	0x3ea05f99	0.31322935
202	0xbf00fbc6	-0.50384176
203	0x3ebbf2ff	0.3670883
204	0x3ecc64d1	0.39920667
205	0xbeeebe24	-0.4662944
206	0x3e768498	0.24074018
207	0x3e752a50	0.23941922
208	0x3e8ece31	0.27891687
209	0xbe96ac83	-0.2942849
210	0xbe5f4c73	-0.21806507
211	0xbefeb08b	-0.49744067
212	0xbe859ff3	-0.26098594
213	0xb53e22da	-7.083123e-07
214	0x35adcd4f	1.2949257e-06
215	0xbed33ffc	-0.41259754
216	0xbeeab737	-0.45842907
217	0xbea02483	-0.31277856
218	0x3e19bd30	0.15013576
219	0xbea94be8	-0.33065724
220	0xbef495e8	-0.4777062
221	0xbd9bbbdb	-0.0760419
222	0xbebbc0ce	-0.36670536
223	0xbebdf33e	-0.37099642
224	0xbefd7fba	-0.4951151
225	0xbec1ee4f	-0.37877128
226	0x3e93277f	0.2874107
227	0xbef0d4fa	-0.47037488
228	0x3e6881b9	0.22705735
229	0xbd573c1e	-0.052547567
230	0xbec697fd	-0.38787833
231	0xbed6b8bd	-0.4193782
232	0x3ebcf6ee	0.36907142
233	0x3e9d021f	0.3066568
234	0x3e80d1f5	0.25160185
235	0xbedeac8f	-0.43491027
236	0xb545e6a0	-7.372382e-07
237	0x3e860284	0.26173794
238	0x3e91f22b	0.28505072
239	0xbeed7de6	-0.46385115
240	0xbee3f576	-0.4452321
241	0xbec5a04d	-0.38598862
242	0xbee432c8	-0.44569993
243	0xbf0471ab	-0.51735944
244	0x3ea04501	0.31302646
245	0xbb9c4273	-0.0047686636
246	0xbeb7caed	-0.35897008
247	0xbe93fc68	-0.28903508
248	0xbebe6ec3	-0.3719388
249	0xbed06d90	-0.4070859
250	0xbec04d61	-0.37559035
251	0x3e6e1888	0.23251545
252	0xbed24fe7	-0.41076586
253	0xbebd77cd	-0.37005463
254	0x3e98d2c0	0.2984829
255	0x3eadd45c	0.3395108

lin2.bias f4 [5]
0	0xbd9f6a4b	-0.07783946
1	0x3d680564	0.056645766
2	0xbdbb435d	-0.09143708
3	0x3cc6a1ff	0.024247168
4	0x3d8ac5fb	0.06776043

prop1.temp f4 [11]
0	0x3fbd224e	1.4776094
1	0x3fbf22c1	1.4932481
2	0x3fba072c	1.4533439
3	0x3fb6beb7	1.4276952
4	0x3fb54395	1.4161249
5	0x3fb474d7	1.4098157
6	0x3fb3fb3a	1.4061043
7	0x3fb3deec	1.4052405
8	0x3fb4a6d7	1.4113415
9	0x3fb699e5	1.4265715
10	0x3fa51526	1.2897079
