save_parameters/BernNet_BernNet_model_ch.pt (torch, 599242 bytes, 5 tensors)

lin1.weight f4 [64, 2325]
000000 73 18 00 3c bf 79 8a bd e6 a9 af bc b4 c3 90 bc
       0.007818329 -0.067615025 -0.021443319 -0.017671444
000010 0c ec 17 bd 9c 34 33 3d 0a bf 05 3d 7f 7f a4 bc
       -0.037090346 0.043751344 0.032652892 -0.020080326
000020 92 34 c1 bc 56 76 2c 3d 61 a0 bf 3d a7 e3 e7 3d
       -0.023584638 0.04210504 0.09356762 0.11322718
000030 58 52 c8 3d 2f d7 80 3c ea 20 bf 3c e3 34 83 3d
       0.09781331 0.015727608 0.023331124 0.06406572
000040 1a 7f 08 3d a5 8a f9 3c 71 52 ac 3d 86 9d 36 3d
       0.03332434 0.030461619 0.08414162 0.04458382
000050 51 57 52 3d a7 8a cf bc 96 df 75 3d 4c bd 0c 3d
       0.051352803 -0.02533467 0.06002768 0.034360215
000060 92 62 2b bb 41 a7 5a bb af 3a bf bc e2 67 c7 3d
       -0.0026151282 -0.0033363851 -0.023343412 0.09736611
000070 bd f9 3f 3c 2c 55 11 bb 53 45 fd 3d 0a 76 00 3d
       0.011717257 -0.002217601 0.12366738 0.03136257
000080 cc 5b 80 bb 49 af a2 bd ee 72 d3 bb 17 6d 02 3e
       -0.003917193 -0.07943589 -0.0064529097 0.12736927
000090 8b ba 99 3d 1c 15 94 3d 4d 2d 94 3d b2 b2 1c 3d
       0.075062834 0.07230589 0.07235203 0.038256355
0000a0 f2 47 e9 3d 96 88 b9 3d 21 5f 9f 3d b8 2c 5e bc
       0.113906756 0.09059255 0.07781816 -0.0135604665
0000b0 f7 15 49 3c 8e 39 d5 bb 18 9e fc 3d 9e 6e 80 3d
       0.012273303 -0.006507105 0.123348415 0.062710986
0000c0 4c b3 a1 3d 91 af 0b 3d 86 19 34 bd 3d 87 fa 3c
       0.07895526 0.03410298 -0.043969654 0.030582065
0000d0 09 0f 32 3d 06 95 f9 3c a1 f6 ce 3d b6 88 d8 3d
       0.04347137 0.030466568 0.101056345 0.105729505
0000e0 61 e0 28 3c 62 6e c1 3c 84 7e 1c 3e e9 07 0f 3e
       0.010307402 0.023612205 0.15282637 0.13967861
0000f0 77 e8 f4 3b 3e 01 04 bb de 5b 85 3d 5c 2a d0 3a
       0.007474001 -0.0020142342 0.06511663 0.0015881765
000100 76 16 d1 bb 83 6a 81 3d c7 9b 56 3b 0e ec 5a 3d
       -0.0063808514 0.063191436 0.003274666 0.053447776
000110 e5 68 0c 3c 41 5c cc 3d 00 fe 7a 39 6e d4 7b 3d
       0.008569931 0.099785335 0.0002393648 0.061481886
000120 1d 26 a2 3c fd 1c 63 3e 64 0c 03 ba 84 35 f2 bc
       0.019793564 0.22179027 -0.00049991 -0.029566534
000130 c2 07 08 3d a3 ae d4 3d 85 d7 7e 3d 96 7c d2 3d
       0.033210523 0.10384872 0.062217254 0.10277669
000140 e3 08 03 3d 04 5c db 3d 14 c1 51 3e 91 56 97 3d
       0.031990897 0.1071091 0.2048381 0.07389558
000150 ab 05 00 3e 69 c4 10 3e 2d d4 07 bc d5 61 7f 3d
       0.12502162 0.14137425 -0.008290333 0.06234916
000160 ce 96 0d 3c d0 35 2e ba 49 d6 81 3c be 1a 03 3e
       0.008641912 -0.0006645592 0.01584925 0.1280317
000170 37 64 42 bc d7 f9 2f 3d ef 8f d2 3c 79 78 c6 bc
       -0.011864713 0.042962875 0.025703399 -0.024227368
000180 37 11 1e bd 33 50 fa 3c 22 fd 3a bb a2 92 16 3e
       -0.038590636 0.03055582 -0.0028532227 0.14704373
000190 d0 d1 96 3c e5 61 8d 3d 06 3c 42 bd 73 71 09 bc
       0.018410593 0.069034375 -0.047420524 -0.008388865
0001a0 52 ce 3f 3c 7e c1 3c 3d d3 9c d4 3d 90 ba 8a 3d
       0.011706905 0.046082966 0.10381474 0.06773865
0001b0 5b 4c e5 3d e4 2d fc bc 5f 2d 1a 3d c6 40 54 3d
       0.11196204 -0.030783601 0.037640925 0.051819585
0001c0 c0 f8 4b 3d be e1 02 3e a7 7c ab 3c 8d ee 05 3e
       0.049797773 0.12781426 0.020933462 0.13079281
0001d0 64 a6 d1 3d 76 19 4e 3c 80 de 2c 3d 06 ee 9f 3c
       0.102368146 0.012579313 0.04220438 0.019522678
0001e0 3e dc 9b 3d a0 fa 8a 3d 64 27 2e 3e 15 1b 1e 3d
       0.07610367 0.06786084 0.17007214 0.038600046
0001f0 7b 36 9f bb 7b 3e c9 3d b7 c9 54 3d e5 3c a7 3d
       -0.0048587895 0.0982637 0.051950183 0.081659116
000200 4b 87 9a bb f6 20 10 bc f1 eb 63 3d 81 36 ef 3c
       -0.004715835 -0.008796921 0.055644933 0.029200794
000210 e8 ef c7 3d 3e 3c 40 3b c7 f1 f3 3c 76 1c 3a 3d
       0.09762555 0.0029332782 0.029778374 0.0454373
000220 a5 ec 62 3c ee 51 0c bc b9 74 80 3d b5 00 11 3d
       0.013850366 -0.008564455 0.06272263 0.035401065
000230 cf af 7d 3c 27 01 65 3d db be e7 3c 4c 39 90 3d
       0.015483811 0.055909302 0.02828925 0.070421785
000240 38 3d e1 3c 8a ab 86 3d fe d5 4e 3d 16 5a e4 3c
       0.027495012 0.06575687 0.050497048 0.027874988
000250 28 f2 97 3b 80 63 38 3c 4d 35 ac 3d 60 e1 80 3d
       0.0046370216 0.011254191 0.08408604 0.06292987
000260 9e d8 23 3d ad 0a 33 3c d8 61 bc 3d 00 b1 00 39
       0.040001504 0.010927838 0.0919835 0.00012272969
000270 63 11 88 3d 09 ec 7b bd 11 4e 81 3c 14 8b a3 3d
       0.06643941 -0.061504398 0.015784295 0.079855114
000280 03 26 66 3d 44 4a 03 3e 61 5d fa ba 51 8a 92 3d
       0.056188595 0.12821299 -0.0019101315 0.07155288
000290 f0 95 aa 3c de ef 56 3c a0 f2 e4 3c 35 d2 18 3e
       0.020823449 0.013118712 0.027947724 0.14923938
0002a0 9d 95 84 3d 07 0b 80 3c 6e 28 ef 3d 7d b1 8e bb
       0.06473849 0.015630258 0.11677633 -0.0043546543
0002b0 b2 5f 84 3d 5e 47 0a 3d 00 f2 af bc 2c 08 8f bc
       0.06463565 0.033759467 -0.0214777 -0.017459951
0002c0 c8 32 7a 3d a5 e9 0a 3e 2d a5 da 3b 87 cf 9f bd
       0.061083585 0.13565691 0.0066725225 -0.078032546
0002d0 90 b8 a0 3b 5a d7 c4 3d 21 f0 9d 3d bf 6c ae 3b
       0.004904814 0.096113876 0.077118166 0.005323022
0002e0 50 c9 ac 3d 95 20 29 3e ef da 17 3d db 5b 72 3d
       0.08436835 0.16516335 0.037074026 0.05916963
0002f0 1f 9e 6a 3c 42 c7 d7 3c d0 cc 1c 3e 37 3c bf 3d
       0.014319926 0.02634013 0.15312505 0.09337657
000300 1a 34 05 bd f4 a6 e4 3d 99 a1 de 3c 71 30 f1 3d
       -0.03252039 0.11164656 0.027176665 0.117768176
000310 1a c4 7d 3d 78 96 f9 3b 18 a2 89 3d 0d 58 05 3e
       0.061954595 0.007616814 0.0672037 0.1302187
000320 8d 95 7e bb 82 89 d9 bc ed 61 b9 ba d1 4f 34 3d
       -0.0038846463 -0.026554827 -0.0014143564 0.04402143
000330 54 2d c6 3d 86 b3 05 3e 31 0a 13 3c df a8 f5 3d
       0.096766144 0.13056764 0.008974598 0.119951
000340 bb d2 9e 3d c6 bf 16 3e 5a e8 8a 3e 4a 98 2a 3d
       0.077550374 0.14721593 0.27130395 0.04164914
000350 9e f3 a9 3d 65 50 48 3d 40 3d 0d 3d 42 44 0b bc
       0.082984194 0.048904795 0.03448224 -0.008500161
000360 62 9f b6 3d e2 d9 ac 3c 9a 50 3a 3d cf a3 a0 3c
       0.089171186 0.021099988 0.045487024 0.01960936
000370 c5 f1 86 bc 94 11 37 bd 36 13 67 3c 98 d7 0b 3e
       -0.016472707 -0.0446945 0.014103701 0.13656461
000380 b3 32 c4 bd 19 8c 27 3d ee eb db bc 37 66 62 bc
       -0.095799826 0.040905092 -0.026845898 -0.013818315
000390 fc fd 5a 3d 1a 36 bc 3c 1a 05 c2 3b b7 0f e7 3c
       0.053464875 0.022975016 0.0059210183 0.028205736
0003a0 a6 e0 84 3a 61 d8 0d 3d 08 d4 c0 3d cc 33 03 bd
       0.0010137751 0.034630183 0.09415442 -0.03203182
0003b0 e6 8c 2d 3e 13 91 a7 3d 8b 46 0b bd d9 2b 34 3d
       0.1694828 0.081819676 -0.034002822 0.04398713
0003c0 08 c7 ec bc 5e 0a 3b ba 24 94 20 3e 87 28 c3 3c
       -0.0289035 -0.0007135029 0.15681511 0.023823036
0003d0 43 d8 cd 3d 63 e2 85 3c 6d 3e c9 3d 63 f9 d0 3d
       0.10051014 0.016343301 0.0982636 0.10203817
0003e0 d7 1a 9a 3b 2f 3d 86 bd 88 dd 14 3d 5b 69 32 3e
       0.0047029066 -0.065546386 0.03634408 0.17423002
0003f0 5d b5 01 3d d1 13 cc 3c ab dc a8 3d 0d 32 39 3d
       0.031667102 0.024911793 0.08245214 0.045213748

lin1.bias f4 [64]
000000 69 e6 e7 b9 a8 f6 19 3d fe d1 13 3d 6d 3e 24 3d
       -0.00044231422 0.037588745 0.036088936 0.040098596
000010 e5 89 b2 3c b6 1e 1a 3c be b4 19 ba 46 2b 96 3b
       0.021794269 0.009406736 -0.00058634195 0.0045827953
000020 cf a2 5d b9 b0 79 30 3d c5 3a 9b 3c ba 90 82 3c
       -0.00021136853 0.0430848 0.018948922 0.015938152
000030 f0 5f 8f 3b e2 b4 3b 3d ae 2d 02 3d c2 bc 9e 3c
       0.0043754503 0.0458268 0.031781845 0.019377116
000040 e5 93 88 3c 5e 2c 9b b7 95 88 db 3c 1d 1b 3f b8
       0.016672084 -1.84981e-05 0.026798526 -4.55632e-05
000050 6c 6e b9 3c 00 77 33 3d 8f cb 2f 3d 14 1e 19 3d
       0.022635661 0.04381466 0.042918738 0.0373822
000060 17 57 72 3c 3e 5d e1 3c 3b d6 19 3d 90 86 a8 3c
       0.014791272 0.027510282 0.03755782 0.020571977
000070 c2 8b 29 3d 12 84 3e 3d 26 2f be 3c 15 60 18 3d
       0.04139305 0.04651267 0.023215842 0.037201006
000080 45 6f ea 3b 49 6e 4f 3d f2 40 d6 3c 18 0b 34 3c
       0.0071543776 0.050642285 0.026154015 0.010988973
000090 4c d1 7b 3c ad 36 9f 3c 95 b1 25 3c 17 03 08 3d
       0.0153697245 0.019435251 0.01011314 0.03320607
0000a0 21 a3 17 3d 7a d9 94 3c b1 b8 07 3d d7 20 08 bb
       0.037020806 0.018170107 0.03313512 -0.0020771527
0000b0 a3 42 dc 3c 28 6b 45 3c aa 8a 2b 3d a2 47 2b 3d
       0.026887244 0.012049474 0.041880287 0.04181636
0000c0 fe 4c 17 3d 83 46 10 3d 46 f8 a4 b5 f0 29 6a 3c
       0.03693866 0.035223495 -1.2291209e-06 0.014292225
0000d0 64 47 e9 ba 43 b2 23 3d 7f d9 52 3d 79 b5 b5 3b
       -0.0017797765 0.039964925 0.05147695 0.005545315
0000e0 aa bd 29 3d fb 25 39 3d 86 b2 3b 3d 68 66 ab 3c
       0.041440643 0.045202237 0.04582455 0.020922855
0000f0 95 8b e1 3c 9b 79 21 3d 3f fd 1b 3d 36 f6 84 3c
       0.027532378 0.039422613 0.03808331 0.016230684

lin2.weight f4 [5, 64]
000000 14 bd ae bf 93 f6 11 3f d8 22 73 3e 1c cc 18 3e
       -1.3651452 0.5701687 0.2374376 0.14921612
000010 c9 18 80 3e bc e9 8f bf 63 40 a2 bf d3 de 8d bf
       0.2501891 -1.1243205 -1.2675899 -1.1083626
000020 e0 83 10 b9 5d c6 5f 3f 96 f0 d2 3e 40 fe 5d bc
       -0.00013782037 0.87412053 0.41199178 -0.013549387
000030 31 ae 99 bf 0a a3 08 3f f7 bb 36 3f b8 0d 72 bf
       -1.2006284 0.5337378 0.7138056 -0.94552183
000040 2a ba 80 bf 4b fa c5 9f 4e 5b 40 3f 86 64 43 21
       -1.0056813 -8.384682e-20 0.7513932 6.620161e-19
000050 27 8f 36 bf 3b 10 6e 3f 0d c3 6a 3f 95 5d 4b 3f
       -0.71312183 0.92993516 0.91703874 0.7943967
000060 4c 17 81 bf 2a fd 58 3f 2a 08 70 3f 46 ab d9 3e
       -1.0085235 0.847613 0.9376246 0.42513484
000070 3a 71 65 3f 16 6e 31 3f f0 b7 3d bf 32 cf 26 3f
       0.89625895 0.693086 -0.7410879 0.65159905
000080 c5 f9 11 bf 3c f6 87 3f d9 17 5f 3f 05 7f 1e bf
       -0.57021743 1.062202 0.87145764 -0.61912566
000090 de 01 61 bf 54 fd 86 bd f0 2a 81 bf e8 20 08 bf
       -0.87893474 -0.06591287 -1.0091228 -0.5317521
0000a0 5d d9 28 3f e4 fe 85 bf 4d 13 33 3f 08 7e 5a 23
       0.6595667 -1.0468411 0.69951326 1.1844492e-17
0000b0 bb df 67 bf 27 61 8b bf a0 f1 da 3e 55 69 07 3f
       -0.9057576 -1.0889024 0.4276247 0.528951
0000c0 b0 40 67 be f4 41 02 be b8 fc dc 21 48 75 7d bf
       -0.2258327 -0.12720472 1.4974674e-18 -0.9900708
0000d0 a1 b2 b3 ba 74 be 37 3e 33 ac 47 3f f7 c7 a4 bf
       -0.0013709852 0.17943746 0.7799713 -1.2873524
0000e0 f7 42 09 3f 86 7d 27 3f 99 01 57 3f 23 77 5b bf
       0.53617805 0.6542591 0.8398681 -0.85728663
0000f0 b4 4e b7 3e a5 0c 6b 3f ee 7d 6b 3f 0d ad 86 bf
       0.35802233 0.9181617 0.9198903 -1.0521561
000100 68 70 97 bf e4 f4 ef bd b1 25 42 3f 86 e7 0e 3f
       -1.1831179 -0.11716631 0.7583876 0.55822027
000110 51 58 89 bf b0 12 8f bf 6f 8d 8d bf 5f 65 80 bf
       -1.0730077 -1.1177578 -1.1058787 -1.0030936
000120 2a 0c 1d ba 8a bf 34 3f 80 2c 7e bf 11 a8 8c bf
       -0.00059908873 0.70604765 -0.9928665 -1.098879
000130 30 b5 11 be f7 ea c9 3e 97 d3 dd be 9e 91 5b 3f
       -0.14229274 0.39437076 -0.43325493 0.8576907
000140 a3 7b 5a 3f 59 b7 3a 9f 80 e0 38 bf ae aa 75 21
       0.85344905 -3.9538694e-20 -0.7221756 8.323512e-19
000150 35 6b 43 3f 4e 45 1d 3f 08 b1 25 3d 64 28 a3 be
       0.7633546 0.61433876 0.040452033 -0.31866753
000160 6c 14 87 3f a0 e6 5f bf 40 65 1f bf d8 42 8a bf
       1.0553107 -0.8746128 -0.6226387 -1.0801649
000170 a7 f1 27 3f a4 79 05 bc 6e 2c 43 3f ce 26 35 3f
       0.6560311 -0.008146677 0.7623967 0.70762336
000180 b1 cd 8f bf 17 89 51 3f 41 69 6d bf 99 7f 3f bf
       -1.1234647 0.8184981 -0.9273873 -0.74804074
000190 56 55 15 3f cb 7e 6b bf dc e2 45 3f a5 86 5a 3f
       0.5833334 -0.91990346 0.77299285 0.853617
0001a0 ca 02 ae be a4 6e 19 3e c3 dc e2 be c6 d5 34 a1
       -0.33986503 0.14983612 -0.44309053 -6.12693e-19
0001b0 57 b8 69 3f 54 ba 63 3e 8f e5 c9 3e c8 19 66 3f
       0.91296905 0.22239047 0.39432952 0.8988309
0001c0 03 00 51 3f e6 a8 a6 3f d1 8e 5d 21 e7 bf 69 3f
       0.8164064 1.3020294 7.506673e-19 0.91308445
0001d0 2a 15 02 ba dd 5c 16 3f a8 a2 3f 3f d8 ab 92 bf
       -0.000496226 0.5873545 0.7485757 -1.1458693
0001e0 f4 9a 7e 3f 69 fd 56 3e 27 4a a6 3e 25 5d 29 3f
       0.9945519 0.20995106 0.3247845 0.6615775
0001f0 02 6e 86 bf ef 3d c7 be 72 dc db be 7f 0b 64 3f
       -1.0502322 -0.3891444 -0.42941624 0.8908004
000200 41 f9 3b be 1d 68 5e bf dd 3a 6b 3f b9 55 7d 3f
       -0.18356802 -0.86877614 0.91886693 0.9895893
000210 1e 8d 85 bf e1 f1 02 3f 57 cb 6c 3f ab d0 39 3f
       -1.043369 0.5115033 0.9249777 0.7258403
000220 0a cc ba b6 80 6e 50 bf f5 d0 66 3f 98 07 16 3f
       -5.5669852e-06 -0.8141861 0.90162593 0.5860534
000230 23 f4 04 3f 7d 1a 49 3f 61 17 5a bf ce 7d 71 3f
       0.51935023 0.7855604 -0.85191923 0.9433259
000240 e5 49 76 bf 1c 6c ae 9f 43 f9 13 bf 56 8b 29 a0
       -0.96206504 -7.387072e-20 -0.5780222 -1.4360959e-19
000250 10 be 79 bf 66 bb 1c bf d1 49 62 bf 01 00 65 bf
       -0.9755564 -0.6122345 -0.88393885 -0.8945313
000260 79 a8 90 bf 2d 10 58 bf 15 fe 55 3f fe 93 3b 3f
       -1.1301414 -0.8439968 0.83590823 0.73272693
000270 aa 4f 17 bf 58 50 48 bf f2 2f 62 bf b2 cf 45 bf
       -0.5910593 -0.78247595 -0.8835441 -0.7727004
000280 a3 05 bd 3f 89 61 22 bf 8e 05 5d 3f 3b db 76 bf
       1.4767345 -0.63430077 0.863366 -0.9642827
000290 a6 0f 81 3f c3 11 6a bf 54 99 80 3f 9a e9 62 3f
       1.00829 -0.9143335 1.0046792 0.886377
0002a0 8c fa 79 bf 94 e2 81 bf 00 84 57 bf f4 17 1b 21
       -0.9764793 -1.0147271 -0.8418579 5.2547744e-19
0002b0 9d eb 86 bf 3c e3 d9 3e 8c 7e 64 3f d0 bc 42 bf
       -1.0540653 0.4255618 0.89255595 -0.76069355
0002c0 28 c1 82 3f f4 7e 4e bf f0 3f 51 9d df e4 83 bf
       1.0215197 -0.80662465 -2.7693975e-21 -1.0304221
0002d0 f8 ce b8 3a eb 02 81 bf b3 24 38 bf 47 37 5c 3f
       0.0014099767 -1.0079015 -0.71931 0.86021847
0002e0 c9 71 36 bf f3 93 57 bf 7d c3 42 3f 9c 38 83 bf
       -0.7126737 -0.8421013 0.7607954 -1.0251651
0002f0 b7 b8 15 3f 88 4d 6e bf a1 d9 43 bf d3 99 90 bf
       0.5848498 -0.93087053 -0.7650395 -1.1296943
000300 ec 2d 16 3d 02 18 81 3f 84 47 81 bf e2 9d 80 bf
       0.03666489 1.0085452 -1.009995 -1.0048182
000310 f4 19 34 3f fe f5 48 3f 10 51 8a bf 1c 78 61 3f
       0.703521 0.78500354 -1.0805988 0.880739
000320 01 69 7d 39 a5 b2 7f bf 51 10 8d bf 62 ff 59 3f
       0.00024167077 -0.99881965 -1.1020604 0.8515531
000330 65 f4 06 bf b6 8c 88 bf 17 37 8f bf 05 65 87 bf
       -0.52716666 -1.0667942 -1.1188687 -1.0577704
000340 4c f7 7e 3f 2a a0 b6 21 aa a9 85 3f ea 02 18 a0
       0.99596095 1.2375195e-18 1.0442402 -1.2875865e-19
000350 a6 30 81 3f a5 b1 80 bf 41 b4 8a bf 32 d2 72 3f
       1.0092971 -1.0054213 -1.0836259 0.9485198
000360 c3 ac 96 bf 11 48 96 bf 92 27 86 bf 78 95 9b bf
       -1.1771473 -1.1740743 -1.0480826 -1.2154989
000370 72 74 73 bf 1d 2e 83 3f 7a 26 71 3f 94 0e 7e bf
       -0.95099556 1.0248448 0.94199336 -0.99240994
000380 1e f7 87 bf 32 83 79 bf 85 6e 86 bf 08 86 45 3f
       -1.0622289 -0.97465813 -1.0502478 0.7715764
000390 57 b6 81 bf 13 e1 43 3f 4d d8 8b bf 6c 2d 8f bf
       -1.0133771 0.7651531 -1.0925385 -1.1185737
0003a0 0c 21 99 bf 32 5f 20 3f 54 0b 93 bf 7e d3 b5 a0
       -1.196321 0.62645257 -1.1487832 -3.0802546e-19
0003b0 60 3e 21 bf d0 b8 5e 3f 86 33 82 bf 4b 8f 8d bf
       -0.629858 0.8700075 -1.0171974 -1.1059355
0003c0 a3 92 79 bf 65 47 83 bf 0c 1e 09 20 cb 54 87 3f
       -0.97489375 -1.0256163 1.1614293e-19 1.0572752
0003d0 ef eb af 39 d1 c2 90 bf 49 73 79 bf 99 97 8b bf
       0.00033554385 -1.1309453 -0.97441536 -1.0905639
0003e0 dd c3 85 bf b7 86 7b 3f a6 73 89 bf 10 1f 80 3f
       -1.0450398 0.98252434 -1.0738418 1.000948
0003f0 99 63 4b 3f 90 98 9c bf b3 6b 80 3f 33 3d 97 bf
       0.7944885 -1.2234058 1.0032867 -1.1815552

lin2.bias f4 [5]
000000 93 94 c3 be ef 41 d9 be 43 98 a8 3c 27 95 5d 3e
       -0.3819929 -0.42433116 0.020580417 0.21638928
000010 d3 34 ab 3e
       0.3343874

prop1.temp f4 [11]
000000 9d 94 2a 40 db 24 30 40 f1 90 2c 40 9d 9a fb 3f
       2.6653206 2.7522495 2.6963465 1.9656559
000010 b2 7d 9e 3e 67 39 fb 3d 03 4e 30 3f c4 bb 13 40
       0.30955273 0.12266808 0.68869036 2.3083353
000020 54 a8 2c 40 5e 89 2d 40 e2 4d 27 40
       2.697774 2.7115092 2.6141286
