save_parameters/BernNet_model_0324_1044.pt (torch, 599324 bytes, 5 tensors)

lin1.weight f4 [64, 2325]
00000000: 3dc8 5138 0cdc 0b3e 4ce7 77bd ba03 22bd
00000010: 2637 5f3d 9097 83bd c667 b3bd e9d9 e23b
00000020: 46db a63d fc6a 153c afb5 b0bd 1b3d 5f3b
00000030: c683 1d3c 5695 bb3b c9ce 2b3c c82d 803d
00000040: 6d3e b4bc ef20 e53c 70ef ad3c b3ac 9ebd
00000050: 7b77 ebba d180 90bd 8a16 b63c a2c7 87bb
00000060: 91a3 95bc 83fa 5e3d b421 c6bb 1008 68bb
00000070: 9cc3 2f3c 9eca ba3a a2ac ecbb 2363 333c
00000080: 510f d23d 2221 c53c 531e 17bb 658a b2bd
00000090: 9eaa 85bd b3cc 963d a4ce b43a 2aee 8f3b
000000a0: 9c5f b2b9 13cb 943d 2719 713c 26c2 9dbb
000000b0: b752 2a3c 8267 92bd da33 69bc 7b03 cf3d
000000c0: 2b4d 253d 4bac ddbb 971e 49bd 418d 36bc
000000d0: 6974 c23d 9397 7e3b 974a 9ab9 8011 b33c
000000e0: 2109 9fbd c26f 2cbb 5f0d 5bbd 303e 0bbb
000000f0: d2a2 f0bb 78f7 aeba c808 50ba faf7 86bd
00000100: c8c5 3eb9 061e f33b 3d44 9f3d fcf4 47bb
00000110: 6449 453a eb25 693c 76a1 32bb 9bf8 4a3a
00000120: 815d 9b38 a6d8 98bb 35d9 a23d c323 24ba
00000130: 169a acbb d19e 90b8 a264 e13d dcfa 883b
00000140: 0dfb c5bc 5d05 ab3b 9003 be39 a10b 8ebd
00000150: a5ef 893b eb7e 89bd d44a 193c ecf1 8f39
00000160: a681 3e3c 7ee8 8eba d2d5 d23d c98e 9bbd
00000170: 6afc 9b3d 58ea a33c 863e a8bb 4176 0fbc
00000180: 2ecf 933c c3fb 023b 5e5f 84bd 886d 0dbe
00000190: 6a5f 1ebc 7a35 0ebb 2999 163b 1854 4a3c
000001a0: 19bb bbbb 40f2 0a3d e3cb 0cbb b8f9 b3bb
000001b0: 4a06 413c 1bcb 03bc 91ea 9dbd eaef e339
000001c0: dcf4 b739 a2cd ef3b 1ef4 1dbc 7fc8 9f3d
000001d0: dd78 d0bb dd25 8fbd 45eb c6bc 01a1 3e3c
000001e0: 09bc b9ba 9165 383c 330a d0bc 83d9 0e3d
000001f0: 8f2d f73d b760 433c ac34 f639 7ac8 743b
00000200: 9eac 67ba eaa4 b13c 9124 85b9 e549 133e
00000210: f973 bbbd f60d d03b 8169 0d3c a801 beba
00000220: e8c9 7dbc cfd2 c93a 8d7f c63d f032 603b
00000230: b4fb 9b3d bb84 86bc 1885 d5bd 57c1 223d
00000240: 8a19 f6bb a808 98bc 1007 e73d fa12 c338
00000250: 90f7 87bb 91f8 813d ee04 2bba 3c9c 9c3a
00000260: ba80 9a3c 6e81 f43d 98c8 7abd c829 183e
00000270: c935 9f3a 166a 02bd c0d4 5eb9 4870 ec3b
00000280: fdbf d9bb 8e57 61bd ae09 85ba 0fbc 63bd
00000290: da84 c63d 6cb1 373d a125 433b 5c76 2c3c
000002a0: 1c4c 283c 7f0a 8fbb 7268 0abe 024d ba3a
000002b0: 77c9 78bb 5ef1 b0bd 72c6 31bb 3173 9abd
000002c0: 1ead 57bc 9de6 aebd 5294 a8bd b428 803c
000002d0: 62d5 9fbd d237 8bbb e617 783c 21ee 14ba
000002e0: f34d 07bb 2390 3b3c d6b9 b1bb 4446 a83b
000002f0: 0573 e6bb d529 d1bb 74ea 46bd 8187 94bd
00000300: cb4e 00bb 1e74 1d3c ea71 ac38 5dd5 183c
00000310: 1540 d8bb 75a8 9b39 cc21 82bb cf05 b6bd
00000320: 81e2 f43d a600 14bd dfec 3f3d 2c77 5d3a
00000330: b265 6abd 9a0d 91bc 195d 81bd bc7c db3d
00000340: 4261 1e3b 779c 933c 3960 c13b 8d98 1fbc
00000350: 8f24 a3bb 212a 9dbd 1a36 ecbb da01 81bd
00000360: 8088 c0ba 8ae7 a9bd 6f4b 2b3d ee5b fd39
00000370: 8ab7 9aba a05e a93c f3c4 4eb9 8f26 073c
00000380: afb2 d2bd 123a 453b 4a26 68bd 21c3 223b
00000390: b678 5939 2660 d7bb 01a4 c53d e5f0 0bbb
000003a0: 5562 85b9 64cd a3bd 2c01 ccbd b0ca 6abd
000003b0: 775c 7bbb aa16 9ebd c81b 56bd 469f afbb
000003c0: 7f8d ce3b 7737 023c 43dd 32bc da7f 26bd
000003d0: bcbc 2d3c b67a 9d3b 3d23 60bc 76cf 083c
000003e0: 5612 3ebc 14c1 a23b c598 14bd 6ab0 bcbb
000003f0: c636 1bbb df2a e6bc b799 87bc a15f 5f3c
5.001597e-05 0.1365816 -0.060523316 -0.039554335 0.054495953 -0.06425393 -0.087600276 0.0069229496
0.08147292 0.009119745 -0.086284034 0.0034063521 0.009613937 0.0057245893 0.010486313 0.06258732
-0.022002423 0.027969806 0.021232337 -0.077477835 -0.0017964685 -0.0705582 0.022227544 -0.004143671
-0.018266471 0.054438125 -0.006046498 -0.0035405196 0.010727789 0.0014251058 -0.007222728 0.010948929
0.102568276 0.02406365 -0.0023058846 -0.08717803 -0.06526683 0.07363262 0.0013794494 0.004392405
-0.0003402204 0.07265296 0.014715469 -0.004814404 0.010395697 -0.07148649 -0.014233554 0.10108086
0.040356796 -0.0067649237 -0.04910144 -0.011142076 0.0949486 0.003884767 -0.00029428743 0.02185893
-0.07765413 -0.002631173 -0.05347955 -0.0021246783 -0.0073436284 -0.0013348898 -0.0007935879 -0.065902665
-0.00018193491 0.0074193506 0.07776687 -0.0030511012 0.00075258897 0.014230232 -0.0027256883 0.00077427336
7.4083924e-05 -0.0046644984 0.07951585 -0.00062614324 -0.005267392 -6.896037e-05 0.11005522 0.0041802954
-0.024167562 0.005219145 0.00036242278 -0.06935812 0.004209476 -0.06713661 0.009356219 0.0002745533
0.01162759 -0.0010903028 0.10294689 -0.075955935 0.076165035 0.020009205 -0.0051344065 -0.008756221
0.018043127 0.0019986487 -0.06463502 -0.13811314 -0.009666303 -0.0021699355 0.0022979474 0.012349151
-0.005729091 0.033922434 -0.002148383 -0.0054924153 0.011781285 -0.00804403 -0.077107556 0.00043475564
0.00035086914 0.0073182145 -0.009640722 0.078019135 -0.0063620643 -0.06989644 -0.024282107 0.011635066
-0.0014170419 0.011254684 -0.025395488 0.034875404 0.120692365 0.011924914 0.0004696002 0.0037350939
-0.00088376726 0.021685082 -0.0002539498 0.14383657 -0.091529794 0.0063493205 0.008631111 -0.0014496343
-0.015490033 0.0015397909 0.09692297 0.0034210049 0.07616368 -0.016420713 -0.10425776 0.039735164
-0.0075103687 -0.018558815 0.11280644 9.301859e-05 -0.004149385 0.063462384 -0.0006523867 0.0011948417
0.01886021 0.11938749 -0.061226457 0.14859688 0.0012146767 -0.031839453 -0.00021250825 0.0072155334
-0.0066452012 -0.05501514 -0.001014998 -0.05559927 0.09693308 0.044846937 0.0029777067 0.010526266
0.010272052 -0.004365265 -0.13516405 0.0014213624 -0.003796188 -0.08639787 -0.002712634 -0.07541502
-0.013163833 -0.0854008 -0.08231415 0.015644409 -0.078043714 -0.0042485977 0.015142417 -0.0005681236
-0.0020645827 0.011447939 -0.0054237647 0.0051353294 -0.0070327544 -0.0063831606 -0.048563436 -0.07252408
-0.0019578214 0.009610204 8.222817e-05 0.0093282135 -0.006599436 0.00029689414 -0.003971314 -0.08887827
0.11957265 -0.03613343 0.046856757 0.0008448239 -0.05722589 -0.017706681 -0.06316585 0.107171506
0.0024166857 0.018018944 0.005901363 -0.009740961 -0.0049787234 -0.07674051 -0.007208598 -0.06299181
-0.0014689118 -0.08296116 0.041819986 0.00048324413 -0.0011803966 0.020675004 -0.0001971906 0.008248939
-0.102879874 0.0030094427 -0.05667714 0.0024835544 0.00020739701 -0.006572741 0.09650422 -0.00213533
-0.00025441 -0.079981595 -0.09961161 -0.057322204 -0.0038354674 -0.077191666 -0.052272588 -0.005359563
0.0063034887 0.007947794 -0.010917011 -0.040649273 0.01060408 0.004805888 -0.013680276 0.008350244
-0.011601051 0.0049668644 -0.036278505 -0.005758335 -0.002368377 -0.028096614 -0.01655279 0.01363364

lin1.bias f4 [64]
00000000: ea09 a13d 6744 a83d d746 553d 1c2d 743d
00000010: a7c8 ab3d 12ba ad3d fec7 a23d 759a 7d3d
00000020: 1bf7 8fbc f3e5 593d 58a8 a63d 3e70 933d
00000030: 33eb 32bc 203e b13d 53a4 853d a6c9 ad3d
00000040: ba05 b3bc 3308 aa3d dbe1 9f3d 0574 9f3d
00000050: 9db9 b03d 9527 863d c01d 9e3d b804 363d
00000060: b859 803d e735 cfbc 0c6c a13d eb83 c33d
00000070: 2fac 903d f279 b13d 77cf 6b3d f92c a53d
00000080: 9eb5 5c3d 9684 9d3d 5447 9f3d f80d 843d
00000090: 14aa 8a3d 6fda c53d 5939 7e3d 4ca2 5f3d
000000a0: 98a5 a63d 3855 673d 9985 a13d 7f95 d13d
000000b0: 0e24 ab3d eeec b13d ef9a 853d 16e7 933d
000000c0: 325c 773d 6e49 6d3d 9229 3a3d beac 833d
000000d0: a465 573d 0607 bc3d e786 9b3d 7600 983d
000000e0: 37b1 c53d 6e5f 953d 3927 c33d d269 593d
000000f0: 5d28 923d 7e9e 9f3d d3e6 653d 141c 983d
0.07863219 0.08216172 0.05206951 0.059613332 0.08387881 0.08482756 0.07948302 0.06191488
-0.017573884 0.053197812 0.08137578 0.07199143 -0.010920334 0.086544275 0.06525483 0.08485727
-0.021853317 0.08302345 0.078067504 0.07785801 0.08629153 0.065505184 0.07720518 0.044438094
0.062671125 -0.025294257 0.078819364 0.09546646 0.070640914 0.08665837 0.0575709 0.080652185
0.05388414 0.076913044 0.07777277 0.06447977 0.06770721 0.096608035 0.06206641 0.054598138
0.08137053 0.056477755 0.0788681 0.10233592 0.08356486 0.08687769 0.06523692 0.072218105
0.06039066 0.057931356 0.0454498 0.06429432 0.052587166 0.09181027 0.0759409 0.07421963
0.09652942 0.072935924 0.095289655 0.053079434 0.07136605 0.07793902 0.056128334 0.074272305

lin2.weight f4 [5, 64]
00000000: 65a2 92be 82dd 9c3e aa34 afbd 8c9e 583e
00000010: b603 9c3e 8246 c33c 6f0a 5cbe 7831 41be
00000020: 0ad6 5bbc 06c5 68be d7bb 993e bcd0 88be
00000030: 4203 8436 219e 763e 81aa 5ebe 85e1 15be
00000040: f9ba eabb 4e02 5cbe f861 61be 2175 a3be
00000050: df62 f63c b6fb ac3d e19e 99be b43f 4bbe
00000060: bdfa 8e3e 9149 07bb 8933 773e 1a73 e7bd
00000070: 6fcf 5bbe f1b1 a3be f689 90be fba0 133e
00000080: 117d 99be b1ca 303e 399a bcbe 3bfc 68be
00000090: e37d aabe ca81 8abe 2121 6cbe ac5b 27be
000000a0: 3acc 9e3e 7465 88be 60d6 69be 6349 953e
000000b0: b4e8 98bc 8475 383e 2eb3 933e b2d9 b1be
000000c0: 6bc0 85be 49e3 88be de80 9dbe c35d b73e
000000d0: ce87 a1be 59b8 8a3e 87ed 9d3e 51f1 8abe
000000e0: bf58 993e 2d3e 86be 8ea9 953e 35e9 b0be
000000f0: c575 cc3d 8032 92be f92f 373e 1d24 9f3d
00000100: 0b16 943e d2f6 a3be 4256 b73e 31e1 9fbe
00000110: ec2a 5bbe ae84 d1be a4a8 863e 1f63 4f3e
00000120: 63ed 363b 3287 23be cf82 80be 965d 1e3e
00000130: 381a 073b 340c 923e 14cd 833e 9f11 b2be
00000140: 3e8c 0d39 8da9 8abd eec2 963e 03f0 653e
00000150: fbd9 c9be ef68 1b3e 70af f63d b733 89be
00000160: 611d c1be 0571 693c 508f 3fbd 2204 75be
00000170: 38f9 ac3e 97b9 613d 64f9 633e fc58 a0be
00000180: eb4c b2be 4072 893e 0a73 b6be 955e 80be
00000190: 7bff 913e 7a37 8cbe 9ef5 6d3e a0ec 94be
000001a0: 6ea9 823e 9fe7 843e 2528 423e d439 cbbe
000001b0: fbbc 6dbe 5633 52be 44e7 52be 143f 6a3c
000001c0: 2c87 72be 7dca bbbe 907e 5b3e 5f44 54be
000001d0: 7e21 843e 3a64 843e f741 a8be 4209 993e
000001e0: 4649 84be d2da 9cbe eb53 8bbe aec9 583e
000001f0: 02d4 863e 6da2 a83e f6d5 763e 7a72 973e
00000200: 258e abbe c8ef b1be d50d 70be 88b2 8439
00000210: cabb 823e cf3b a23d de17 6fbe 8eea 8abe
00000220: 2da4 09bb bfde 813e 29b2 983e 6335 68be
00000230: a431 efb8 730f 3c3c a104 ac3e 9880 743e
00000240: d6b8 11b9 c8b4 a8be 7eaf 0ebe 6c91 753e
00000250: d48a 983e 86ad 5c3e 5527 513e e82f 5cbe
00000260: af88 563e 16e3 403b baad c7be 453e 63be
00000270: 0278 ba3e 05d8 9dbe 7924 3ebe 0a5f bb3e
00000280: 173b 9e3e 2235 d2be b506 14bd cc5e aa3e
00000290: fecf aebe fdd0 253e c7d1 943e db50 7abe
000002a0: c139 a5be 173f bd3d 4b98 95be caf5 63be
000002b0: 2b01 683e 7499 d6be 7a2e e13d 33e6 c6be
000002c0: 5922 9b3e 2cfd 923e cae3 413e 3c0a b7be
000002d0: 2b04 a43e 54ba 9dbe 9ecc 8d3e 3040 9fbe
000002e0: 7357 84be 4754 c2be cb97 96be f959 8b3e
000002f0: 1d89 c9be c4f3 ccbe 64f6 92be d4cf 543e
00000300: 8f6a a13e 84d9 b73e 7de9 a9be ab56 94be
00000310: 2a49 543e e08e 0e3e 816d 753e 0ec5 873e
00000320: 837b feb9 9931 96be 2cfc a1be 0fc6 a63e
00000330: 559e dc37 7d7b b8be 1945 80be ec40 04be
00000340: 3154 de38 6d6a 9e3e 58a9 9a3e 6c52 aabe
00000350: 1c44 d1bd 0f7c cfbe 2fb4 733e ed7e 4d3e
00000360: 15a0 debe cc20 753c 447a 963e a52b ab3e
00000370: 606b a7be 0be8 503e 6547 cabe 0dc4 a1be
00000380: 780d cabe 6589 983e 077b 463e f683 86be
00000390: 2b14 eabd 118f 673e 3e58 c5be a39b b2be
000003a0: bf6c afbd 9c44 a3be 5fbb 903e bceb 2d3e
000003b0: a635 933e 4b80 803e 80ee 9abe d72e 653e
000003c0: 1941 9fbe f6c2 c33d ff74 86be d409 c9be
000003d0: b0b7 bcbe 53ad 97be 441f c0be 5313 793e
000003e0: d6e8 9b3e 037b bc3e 2c3e 90be f46b c9be
000003f0: d640 123e dea6 3cbe 4716 cdbe f476 d6be
-0.28639522 0.30637747 -0.08554967 0.21154231 0.3047158 0.023837332 -0.21488355 -0.18866527
-0.01341773 -0.22731408 0.30026123 -0.26721752 3.934286e-06 0.24083759 -0.2174473 -0.1463681
-0.007163402 -0.21485254 -0.22010028 -0.319253 0.030076442 0.084464476 -0.30004027 -0.1984852
0.27925673 -0.0020643214 0.24140753 -0.11301251 -0.21465848 -0.31971696 -0.28230256 0.14416878
-0.2997823 0.1726482 -0.36836413 -0.22752468 -0.3329917 -0.27052146 -0.23059513 -0.16343564
0.31015188 -0.26639903 -0.22835684 0.29157552 -0.018665649 0.18013579 0.2884764 -0.347364
-0.26123366 -0.26735905 -0.3076238 0.35813722 -0.31548923 0.2709377 0.3084528 -0.27137235
0.2995052 -0.2621931 0.29230922 -0.34552923 0.099834 -0.28554153 0.17889394 0.0777056
0.28923067 -0.32024246 0.35807997 -0.31226495 -0.21403092 -0.4092154 0.26300538 0.20252655
0.002791249 -0.15969542 -0.250998 0.15465388 0.0020614993 0.28524935 0.257424 -0.3477907
0.00013499052 -0.067706205 0.29445595 0.22454838 -0.39424118 0.15176748 0.12045181 -0.26797268
-0.37717727 0.014248137 -0.046767533 -0.23927358 0.3378389 0.055108633 0.22263104 -0.3131789
-0.3482431 0.26844978 -0.35634643 -0.2507216 0.2851523 -0.27386075 0.23238227 -0.2908678
0.2551989 0.25957963 0.18960626 -0.39692557 -0.23216622 -0.20527396 -0.20596033 0.014297266
-0.23684376 -0.36677924 0.21434999 -0.20729207 0.25806803 0.25857717 -0.32862827 0.29889876
-0.25837153 -0.30635697 -0.27212462 0.21170685 0.26333624 0.3293642 0.24105057 0.29579526
-0.33506885 -0.3475325 -0.23442777 0.00025310018 0.25533897 0.07921564 -0.23348948 -0.27132076
-0.0021002397 0.25365254 0.29823425 -0.22676615 -0.000114056544 0.011478293 0.33597282 0.2387718
-0.00013897134 -0.32950425 -0.13934132 0.23981255 0.29793417 0.21550569 0.2042516 -0.2150265
0.20950578 0.0029432229 -0.3899973 -0.22191723 0.36419684 -0.30828872 -0.185686 0.36595947
0.30904457 -0.41056162 -0.03613921 0.3327545 -0.3414306 0.16193004 0.29066297 -0.24444906
-0.32270625 0.09240549 -0.29217753 -0.2226173 0.22656696 -0.4191395 0.10995193 -0.38847503
0.30299643 0.2870878 0.18934551 -0.35749996 0.3203443 -0.3080622 0.27695173 -0.3110366
-0.25847968 -0.37954924 -0.29412684 0.2721708 -0.39362422 -0.40029728 -0.28703606 0.20782405
0.3152661 0.3590814 -0.3318595 -0.28972372 0.20731035 0.1392169 0.23967554 0.26517528
-0.0004853868 -0.29334715 -0.31637704 0.32572982 2.6299773e-05 -0.36031714 -0.25052717 -0.1291539
0.00010601467 0.3094057 0.30207324 -0.33266008 -0.10218069 -0.40524337 0.23799203 0.2006795
-0.43481508 0.014961433 0.29390156 0.33431736 -0.32699108 0.20401017 -0.39507595 -0.31594887
-0.394634 0.29792324 0.19382869 -0.26272553 -0.11429628 0.22613169 -0.38543886 -0.34884366
-0.085656635 -0.31888282 0.28267953 0.16984457 0.28751868 0.2509788 -0.30260086 0.22381149
-0.31104353 0.0955867 -0.26261136 -0.3926531 -0.36858892 -0.29624423 -0.37523854 0.24323778
0.30451077 0.368126 -0.28172433 -0.39340174 0.14282545 -0.1842303 -0.4005606 -0.4188763

lin2.bias f4 [5]
00000000: 2c1b 3e3d 73d3 25bd 2dbe 87bd 8439 26bd
00000010: 3b78 8ebd
0.046412632 -0.040484857 -0.0662807 -0.040582195 -0.06956526

prop1.temp f4 [11]
00000000: 2679 5a3f dc8f 983f 1e83 a73f cc84 aa3f
00000010: 7a47 ab3f 71cd ab3f 17c5 ac3f dcde ae3f
00000020: d420 b23f ef7f b03f d1f3 9e3f
0.8534111 1.1918902 1.3086889 1.3321776 1.3381188 1.3422071 1.3497647 1.3661761
1.3916268 1.3789042 1.2418157
