save_parameters/BernNet_model_0324_1030.pt (torch, 599324 bytes, 5 tensors)

lin1.weight f4 [64, 2325]
-0.0004590919 -0.002122597 -0.0040700324 0.0017483125 -0.014995851 -0.0025696305 0.0012999396 0.008288106
0.016152797 -6.503091e-05 0.0002692783 0.0019486608 -0.006433901 0.013129223 0.0009920924 -0.0010909449
-0.0008286145 0.004710489 0.013741696 0.015557761 -0.0008466692 0.0022637888 0.016979633 -0.00051920454
-0.004972726 0.008086964 -0.00064639415 -0.0003829824 0.0035812578 0.0037767792 -0.0038728905 -0.0036869806
-0.0013824714 0.023966676 -0.0010877422 -0.0045363563 -0.0049873553 0.0026996867 -0.0006206794 0.0010675419
-0.005166743 -0.0066086017 5.865062e-05 0.009582435 0.0033180506 -0.019917531 -0.0023372746 -0.0017709467
-0.003661718 -0.0019060508 -0.0025067118 -0.0023213844 -0.001818215 -0.0009767078 0.0044082226 -1.4284487e-05
-0.0035209085 0.00012511639 0.004269187 0.0045870487 -0.0034771976 -0.0006088174 -0.00045761635 -0.00083817175
0.0015643958 -0.001118266 -0.0010150067 0.00062966405 0.0016818902 -0.0008759877 0.0033954722 7.01737e-05
0.00018942895 0.0004687502 0.014053178 0.0016061412 0.0001557121 0.0001490229 -0.0056316764 0.0030062513
-0.00037485675 -0.0012241905 0.03675105 0.0021456105 0.005312483 0.002557487 0.0008225501 -0.001898689
-0.00079252524 -0.00043022755 0.017320195 0.0025643336 0.0012491886 3.6366924e-05 -0.0047121802 0.004559329
0.020413516 0.0009413974 0.0016812228 0.0124537 -0.0019930527 0.00044686178 -0.010798463 0.003184552
-0.0006477851 0.020605523 -0.000661003 0.0007997829 -0.00012435782 0.0010150373 0.0013715222 0.003159664
-4.8017973e-05 -0.00026431787 -0.00066840637 0.0002786477 0.00026423548 0.0008619708 -0.0005959016 -0.0047458997
0.00041771145 0.0051503577 -0.017084278 0.0141174225 0.013382262 0.03853533 -0.0019429345 3.0621664e-05
-0.00019053952 0.0003130365 6.544753e-05 -0.0014478195 -0.0017318346 6.2691775e-05 -0.0013973877 -0.0016251961
0.016160896 0.001962503 -0.0021194108 0.005708691 0.002501475 0.0004058127 0.0100324955 0.0032604542
-0.0057122796 -0.005722106 -0.0053092777 -0.005380348 -0.0006926588 0.0004153693 0.00040486373 0.0007841155
0.03242055 0.0006309372 0.0135997 0.025714066 -0.00062172255 0.022026885 -0.0038381615 0.0160709
0.0015723841 -0.0005292955 -0.00073788257 0.0013355551 -0.0037062792 -0.0076578846 0.0035329664 0.012653063
-0.0027158174 0.00087778777 -0.00510325 0.0017360676 0.00039172222 0.004352806 4.6721892e-05 0.0035202815
-0.002435132 -0.001067275 -0.0012291725 -0.0009179589 0.0015717926 -0.00022762764 -0.0020273535 -0.00198373
0.0011547573 0.0035150656 0.001896526 0.0004194954 -0.005438428 -0.0012304822 -0.002103252 0.02071269
0.0044272263 0.021842005 0.0007075001 -0.003978357 0.000960762 -0.00155588 -0.0069915657 -0.0008681258
0.01464826 0.0002750047 -0.009145351 -0.004525475 -0.0013919245 -0.0005425457 0.0008593658 0.0059234807
0.0012388523 -0.0023108001 3.393367e-05 -0.001634853 0.005119657 -0.0030717016 -0.0031797735 0.0043459916
-0.0012993799 -0.0003337772 0.0018998168 -0.0014928163 -0.0031582739 -0.00039456805 -0.00031874166 -0.00068267423
-0.0006209776 0.0023020164 -2.0321691e-05 0.0017941261 0.001575932 -0.0012324585 -0.004709204 -0.0010223787
-0.0006230126 0.002127587 0.0024602273 -0.0012728397 0.0009992912 -0.003979465 0.0017152199 -0.008880872
-0.0018514507 0.0012446796 0.014914504 0.01855505 -0.0022756243 -0.0026459703 0.003485435 -0.0064655375
0.0014205634 -0.0029226716 -0.0013491379 0.0044839005 0.005326211 0.020890152 0.0044306973 0.002442674
00000000: 46b2 f0b9 451b 0bbb e85d 85bb a227 e53a
00000010: 28b1 75bc 3f67 28bb bc62 aa3a d6ca 073c
00000020: df52 843c 3461 88b8 ec2d 8d39 356a ff3a
00000030: 79d3 d2bb f41b 573c 1909 823a 09fe 8eba
00000040: 6137 59ba 725a 9a3b da24 613c fbe5 7e3c
00000050: 02f3 5dba 135c 143b df18 8b3c 3a1b 08ba
00000060: 40f2 a2bb 2f7f 043c c772 29ba 07cb c8b9
00000070: 89b3 6a3b d783 773b 52d0 7dbb 45a1 71bb
00000080: 0b34 b5ba c355 c43c 9292 8eba b7a5 94bb
00000090: f86c a3bb 3aed 303b 17b5 22ba c3ec 8b3a
000000a0: c84d a9bb f88c d8bb a0ff 7538 a5ff 1c3c
000000b0: a773 593b 172a a3bc f62c 19bb 1c1f e8ba
000000c0: 6ff9 6fbb 74d4 f9ba a547 24bb 5e22 18bb
000000d0: 2c51 eeba e004 80ba da72 903b 68a7 6fb7
000000e0: 0bbf 66bb ad31 0339 89e4 8b3b f44e 963b
000000f0: b2e1 63bb 0b99 1fba 3aec efb9 c1b8 5bba
00000100: 6a0c cd3a c892 92ba f909 85ba 0a10 253a
00000110: df72 dc3a 8aa2 65ba 9286 5e3b 382a 9338
00000120: 72a1 4639 96c2 f539 4d3f 663c 2885 d23a
00000130: a646 2339 0843 1c39 ed89 b8bb 8704 453b
00000140: 6c88 c4b9 0475 a0ba 4588 163d 5f9d 0c3b
00000150: 5614 ae3b 839b 273b 67a0 573a 6edd f8ba
00000160: 78c1 4fba 2a90 e1b9 15e3 8d3c 610e 283b
00000170: d0bb a33a b088 1838 a268 9abb 6c66 953b
00000180: 3f3a a73c 1cc8 763a 7a5c dc3a 9b0a 4c3c
00000190: e09d 02bb c648 ea39 09ec 30bc ebb3 503b
000001a0: 1fd0 29ba eacc a83c 2947 2dba 86a8 513a
000001b0: 0c66 02b9 000b 853a a6c4 b33a 5e12 4f3b
000001c0: e866 49b8 2594 8ab9 fe37 2fba 7617 9239
000001d0: 1689 8a39 e2f5 613a 4836 1cba 7e83 9bbb
000001e0: 4800 db39 55c4 a83b 54f4 8bbc c34c 673c
000001f0: 4641 5b3c 39d7 1d3d 10aa feba c36f 0038
00000200: 90cb 47b9 0c1f a439 e040 8938 c3c4 bdba
00000210: bafe e2ba 6479 8338 8d28 b7ba 8804 d5ba
00000220: db63 843c 569d 003b d0e5 0abb f90f bb3b
00000230: c9ef 233b 42c3 d439 565f 243c 58ad 553b
00000240: 132e bbbb 8180 bbbb 73f9 adbb a14d b0bb
00000250: 8c93 35ba ecc5 d939 e443 d439 1a8d 4d3a
00000260: 69cb 043d 7b65 253a 47d1 5e3c 4ea6 d23c
00000270: 18fb 22ba ba71 b43c aa89 7bbb 1fa7 833c
00000280: 7518 ce3a 6bc0 0aba 766e 41ba cb0d af3a
00000290: 0ce5 72bb feee fabb 5789 673b cb4e 4f3c
000002a0: dbfb 31bb 571b 663a 2a39 a7bb c38c e33a
000002b0: 1160 cd39 fca1 8e3b 40f7 4338 86b4 663b
000002c0: bc96 1fbb cee3 8bba 2f1c a1ba 2ea3 70ba
000002d0: 9c04 ce3a 54af 6eb9 59dd 04bb 7701 02bb
000002e0: 3a5b 973a 045d 663b da94 f83a b8ef db39
000002f0: d734 b2bb 2248 a1ba b7d6 09bb a9ad a93c
00000300: 4412 913b 01ee b23c 8777 393a e15c 82bb
00000310: a5db 7b3a abee cbba 8119 e5bb f092 63ba
00000320: 41ff 6f3c 822e 9039 62d6 15bc 704a 94bb
00000330: 3c71 b6ba a039 0eba 1047 613a c219 c23b
00000340: fc60 a23a cb70 17bb 0054 0e38 9048 d6ba
00000350: ccc2 a73b 9a4e 49bb bf63 50bb d268 8e3b
00000360: f44f aaba d1fe aeb9 4603 f93a 9aaa c3ba
00000370: 0bfb 4ebb 07de ceb9 c81c a7b9 7ef5 32ba
00000380: 1ac9 22ba 6ddd 163b 8078 aab7 e228 eb3a
00000390: 818f ce3a 728a a1ba ab4f 9abb 5601 86ba
000003a0: ab51 23ba fd6e 0b3b c43b 213b 6ad5 a6ba
000003b0: a6fa 823a 2c66 82bb 3bd1 e03a 1481 11bc
000003c0: 60ac f2ba 8424 a33a f75b 743c c300 983c
000003d0: a422 15bb 0468 2dbb e56b 643b dcdc d3bb
000003e0: 3332 ba3a 4b8a 3fbb 8ed5 b0ba afed 923b
000003f0: 7f87 ae3b d321 ab3c 622f 913b 4515 203b

lin1.bias f4 [64]
0.013688241 0.026269117 0.008650149 0.011983594 -0.0095468 0.024716157 -0.0037131137 -0.012927857
-0.027547514 0.011591278 -0.009486759 0.005367712 0.0047126417 0.014004263 0.015974378 0.0045795287
-2.400484e-06 0.0060191685 -0.00765422 0.0065075443 0.010871794 0.025010016 0.007141876 0.0121505745
0.016085286 0.008424705 0.010326326 0.014981614 0.019513477 0.017413871 0.010323851 0.005108435
0.004671507 -0.0063102944 0.0169815 -0.01610172 0.017750394 -0.009267125 0.0019179105 -0.0067196325
0.006038765 0.008408789 0.0447717 0.014586613 0.021817796 0.010999502 0.016427161 0.0094484
-0.015699267 0.009705908 0.005648305 0.020565368 -0.020082047 -0.035920206 0.003003226 0.012313255
-0.0147044165 -0.020926218 -0.02537545 0.014661505 -0.026513975 -0.023901345 0.004542282 0.0128878625
00000000: a544 603c 5532 d73c 5bb9 0d3c d656 443c
00000010: 2e6a 1cbc 8a79 ca3c b657 73bb 5dcf 53bc
00000020: 53ab e1bc 58e9 3d3c 5a6e 1bbc a2e3 af3b
00000030: 816c 9a3b 2372 653c b3dc 823c df0f 963b
00000040: 0018 21b6 723c c53b 40d0 fabb 3d3d d53b
00000050: 9c1f 323c cee1 cc3c 6606 ea3b 3413 473c
00000060: 4ac5 833c c607 0a3c c02f 293c 7275 753c
00000070: bada 9f3c 89a7 8e3c 5f25 293c a964 a73b
00000080: 7113 993b 96c6 cebb c91c 8b3c c1e7 83bc
00000090: 4669 913c 24d5 17bc 6662 fb3a 5d30 dcbb
000000a0: d5e0 c53b 04c5 093c 8862 373d b0fc 6e3c
000000b0: 3cbb b23c 4137 343c 4192 863c 76cd 1a3c
000000c0: c09b 80bc 8705 1f3c 6b15 b93b b478 a83c
000000d0: 1b83 a4bc 1121 13bd c5d1 443b 89bd 493c
000000e0: cbea 70bc 766d abbc 2de0 cfbc cf36 703c
000000f0: d633 d9bc c1cc c3bc 6cd7 943b 9d27 533c

lin2.weight f4 [5, 64]
0.04632992 -0.026415618 -0.11900314 -0.026067983 0.044393647 -0.11197565 -0.016520131 0.07382488
-0.10199202 0.11416934 0.09103881 -0.049478143 -0.008191783 -0.06746445 -0.031302795 0.06399088
-0.029687148 0.08307491 0.018160548 0.08219192 0.11365361 -0.05246667 0.08571624 0.09551048
-0.12690511 -0.10346795 0.01820893 0.09895061 -0.10401471 -0.06501078 0.045272257 0.10913731
-0.00013935787 -0.082954176 0.018810099 -0.062366482 0.10280697 0.03909178 -0.030779632 0.017651271
-0.06321206 0.0110058505 -0.14409393 -0.040788546 -0.14225414 -0.10088631 -0.0519191 -0.034263168
-0.04391508 -0.010709938 -0.016145721 -0.11362958 0.038920186 -0.041580632 0.09533022 -0.13382062
-0.04166208 0.032342505 -0.04574904 -0.15918352 0.050040264 0.0075070234 0.03508714 0.091404974
-0.13043462 0.06565492 -0.039053246 -0.083001725 0.0013267344 0.03337407 -0.0628179 0.04778818
-0.0405336 -0.10607852 0.055880044 0.085121475 -0.123853244 -0.1048799 -0.07528676 0.036877323
0.079784326 -0.009501566 0.091270134 0.12117964 -0.11632143 0.10443641 0.066351585 0.072012834
0.09017548 -0.011170062 -0.043153964 0.084544934 0.05410462 0.09865228 -0.054097395 0.026353657
0.056359492 -0.03569619 0.0001187789 0.02212436 0.12314296 0.03198481 -0.07523649 -0.0059889145
0.10428562 0.14606519 0.097325556 0.024333682 0.12243371 0.055942014 -0.050405793 0.030561121
-0.021946592 0.08458073 -0.10010562 0.066927016 -0.07530123 -0.0720881 -0.005328189 0.11635178
0.010256862 -0.015848134 -0.07319699 0.045152053 -0.07136631 -0.0122429915 -0.031022923 -0.05584138
0.055867948 0.05427359 -0.09892076 0.13403237 -0.03667642 -0.00073202065 -0.091217026 -0.0028942
-0.010051034 -0.122183874 -0.024282353 0.07742625 0.03975967 0.10589283 0.0480536 0.06962051
-0.07457539 -0.14820604 -0.03357355 -0.03366896 0.095210046 -0.04249152 -0.010954549 0.01794442
0.013501315 -0.076535895 -0.029899715 0.14219756 0.040025927 0.07802161 0.031376187 0.010805086
0.0861903 0.053495843 -0.118858516 -0.09394655 -0.115294516 0.03881249 0.014742734 0.0045007286
-0.09248795 0.095162936 -0.0866651 0.14618197 0.06876174 -0.13579333 0.11257758 0.019173715
0.032988887 -0.022112118 -0.055059306 -0.12304993 0.061427005 0.0025977637 -0.056187958 0.073162034
-0.06547344 -0.07161513 -0.0065706056 -0.13044417 -0.019009428 0.08257636 0.06771089 -0.06891351
0.09588232 -0.100280315 0.08757659 -0.08132044 0.016910426 0.0312638 -0.08050378 0.06750249
-0.06806389 0.052343085 0.08405448 0.08336184 0.04841077 0.035906993 0.030295987 -0.10861202
-0.034029424 -0.14768268 -0.09158485 -0.013917069 0.057293653 -0.07576059 0.029801862 -0.06390438
0.04112446 0.027387353 0.05243762 -0.12259723 -0.031159889 -0.059609763 -0.060809463 -0.06558922
-0.02962332 0.118901834 0.09362143 -0.006031905 0.049126986 -0.09488215 0.022516217 -0.01983695
-0.09897638 -0.050007638 0.06606993 -0.018010227 -0.08074456 -0.015247627 0.028225655 0.011231155
0.031633973 -0.022934282 0.047947552 -0.12867379 0.10011941 0.07247956 -0.04748951 -0.037355676
-0.0069128554 0.058232535 -0.07087043 0.06829867 -0.06764955 0.03908359 -0.106458485 -0.073086016
00000000: 71c4 3d3d 9165 d8bc ebb7 f3bd 868c d5bc
00000010: 1dd6 353d 7d53 e5bd 3a55 87bc 8031 973d
00000020: 31e1 d0bd 9dd1 e93d 8e72 ba3d 98a9 4abd
00000030: d436 06bc cd2a 8abd 5c37 00bd a70d 833d
00000040: 7632 f3bc 2e23 aa3d 6ec5 943c 3d54 a83d
00000050: 39c3 e83d 4ae7 56bd ff8b af3d 009b c33d
00000060: 6af3 01be 01e7 d3bd e52a 953c 9ea6 ca3d
00000070: aa05 d5bd 5f24 85bd 676f 393d 6283 df3d
00000080: 9820 12b9 e1e3 a9bd a317 9a3c ff73 7fbd
00000090: 768c d23d b41e 203d 9125 fcbc 6699 903c
000000a0: 5375 81bd e251 343c 5c8d 13be e411 27bd
000000b0: 12ab 11be 7b9d cebd 1fa9 54bd 8957 0cbd
000000c0: 4de0 33bd bc78 2fbc 0844 84bc a0b6 e8bd
000000d0: c66a 1f3d 7450 2abd 7e3c c33d 4608 09be
000000e0: dba5 2abd 9379 043d 5863 3bbd 0101 23be
000000f0: 05f7 4c3d 7afd f53b 88b7 0f3d 8832 bb3d
00000100: a790 05be 1676 863d 4cf6 1fbd cffc a9bd
00000110: d2e5 ad3a 40b3 083d aca6 80bd 8abd 433d
00000120: 8f06 26bd b23f d9bd 79e2 643d 2b54 ae3d
00000130: c5a6 fdbd 46cb d6bd f22f 9abd ad0c 173d
00000140: f765 a33d 75ac 1bbc d6eb ba3d 082d f83d
00000150: ee39 eebd c2e2 d53d 57e3 873d 777b 933d
00000160: ecad b83d a302 37bc 36c2 30bd e525 ad3d
00000170: ce9c 5d3d 350a ca3d 3b95 5dbd a0e3 d73c
00000180: 36d9 663d 2b36 12bd f018 f938 253e b53c
00000190: 6032 fc3d 8102 033d 9715 9abd a83e c4bb
000001a0: b393 d53d 1d92 153e 9f52 c73d 6e57 c73c
000001b0: 86be fa3d 7423 653d 4e76 4ebd 515b fa3c
000001c0: 57c9 b3bc a938 ad3d 2d04 cdbd 0811 893d
000001d0: 8837 9abd eda2 93bd 1798 aebb d849 ee3d
000001e0: 660c 283c f2d3 81bc 4ee8 95bd 5cf1 383d
000001f0: 8028 92bd d496 48bc c923 febc eeb9 64bd
00000200: cad5 643d fc4d 5e3d f896 cabd c83f 093e
00000210: 043a 16bd 13e5 3fba fecf babd 9eac 3dbb
00000220: 18ad 24bc 8a3b fabd c9eb c6bc a791 9e3d
00000230: 09db 223d 57de d83d dad3 443d 3395 8e3d
00000240: fbba 98bd 53c3 17be 6b84 09bd 77e8 09bd
00000250: 7cfd c23d 970b 2ebd b57a 33bc 2d00 933c
00000260: 9f34 5d3c dabe 9cbd 3ff0 f4bc 3d9c 113e
00000270: 3af2 233d cbc9 9f3d 5184 003d d107 313c
00000280: 8a84 b03d 751e 5b3d 186c f3bd 0c67 c0bd
00000290: 881f ecbd d8f9 1e3d 828b 713c d97a 933b
000002a0: 536a bdbd c9e4 c23d 797d b1bd bab0 153e
000002b0: f5d2 8c3d 680d 0bbe 138f e63d 3212 9d3c
000002c0: 5b1f 073d 7924 b5bc de85 61bd 9a01 fcbd
000002d0: e29a 7b3d 3e3f 2a3b 5825 66bd fad5 953d
000002e0: f016 86bd f4aa 92bd 3c4e d7bb 2893 05be
000002f0: a9b9 9bbc cb1d a93d 02ac 8a3d 8722 8dbd
00000300: f35d c43d c45f cdbd 5b5b b33d 558b a6bd
00000310: bc87 8a3c 780e 003d 2adf a4bd bf3e 8a3d
00000320: 1565 8bbd b465 563d c124 ac3d 9db9 aa3d
00000330: 5f4a 463d 3613 133d 4a2f f83c fb6f debd
00000340: 7062 0bbd 213a 17be d690 bbbd 6b04 64bc
00000350: c0ac 6a3d 5e28 9bbd 0923 f43c 4de0 82bd
00000360: 1f72 283d 715b e03c d4c8 563d 4214 fbbd
00000370: 0643 ffbc 5e29 74bd 5813 79bd a453 86bd
00000380: 9bac f2bc ce82 f33d 98bc bf3d 49a7 c5bb
00000390: 6139 493d 9351 c2bd ee73 b83c 1981 a2bc
000003a0: 21b4 cabd cfd4 4cbd ac4f 873d 2f8a 93bc
000003b0: 675d a5bd 2fd1 79bc 7d39 e73c e102 383c
000003c0: a092 013d ade0 bbbc a764 443d 10c3 03be
000003d0: 680b cd3d 2a70 943d 5c84 42bd 4402 19bd
000003e0: 3c85 e2bb 3d85 6e3d 8424 91bd 2ce0 8b3d
000003f0: d98b 8abd 1d16 203d e806 dabd 1fae 95bd

lin2.bias f4 [5]
-0.017989716 -0.039787773 -0.03327058 -0.024524594 0.05242168
00000000: 2b5f 93bc 81f8 22bd bb46 08bd cde7 c8bc
00000010: 1eb8 563d

prop1.temp f4 [11]
0.96166444 0.97951794 1.0108002 1.0148971 1.013264 1.0106899 1.0058925 0.99284136
0.98262316 0.96733004 0.9604953
00000000: a42f 763f b0c1 7a3f e761 813f 26e8 813f
00000010: a2b2 813f 495e 813f 16c1 803f da2a 7e3f
00000020: 318d 7b3f f1a2 773f 05e3 753f
